<?xml version="1.0"?>
<net name="TensorFlow_Frontend_IR" version="11">
	<layers>
		<layer id="1" name="args_0" type="Parameter" version="opset1">
			<data shape="1,3" element_type="f32" />
			<rt_info>
				<attribute name="old_api_map_element_type" version="0" value="f16" />
			</rt_info>
			<output>
				<port id="0" precision="FP32" names="args_0">
					<dim>1</dim>
					<dim>3</dim>
				</port>
			</output>
		</layer>
		<layer id="0" name="args_1" type="Parameter" version="opset1">
			<data shape="1,128,16,1" element_type="f32" />
			<rt_info>
				<attribute name="old_api_map_element_type" version="0" value="f16" />
			</rt_info>
			<output>
				<port id="0" precision="FP32" names="args_1">
					<dim>1</dim>
					<dim>128</dim>
					<dim>16</dim>
					<dim>1</dim>
				</port>
			</output>
		</layer>
		<layer id="2" name="model/ttl/sequential/tt_dense_0/t3f_matmul/t3f_transpose/transpose_compressed" type="Const" version="opset1">
			<data element_type="f16" shape="1, 4, 2, 7" offset="0" size="112" />
			<output>
				<port id="0" precision="FP16">
					<dim>1</dim>
					<dim>4</dim>
					<dim>2</dim>
					<dim>7</dim>
				</port>
			</output>
		</layer>
		<layer id="3" name="model/ttl/sequential/tt_dense_0/t3f_matmul/t3f_transpose/transpose" type="Convert" version="opset1">
			<data destination_type="f32" />
			<rt_info>
				<attribute name="decompression" version="0" />
			</rt_info>
			<input>
				<port id="0" precision="FP16">
					<dim>1</dim>
					<dim>4</dim>
					<dim>2</dim>
					<dim>7</dim>
				</port>
			</input>
			<output>
				<port id="1" precision="FP32">
					<dim>1</dim>
					<dim>4</dim>
					<dim>2</dim>
					<dim>7</dim>
				</port>
			</output>
		</layer>
		<layer id="4" name="model/ttl/sequential/tt_dense_0/t3f_matmul/t3f_transpose/transpose_1_compressed" type="Const" version="opset1">
			<data element_type="f16" shape="7, 4, 2, 16" offset="112" size="1792" />
			<output>
				<port id="0" precision="FP16">
					<dim>7</dim>
					<dim>4</dim>
					<dim>2</dim>
					<dim>16</dim>
				</port>
			</output>
		</layer>
		<layer id="5" name="model/ttl/sequential/tt_dense_0/t3f_matmul/t3f_transpose/transpose_1" type="Convert" version="opset1">
			<data destination_type="f32" />
			<rt_info>
				<attribute name="decompression" version="0" />
			</rt_info>
			<input>
				<port id="0" precision="FP16">
					<dim>7</dim>
					<dim>4</dim>
					<dim>2</dim>
					<dim>16</dim>
				</port>
			</input>
			<output>
				<port id="1" precision="FP32">
					<dim>7</dim>
					<dim>4</dim>
					<dim>2</dim>
					<dim>16</dim>
				</port>
			</output>
		</layer>
		<layer id="6" name="model/ttl/sequential/tt_dense_0/t3f_matmul/t3f_transpose/transpose_2_compressed" type="Const" version="opset1">
			<data element_type="f16" shape="16, 4, 2, 16" offset="1904" size="4096" />
			<output>
				<port id="0" precision="FP16">
					<dim>16</dim>
					<dim>4</dim>
					<dim>2</dim>
					<dim>16</dim>
				</port>
			</output>
		</layer>
		<layer id="7" name="model/ttl/sequential/tt_dense_0/t3f_matmul/t3f_transpose/transpose_2" type="Convert" version="opset1">
			<data destination_type="f32" />
			<rt_info>
				<attribute name="decompression" version="0" />
			</rt_info>
			<input>
				<port id="0" precision="FP16">
					<dim>16</dim>
					<dim>4</dim>
					<dim>2</dim>
					<dim>16</dim>
				</port>
			</input>
			<output>
				<port id="1" precision="FP32">
					<dim>16</dim>
					<dim>4</dim>
					<dim>2</dim>
					<dim>16</dim>
				</port>
			</output>
		</layer>
		<layer id="8" name="model/ttl/sequential/tt_dense_0/t3f_matmul/t3f_transpose/transpose_3_compressed" type="Const" version="opset1">
			<data element_type="f16" shape="16, 4, 2, 16" offset="6000" size="4096" />
			<output>
				<port id="0" precision="FP16">
					<dim>16</dim>
					<dim>4</dim>
					<dim>2</dim>
					<dim>16</dim>
				</port>
			</output>
		</layer>
		<layer id="9" name="model/ttl/sequential/tt_dense_0/t3f_matmul/t3f_transpose/transpose_3" type="Convert" version="opset1">
			<data destination_type="f32" />
			<rt_info>
				<attribute name="decompression" version="0" />
			</rt_info>
			<input>
				<port id="0" precision="FP16">
					<dim>16</dim>
					<dim>4</dim>
					<dim>2</dim>
					<dim>16</dim>
				</port>
			</input>
			<output>
				<port id="1" precision="FP32">
					<dim>16</dim>
					<dim>4</dim>
					<dim>2</dim>
					<dim>16</dim>
				</port>
			</output>
		</layer>
		<layer id="10" name="model/ttl/sequential/tt_dense_0/t3f_matmul/t3f_transpose/transpose_4_compressed" type="Const" version="opset1">
			<data element_type="f16" shape="16, 4, 2, 16" offset="10096" size="4096" />
			<output>
				<port id="0" precision="FP16">
					<dim>16</dim>
					<dim>4</dim>
					<dim>2</dim>
					<dim>16</dim>
				</port>
			</output>
		</layer>
		<layer id="11" name="model/ttl/sequential/tt_dense_0/t3f_matmul/t3f_transpose/transpose_4" type="Convert" version="opset1">
			<data destination_type="f32" />
			<rt_info>
				<attribute name="decompression" version="0" />
			</rt_info>
			<input>
				<port id="0" precision="FP16">
					<dim>16</dim>
					<dim>4</dim>
					<dim>2</dim>
					<dim>16</dim>
				</port>
			</input>
			<output>
				<port id="1" precision="FP32">
					<dim>16</dim>
					<dim>4</dim>
					<dim>2</dim>
					<dim>16</dim>
				</port>
			</output>
		</layer>
		<layer id="12" name="model/ttl/sequential/tt_dense_0/t3f_matmul/t3f_transpose/transpose_5_compressed" type="Const" version="opset1">
			<data element_type="f16" shape="16, 4, 2, 7" offset="14192" size="1792" />
			<output>
				<port id="0" precision="FP16">
					<dim>16</dim>
					<dim>4</dim>
					<dim>2</dim>
					<dim>7</dim>
				</port>
			</output>
		</layer>
		<layer id="13" name="model/ttl/sequential/tt_dense_0/t3f_matmul/t3f_transpose/transpose_5" type="Convert" version="opset1">
			<data destination_type="f32" />
			<rt_info>
				<attribute name="decompression" version="0" />
			</rt_info>
			<input>
				<port id="0" precision="FP16">
					<dim>16</dim>
					<dim>4</dim>
					<dim>2</dim>
					<dim>7</dim>
				</port>
			</input>
			<output>
				<port id="1" precision="FP32">
					<dim>16</dim>
					<dim>4</dim>
					<dim>2</dim>
					<dim>7</dim>
				</port>
			</output>
		</layer>
		<layer id="14" name="model/ttl/sequential/tt_dense_0/t3f_matmul/t3f_transpose/transpose_6_compressed" type="Const" version="opset1">
			<data element_type="f16" shape="7, 4, 2, 1" offset="15984" size="112" />
			<output>
				<port id="0" precision="FP16">
					<dim>7</dim>
					<dim>4</dim>
					<dim>2</dim>
					<dim>1</dim>
				</port>
			</output>
		</layer>
		<layer id="15" name="model/ttl/sequential/tt_dense_0/t3f_matmul/t3f_transpose/transpose_6" type="Convert" version="opset1">
			<data destination_type="f32" />
			<rt_info>
				<attribute name="decompression" version="0" />
			</rt_info>
			<input>
				<port id="0" precision="FP16">
					<dim>7</dim>
					<dim>4</dim>
					<dim>2</dim>
					<dim>1</dim>
				</port>
			</input>
			<output>
				<port id="1" precision="FP32">
					<dim>7</dim>
					<dim>4</dim>
					<dim>2</dim>
					<dim>1</dim>
				</port>
			</output>
		</layer>
		<layer id="16" name="Constant_1404" type="Const" version="opset1">
			<data element_type="i32" shape="1" offset="16096" size="4" />
			<output>
				<port id="0" precision="I32">
					<dim>1</dim>
				</port>
			</output>
		</layer>
		<layer id="17" name="model/ttl/sequential/Squeeze" type="Squeeze" version="opset1">
			<input>
				<port id="0" precision="FP32">
					<dim>1</dim>
					<dim>128</dim>
					<dim>16</dim>
					<dim>1</dim>
				</port>
				<port id="1" precision="I32">
					<dim>1</dim>
				</port>
			</input>
			<output>
				<port id="2" precision="FP32">
					<dim>1</dim>
					<dim>128</dim>
					<dim>16</dim>
				</port>
			</output>
		</layer>
		<layer id="18" name="model/ttl/sequential/einsum_ttl/strided_slice/stack" type="Const" version="opset1">
			<data element_type="i32" shape="3" offset="16100" size="12" />
			<rt_info>
				<attribute name="precise" version="0" />
			</rt_info>
			<output>
				<port id="0" precision="I32">
					<dim>3</dim>
				</port>
			</output>
		</layer>
		<layer id="19" name="model/ttl/sequential/einsum_ttl/strided_slice/stack_1" type="Const" version="opset1">
			<data element_type="i32" shape="3" offset="16112" size="12" />
			<rt_info>
				<attribute name="precise" version="0" />
			</rt_info>
			<output>
				<port id="0" precision="I32">
					<dim>3</dim>
				</port>
			</output>
		</layer>
		<layer id="20" name="model/ttl/sequential/einsum_ttl/strided_slice/stack_2" type="Const" version="opset1">
			<data element_type="i32" shape="3" offset="16124" size="12" />
			<rt_info>
				<attribute name="precise" version="0" />
			</rt_info>
			<output>
				<port id="0" precision="I32">
					<dim>3</dim>
				</port>
			</output>
		</layer>
		<layer id="21" name="model/ttl/sequential/einsum_ttl/strided_slice" type="StridedSlice" version="opset1">
			<data begin_mask="1, 1, 1" end_mask="1, 0, 0" new_axis_mask="0, 0, 0" shrink_axis_mask="0, 0, 0" ellipsis_mask="0, 0, 0" />
			<input>
				<port id="0" precision="FP32">
					<dim>1</dim>
					<dim>128</dim>
					<dim>16</dim>
				</port>
				<port id="1" precision="I32">
					<dim>3</dim>
				</port>
				<port id="2" precision="I32">
					<dim>3</dim>
				</port>
				<port id="3" precision="I32">
					<dim>3</dim>
				</port>
			</input>
			<output>
				<port id="4" precision="FP32">
					<dim>1</dim>
					<dim>64</dim>
					<dim>8</dim>
				</port>
			</output>
		</layer>
		<layer id="22" name="model/ttl/sequential/einsum_ttl/strided_slice_1_compressed" type="Const" version="opset1">
			<data element_type="f16" shape="8" offset="16136" size="16" />
			<output>
				<port id="0" precision="FP16">
					<dim>8</dim>
				</port>
			</output>
		</layer>
		<layer id="23" name="model/ttl/sequential/einsum_ttl/strided_slice_1" type="Convert" version="opset1">
			<data destination_type="f32" />
			<rt_info>
				<attribute name="decompression" version="0" />
			</rt_info>
			<input>
				<port id="0" precision="FP16">
					<dim>8</dim>
				</port>
			</input>
			<output>
				<port id="1" precision="FP32">
					<dim>8</dim>
				</port>
			</output>
		</layer>
		<layer id="24" name="model/ttl/sequential/einsum_ttl/einsum/Einsum" type="Einsum" version="opset7">
			<data equation="abc,c->ab" />
			<input>
				<port id="0" precision="FP32">
					<dim>1</dim>
					<dim>64</dim>
					<dim>8</dim>
				</port>
				<port id="1" precision="FP32">
					<dim>8</dim>
				</port>
			</input>
			<output>
				<port id="2" precision="FP32">
					<dim>1</dim>
					<dim>64</dim>
				</port>
			</output>
		</layer>
		<layer id="25" name="model/ttl/sequential/einsum_ttl/strided_slice_2/stack" type="Const" version="opset1">
			<data element_type="i32" shape="3" offset="16152" size="12" />
			<rt_info>
				<attribute name="precise" version="0" />
			</rt_info>
			<output>
				<port id="0" precision="I32">
					<dim>3</dim>
				</port>
			</output>
		</layer>
		<layer id="26" name="model/ttl/sequential/einsum_ttl/strided_slice_2/stack_1" type="Const" version="opset1">
			<data element_type="i32" shape="3" offset="16164" size="12" />
			<rt_info>
				<attribute name="precise" version="0" />
			</rt_info>
			<output>
				<port id="0" precision="I32">
					<dim>3</dim>
				</port>
			</output>
		</layer>
		<layer id="27" name="model/ttl/sequential/einsum_ttl/strided_slice_2/stack_2" type="Const" version="opset1">
			<data element_type="i32" shape="3" offset="16124" size="12" />
			<rt_info>
				<attribute name="precise" version="0" />
			</rt_info>
			<output>
				<port id="0" precision="I32">
					<dim>3</dim>
				</port>
			</output>
		</layer>
		<layer id="28" name="model/ttl/sequential/einsum_ttl/strided_slice_2" type="StridedSlice" version="opset1">
			<data begin_mask="1, 1" end_mask="1, 0" new_axis_mask="0, 0" shrink_axis_mask="0, 0" ellipsis_mask="0, 0" />
			<input>
				<port id="0" precision="FP32">
					<dim>1</dim>
					<dim>128</dim>
					<dim>16</dim>
				</port>
				<port id="1" precision="I32">
					<dim>3</dim>
				</port>
				<port id="2" precision="I32">
					<dim>3</dim>
				</port>
				<port id="3" precision="I32">
					<dim>3</dim>
				</port>
			</input>
			<output>
				<port id="4" precision="FP32">
					<dim>1</dim>
					<dim>64</dim>
					<dim>8</dim>
				</port>
			</output>
		</layer>
		<layer id="29" name="Unsqueeze_1424_compressed" type="Const" version="opset1">
			<data element_type="f16" shape="1, 8" offset="16136" size="16" />
			<output>
				<port id="0" precision="FP16">
					<dim>1</dim>
					<dim>8</dim>
				</port>
			</output>
		</layer>
		<layer id="30" name="Unsqueeze_1424" type="Convert" version="opset1">
			<data destination_type="f32" />
			<rt_info>
				<attribute name="decompression" version="0" />
			</rt_info>
			<input>
				<port id="0" precision="FP16">
					<dim>1</dim>
					<dim>8</dim>
				</port>
			</input>
			<output>
				<port id="1" precision="FP32">
					<dim>1</dim>
					<dim>8</dim>
				</port>
			</output>
		</layer>
		<layer id="31" name="Broadcast_1431" type="Const" version="opset1">
			<data element_type="i32" shape="1" offset="16176" size="4" />
			<output>
				<port id="0" precision="I32">
					<dim>1</dim>
				</port>
			</output>
		</layer>
		<layer id="32" name="ReverseSequence_1434" type="ReverseSequence" version="opset1">
			<data batch_axis="0" seq_axis="1" />
			<input>
				<port id="0" precision="FP32">
					<dim>1</dim>
					<dim>8</dim>
				</port>
				<port id="1" precision="I32">
					<dim>1</dim>
				</port>
			</input>
			<output>
				<port id="2" precision="FP32">
					<dim>1</dim>
					<dim>8</dim>
				</port>
			</output>
		</layer>
		<layer id="33" name="Constant_1435" type="Const" version="opset1">
			<data element_type="i32" shape="1" offset="16180" size="4" />
			<output>
				<port id="0" precision="I32">
					<dim>1</dim>
				</port>
			</output>
		</layer>
		<layer id="34" name="model/ttl/sequential/einsum_ttl/ReverseV2" type="Squeeze" version="opset1">
			<input>
				<port id="0" precision="FP32">
					<dim>1</dim>
					<dim>8</dim>
				</port>
				<port id="1" precision="I32">
					<dim>1</dim>
				</port>
			</input>
			<output>
				<port id="2" precision="FP32">
					<dim>8</dim>
				</port>
			</output>
		</layer>
		<layer id="35" name="model/ttl/sequential/einsum_ttl/einsum_1/Einsum" type="Einsum" version="opset7">
			<data equation="abc,c->ab" />
			<input>
				<port id="0" precision="FP32">
					<dim>1</dim>
					<dim>64</dim>
					<dim>8</dim>
				</port>
				<port id="1" precision="FP32">
					<dim>8</dim>
				</port>
			</input>
			<output>
				<port id="2" precision="FP32">
					<dim>1</dim>
					<dim>64</dim>
				</port>
			</output>
		</layer>
		<layer id="36" name="model/ttl/sequential/einsum_ttl/add" type="Add" version="opset1">
			<data auto_broadcast="numpy" />
			<input>
				<port id="0" precision="FP32">
					<dim>1</dim>
					<dim>64</dim>
				</port>
				<port id="1" precision="FP32">
					<dim>1</dim>
					<dim>64</dim>
				</port>
			</input>
			<output>
				<port id="2" precision="FP32">
					<dim>1</dim>
					<dim>64</dim>
				</port>
			</output>
		</layer>
		<layer id="37" name="model/ttl/sequential/einsum_ttl/strided_slice_4/stack" type="Const" version="opset1">
			<data element_type="i32" shape="3" offset="16184" size="12" />
			<rt_info>
				<attribute name="precise" version="0" />
			</rt_info>
			<output>
				<port id="0" precision="I32">
					<dim>3</dim>
				</port>
			</output>
		</layer>
		<layer id="38" name="model/ttl/sequential/einsum_ttl/strided_slice_4/stack_1" type="Const" version="opset1">
			<data element_type="i32" shape="3" offset="16152" size="12" />
			<rt_info>
				<attribute name="precise" version="0" />
			</rt_info>
			<output>
				<port id="0" precision="I32">
					<dim>3</dim>
				</port>
			</output>
		</layer>
		<layer id="39" name="model/ttl/sequential/einsum_ttl/strided_slice_4/stack_2" type="Const" version="opset1">
			<data element_type="i32" shape="3" offset="16124" size="12" />
			<rt_info>
				<attribute name="precise" version="0" />
			</rt_info>
			<output>
				<port id="0" precision="I32">
					<dim>3</dim>
				</port>
			</output>
		</layer>
		<layer id="40" name="model/ttl/sequential/einsum_ttl/strided_slice_4" type="StridedSlice" version="opset1">
			<data begin_mask="1, 0, 1" end_mask="1, 1, 0" new_axis_mask="0, 0, 0" shrink_axis_mask="0, 0, 0" ellipsis_mask="0, 0, 0" />
			<input>
				<port id="0" precision="FP32">
					<dim>1</dim>
					<dim>128</dim>
					<dim>16</dim>
				</port>
				<port id="1" precision="I32">
					<dim>3</dim>
				</port>
				<port id="2" precision="I32">
					<dim>3</dim>
				</port>
				<port id="3" precision="I32">
					<dim>3</dim>
				</port>
			</input>
			<output>
				<port id="4" precision="FP32">
					<dim>1</dim>
					<dim>64</dim>
					<dim>8</dim>
				</port>
			</output>
		</layer>
		<layer id="41" name="model/ttl/sequential/einsum_ttl/strided_slice_5_compressed" type="Const" version="opset1">
			<data element_type="f16" shape="8" offset="16196" size="16" />
			<output>
				<port id="0" precision="FP16">
					<dim>8</dim>
				</port>
			</output>
		</layer>
		<layer id="42" name="model/ttl/sequential/einsum_ttl/strided_slice_5" type="Convert" version="opset1">
			<data destination_type="f32" />
			<rt_info>
				<attribute name="decompression" version="0" />
			</rt_info>
			<input>
				<port id="0" precision="FP16">
					<dim>8</dim>
				</port>
			</input>
			<output>
				<port id="1" precision="FP32">
					<dim>8</dim>
				</port>
			</output>
		</layer>
		<layer id="43" name="model/ttl/sequential/einsum_ttl/einsum_2/Einsum" type="Einsum" version="opset7">
			<data equation="abc,c->ab" />
			<input>
				<port id="0" precision="FP32">
					<dim>1</dim>
					<dim>64</dim>
					<dim>8</dim>
				</port>
				<port id="1" precision="FP32">
					<dim>8</dim>
				</port>
			</input>
			<output>
				<port id="2" precision="FP32">
					<dim>1</dim>
					<dim>64</dim>
				</port>
			</output>
		</layer>
		<layer id="44" name="model/ttl/sequential/einsum_ttl/strided_slice_6/stack" type="Const" version="opset1">
			<data element_type="i32" shape="3" offset="16112" size="12" />
			<rt_info>
				<attribute name="precise" version="0" />
			</rt_info>
			<output>
				<port id="0" precision="I32">
					<dim>3</dim>
				</port>
			</output>
		</layer>
		<layer id="45" name="model/ttl/sequential/einsum_ttl/strided_slice_6/stack_1" type="Const" version="opset1">
			<data element_type="i32" shape="3" offset="16212" size="12" />
			<rt_info>
				<attribute name="precise" version="0" />
			</rt_info>
			<output>
				<port id="0" precision="I32">
					<dim>3</dim>
				</port>
			</output>
		</layer>
		<layer id="46" name="model/ttl/sequential/einsum_ttl/strided_slice_6/stack_2" type="Const" version="opset1">
			<data element_type="i32" shape="3" offset="16124" size="12" />
			<rt_info>
				<attribute name="precise" version="0" />
			</rt_info>
			<output>
				<port id="0" precision="I32">
					<dim>3</dim>
				</port>
			</output>
		</layer>
		<layer id="47" name="model/ttl/sequential/einsum_ttl/strided_slice_6" type="StridedSlice" version="opset1">
			<data begin_mask="1, 0" end_mask="1, 1" new_axis_mask="0, 0" shrink_axis_mask="0, 0" ellipsis_mask="0, 0" />
			<input>
				<port id="0" precision="FP32">
					<dim>1</dim>
					<dim>128</dim>
					<dim>16</dim>
				</port>
				<port id="1" precision="I32">
					<dim>3</dim>
				</port>
				<port id="2" precision="I32">
					<dim>3</dim>
				</port>
				<port id="3" precision="I32">
					<dim>3</dim>
				</port>
			</input>
			<output>
				<port id="4" precision="FP32">
					<dim>1</dim>
					<dim>64</dim>
					<dim>8</dim>
				</port>
			</output>
		</layer>
		<layer id="48" name="Unsqueeze_1388_compressed" type="Const" version="opset1">
			<data element_type="f16" shape="1, 8" offset="16196" size="16" />
			<output>
				<port id="0" precision="FP16">
					<dim>1</dim>
					<dim>8</dim>
				</port>
			</output>
		</layer>
		<layer id="49" name="Unsqueeze_1388" type="Convert" version="opset1">
			<data destination_type="f32" />
			<rt_info>
				<attribute name="decompression" version="0" />
			</rt_info>
			<input>
				<port id="0" precision="FP16">
					<dim>1</dim>
					<dim>8</dim>
				</port>
			</input>
			<output>
				<port id="1" precision="FP32">
					<dim>1</dim>
					<dim>8</dim>
				</port>
			</output>
		</layer>
		<layer id="50" name="Broadcast_1395" type="Const" version="opset1">
			<data element_type="i32" shape="1" offset="16176" size="4" />
			<output>
				<port id="0" precision="I32">
					<dim>1</dim>
				</port>
			</output>
		</layer>
		<layer id="51" name="ReverseSequence_1398" type="ReverseSequence" version="opset1">
			<data batch_axis="0" seq_axis="1" />
			<input>
				<port id="0" precision="FP32">
					<dim>1</dim>
					<dim>8</dim>
				</port>
				<port id="1" precision="I32">
					<dim>1</dim>
				</port>
			</input>
			<output>
				<port id="2" precision="FP32">
					<dim>1</dim>
					<dim>8</dim>
				</port>
			</output>
		</layer>
		<layer id="52" name="Constant_1399" type="Const" version="opset1">
			<data element_type="i32" shape="1" offset="16180" size="4" />
			<output>
				<port id="0" precision="I32">
					<dim>1</dim>
				</port>
			</output>
		</layer>
		<layer id="53" name="model/ttl/sequential/einsum_ttl/ReverseV2_1" type="Squeeze" version="opset1">
			<input>
				<port id="0" precision="FP32">
					<dim>1</dim>
					<dim>8</dim>
				</port>
				<port id="1" precision="I32">
					<dim>1</dim>
				</port>
			</input>
			<output>
				<port id="2" precision="FP32">
					<dim>8</dim>
				</port>
			</output>
		</layer>
		<layer id="54" name="model/ttl/sequential/einsum_ttl/einsum_3/Einsum" type="Einsum" version="opset7">
			<data equation="abc,c->ab" />
			<input>
				<port id="0" precision="FP32">
					<dim>1</dim>
					<dim>64</dim>
					<dim>8</dim>
				</port>
				<port id="1" precision="FP32">
					<dim>8</dim>
				</port>
			</input>
			<output>
				<port id="2" precision="FP32">
					<dim>1</dim>
					<dim>64</dim>
				</port>
			</output>
		</layer>
		<layer id="55" name="model/ttl/sequential/einsum_ttl/add_1" type="Add" version="opset1">
			<data auto_broadcast="numpy" />
			<input>
				<port id="0" precision="FP32">
					<dim>1</dim>
					<dim>64</dim>
				</port>
				<port id="1" precision="FP32">
					<dim>1</dim>
					<dim>64</dim>
				</port>
			</input>
			<output>
				<port id="2" precision="FP32">
					<dim>1</dim>
					<dim>64</dim>
				</port>
			</output>
		</layer>
		<layer id="56" name="model/ttl/sequential/einsum_ttl/concat" type="Concat" version="opset1">
			<data axis="1" />
			<input>
				<port id="0" precision="FP32">
					<dim>1</dim>
					<dim>64</dim>
				</port>
				<port id="1" precision="FP32">
					<dim>1</dim>
					<dim>64</dim>
				</port>
			</input>
			<output>
				<port id="2" precision="FP32">
					<dim>1</dim>
					<dim>128</dim>
				</port>
			</output>
		</layer>
		<layer id="57" name="model/ttl/sequential/flatten/Const" type="Const" version="opset1">
			<data element_type="i32" shape="2" offset="16224" size="8" />
			<rt_info>
				<attribute name="precise" version="0" />
			</rt_info>
			<output>
				<port id="0" precision="I32">
					<dim>2</dim>
				</port>
			</output>
		</layer>
		<layer id="58" name="model/ttl/sequential/flatten/Reshape" type="Reshape" version="opset1">
			<data special_zero="false" />
			<input>
				<port id="0" precision="FP32">
					<dim>1</dim>
					<dim>128</dim>
				</port>
				<port id="1" precision="I32">
					<dim>2</dim>
				</port>
			</input>
			<output>
				<port id="2" precision="FP32">
					<dim>1</dim>
					<dim>128</dim>
				</port>
			</output>
		</layer>
		<layer id="59" name="model/ttl/sequential/tt_dense_0/t3f_matmul/Reshape/shape" type="Const" version="opset1">
			<data element_type="i32" shape="3" offset="16232" size="12" />
			<rt_info>
				<attribute name="precise" version="0" />
			</rt_info>
			<output>
				<port id="0" precision="I32">
					<dim>3</dim>
				</port>
			</output>
		</layer>
		<layer id="60" name="model/ttl/sequential/tt_dense_0/t3f_matmul/Reshape" type="Reshape" version="opset1">
			<data special_zero="false" />
			<input>
				<port id="0" precision="FP32">
					<dim>1</dim>
					<dim>128</dim>
				</port>
				<port id="1" precision="I32">
					<dim>3</dim>
				</port>
			</input>
			<output>
				<port id="2" precision="FP32">
					<dim>64</dim>
					<dim>2</dim>
					<dim>1</dim>
				</port>
			</output>
		</layer>
		<layer id="61" name="model/ttl/sequential/tt_dense_0/t3f_matmul/einsum/Einsum" type="Einsum" version="opset7">
			<data equation="aijb,rjb->ira" />
			<input>
				<port id="0" precision="FP32">
					<dim>7</dim>
					<dim>4</dim>
					<dim>2</dim>
					<dim>1</dim>
				</port>
				<port id="1" precision="FP32">
					<dim>64</dim>
					<dim>2</dim>
					<dim>1</dim>
				</port>
			</input>
			<output>
				<port id="2" precision="FP32">
					<dim>4</dim>
					<dim>64</dim>
					<dim>7</dim>
				</port>
			</output>
		</layer>
		<layer id="62" name="model/ttl/sequential/tt_dense_0/t3f_matmul/Reshape_1/shape" type="Const" version="opset1">
			<data element_type="i32" shape="3" offset="16244" size="12" />
			<rt_info>
				<attribute name="precise" version="0" />
			</rt_info>
			<output>
				<port id="0" precision="I32">
					<dim>3</dim>
				</port>
			</output>
		</layer>
		<layer id="63" name="model/ttl/sequential/tt_dense_0/t3f_matmul/Reshape_1" type="Reshape" version="opset1">
			<data special_zero="false" />
			<input>
				<port id="0" precision="FP32">
					<dim>4</dim>
					<dim>64</dim>
					<dim>7</dim>
				</port>
				<port id="1" precision="I32">
					<dim>3</dim>
				</port>
			</input>
			<output>
				<port id="2" precision="FP32">
					<dim>128</dim>
					<dim>2</dim>
					<dim>7</dim>
				</port>
			</output>
		</layer>
		<layer id="64" name="model/ttl/sequential/tt_dense_0/t3f_matmul/einsum_1/Einsum" type="Einsum" version="opset7">
			<data equation="aijb,rjb->ira" />
			<input>
				<port id="0" precision="FP32">
					<dim>16</dim>
					<dim>4</dim>
					<dim>2</dim>
					<dim>7</dim>
				</port>
				<port id="1" precision="FP32">
					<dim>128</dim>
					<dim>2</dim>
					<dim>7</dim>
				</port>
			</input>
			<output>
				<port id="2" precision="FP32">
					<dim>4</dim>
					<dim>128</dim>
					<dim>16</dim>
				</port>
			</output>
		</layer>
		<layer id="65" name="model/ttl/sequential/tt_dense_0/t3f_matmul/Reshape_2/shape" type="Const" version="opset1">
			<data element_type="i32" shape="3" offset="16256" size="12" />
			<rt_info>
				<attribute name="precise" version="0" />
			</rt_info>
			<output>
				<port id="0" precision="I32">
					<dim>3</dim>
				</port>
			</output>
		</layer>
		<layer id="66" name="model/ttl/sequential/tt_dense_0/t3f_matmul/Reshape_2" type="Reshape" version="opset1">
			<data special_zero="false" />
			<input>
				<port id="0" precision="FP32">
					<dim>4</dim>
					<dim>128</dim>
					<dim>16</dim>
				</port>
				<port id="1" precision="I32">
					<dim>3</dim>
				</port>
			</input>
			<output>
				<port id="2" precision="FP32">
					<dim>256</dim>
					<dim>2</dim>
					<dim>16</dim>
				</port>
			</output>
		</layer>
		<layer id="67" name="model/ttl/sequential/tt_dense_0/t3f_matmul/einsum_2/Einsum" type="Einsum" version="opset7">
			<data equation="aijb,rjb->ira" />
			<input>
				<port id="0" precision="FP32">
					<dim>16</dim>
					<dim>4</dim>
					<dim>2</dim>
					<dim>16</dim>
				</port>
				<port id="1" precision="FP32">
					<dim>256</dim>
					<dim>2</dim>
					<dim>16</dim>
				</port>
			</input>
			<output>
				<port id="2" precision="FP32">
					<dim>4</dim>
					<dim>256</dim>
					<dim>16</dim>
				</port>
			</output>
		</layer>
		<layer id="68" name="model/ttl/sequential/tt_dense_0/t3f_matmul/Reshape_3/shape" type="Const" version="opset1">
			<data element_type="i32" shape="3" offset="16256" size="12" />
			<rt_info>
				<attribute name="precise" version="0" />
			</rt_info>
			<output>
				<port id="0" precision="I32">
					<dim>3</dim>
				</port>
			</output>
		</layer>
		<layer id="69" name="model/ttl/sequential/tt_dense_0/t3f_matmul/Reshape_3" type="Reshape" version="opset1">
			<data special_zero="false" />
			<input>
				<port id="0" precision="FP32">
					<dim>4</dim>
					<dim>256</dim>
					<dim>16</dim>
				</port>
				<port id="1" precision="I32">
					<dim>3</dim>
				</port>
			</input>
			<output>
				<port id="2" precision="FP32">
					<dim>512</dim>
					<dim>2</dim>
					<dim>16</dim>
				</port>
			</output>
		</layer>
		<layer id="70" name="model/ttl/sequential/tt_dense_0/t3f_matmul/einsum_3/Einsum" type="Einsum" version="opset7">
			<data equation="aijb,rjb->ira" />
			<input>
				<port id="0" precision="FP32">
					<dim>16</dim>
					<dim>4</dim>
					<dim>2</dim>
					<dim>16</dim>
				</port>
				<port id="1" precision="FP32">
					<dim>512</dim>
					<dim>2</dim>
					<dim>16</dim>
				</port>
			</input>
			<output>
				<port id="2" precision="FP32">
					<dim>4</dim>
					<dim>512</dim>
					<dim>16</dim>
				</port>
			</output>
		</layer>
		<layer id="71" name="model/ttl/sequential/tt_dense_0/t3f_matmul/Reshape_4/shape" type="Const" version="opset1">
			<data element_type="i32" shape="3" offset="16256" size="12" />
			<rt_info>
				<attribute name="precise" version="0" />
			</rt_info>
			<output>
				<port id="0" precision="I32">
					<dim>3</dim>
				</port>
			</output>
		</layer>
		<layer id="72" name="model/ttl/sequential/tt_dense_0/t3f_matmul/Reshape_4" type="Reshape" version="opset1">
			<data special_zero="false" />
			<input>
				<port id="0" precision="FP32">
					<dim>4</dim>
					<dim>512</dim>
					<dim>16</dim>
				</port>
				<port id="1" precision="I32">
					<dim>3</dim>
				</port>
			</input>
			<output>
				<port id="2" precision="FP32">
					<dim>1024</dim>
					<dim>2</dim>
					<dim>16</dim>
				</port>
			</output>
		</layer>
		<layer id="73" name="model/ttl/sequential/tt_dense_0/t3f_matmul/einsum_4/Einsum" type="Einsum" version="opset7">
			<data equation="aijb,rjb->ira" />
			<input>
				<port id="0" precision="FP32">
					<dim>16</dim>
					<dim>4</dim>
					<dim>2</dim>
					<dim>16</dim>
				</port>
				<port id="1" precision="FP32">
					<dim>1024</dim>
					<dim>2</dim>
					<dim>16</dim>
				</port>
			</input>
			<output>
				<port id="2" precision="FP32">
					<dim>4</dim>
					<dim>1024</dim>
					<dim>16</dim>
				</port>
			</output>
		</layer>
		<layer id="74" name="model/ttl/sequential/tt_dense_0/t3f_matmul/Reshape_5/shape" type="Const" version="opset1">
			<data element_type="i32" shape="3" offset="16256" size="12" />
			<rt_info>
				<attribute name="precise" version="0" />
			</rt_info>
			<output>
				<port id="0" precision="I32">
					<dim>3</dim>
				</port>
			</output>
		</layer>
		<layer id="75" name="model/ttl/sequential/tt_dense_0/t3f_matmul/Reshape_5" type="Reshape" version="opset1">
			<data special_zero="false" />
			<input>
				<port id="0" precision="FP32">
					<dim>4</dim>
					<dim>1024</dim>
					<dim>16</dim>
				</port>
				<port id="1" precision="I32">
					<dim>3</dim>
				</port>
			</input>
			<output>
				<port id="2" precision="FP32">
					<dim>2048</dim>
					<dim>2</dim>
					<dim>16</dim>
				</port>
			</output>
		</layer>
		<layer id="76" name="model/ttl/sequential/tt_dense_0/t3f_matmul/einsum_5/Einsum" type="Einsum" version="opset7">
			<data equation="aijb,rjb->ira" />
			<input>
				<port id="0" precision="FP32">
					<dim>7</dim>
					<dim>4</dim>
					<dim>2</dim>
					<dim>16</dim>
				</port>
				<port id="1" precision="FP32">
					<dim>2048</dim>
					<dim>2</dim>
					<dim>16</dim>
				</port>
			</input>
			<output>
				<port id="2" precision="FP32">
					<dim>4</dim>
					<dim>2048</dim>
					<dim>7</dim>
				</port>
			</output>
		</layer>
		<layer id="77" name="model/ttl/sequential/tt_dense_0/t3f_matmul/Reshape_6/shape" type="Const" version="opset1">
			<data element_type="i32" shape="3" offset="16244" size="12" />
			<rt_info>
				<attribute name="precise" version="0" />
			</rt_info>
			<output>
				<port id="0" precision="I32">
					<dim>3</dim>
				</port>
			</output>
		</layer>
		<layer id="78" name="model/ttl/sequential/tt_dense_0/t3f_matmul/Reshape_6" type="Reshape" version="opset1">
			<data special_zero="false" />
			<input>
				<port id="0" precision="FP32">
					<dim>4</dim>
					<dim>2048</dim>
					<dim>7</dim>
				</port>
				<port id="1" precision="I32">
					<dim>3</dim>
				</port>
			</input>
			<output>
				<port id="2" precision="FP32">
					<dim>4096</dim>
					<dim>2</dim>
					<dim>7</dim>
				</port>
			</output>
		</layer>
		<layer id="79" name="model/ttl/sequential/tt_dense_0/t3f_matmul/einsum_6/Einsum" type="Einsum" version="opset7">
			<data equation="aijb,rjb->ira" />
			<input>
				<port id="0" precision="FP32">
					<dim>1</dim>
					<dim>4</dim>
					<dim>2</dim>
					<dim>7</dim>
				</port>
				<port id="1" precision="FP32">
					<dim>4096</dim>
					<dim>2</dim>
					<dim>7</dim>
				</port>
			</input>
			<output>
				<port id="2" precision="FP32">
					<dim>4</dim>
					<dim>4096</dim>
					<dim>1</dim>
				</port>
			</output>
		</layer>
		<layer id="80" name="model/ttl/sequential/reshape/Reshape/shape" type="Const" version="opset1">
			<data element_type="i32" shape="3" offset="16268" size="12" />
			<rt_info>
				<attribute name="precise" version="0" />
			</rt_info>
			<output>
				<port id="0" precision="I32">
					<dim>3</dim>
				</port>
			</output>
		</layer>
		<layer id="81" name="model/ttl/sequential/reshape/Reshape" type="Reshape" version="opset1">
			<data special_zero="false" />
			<input>
				<port id="0" precision="FP32">
					<dim>4</dim>
					<dim>4096</dim>
					<dim>1</dim>
				</port>
				<port id="1" precision="I32">
					<dim>3</dim>
				</port>
			</input>
			<output>
				<port id="2" precision="FP32">
					<dim>1</dim>
					<dim>256</dim>
					<dim>64</dim>
				</port>
			</output>
		</layer>
		<layer id="82" name="Transpose_9683_compressed" type="Const" version="opset1">
			<data element_type="f16" shape="30, 3" offset="16280" size="180" />
			<output>
				<port id="0" precision="FP16">
					<dim>30</dim>
					<dim>3</dim>
				</port>
			</output>
		</layer>
		<layer id="83" name="Transpose_9683" type="Convert" version="opset1">
			<data destination_type="f32" />
			<rt_info>
				<attribute name="decompression" version="0" />
			</rt_info>
			<input>
				<port id="0" precision="FP16">
					<dim>30</dim>
					<dim>3</dim>
				</port>
			</input>
			<output>
				<port id="1" precision="FP32">
					<dim>30</dim>
					<dim>3</dim>
				</port>
			</output>
		</layer>
		<layer id="84" name="model/softmax_embedding_layer/dense/MatMul" type="MatMul" version="opset1">
			<data transpose_a="false" transpose_b="true" />
			<input>
				<port id="0" precision="FP32">
					<dim>1</dim>
					<dim>3</dim>
				</port>
				<port id="1" precision="FP32">
					<dim>30</dim>
					<dim>3</dim>
				</port>
			</input>
			<output>
				<port id="2" precision="FP32">
					<dim>1</dim>
					<dim>30</dim>
				</port>
			</output>
		</layer>
		<layer id="85" name="Constant_10089_compressed" type="Const" version="opset1">
			<data element_type="f16" shape="1, 30" offset="16460" size="60" />
			<output>
				<port id="0" precision="FP16">
					<dim>1</dim>
					<dim>30</dim>
				</port>
			</output>
		</layer>
		<layer id="86" name="Constant_10089" type="Convert" version="opset1">
			<data destination_type="f32" />
			<rt_info>
				<attribute name="decompression" version="0" />
			</rt_info>
			<input>
				<port id="0" precision="FP16">
					<dim>1</dim>
					<dim>30</dim>
				</port>
			</input>
			<output>
				<port id="1" precision="FP32">
					<dim>1</dim>
					<dim>30</dim>
				</port>
			</output>
		</layer>
		<layer id="87" name="model/softmax_embedding_layer/dense/BiasAdd" type="Add" version="opset1">
			<data auto_broadcast="numpy" />
			<input>
				<port id="0" precision="FP32">
					<dim>1</dim>
					<dim>30</dim>
				</port>
				<port id="1" precision="FP32">
					<dim>1</dim>
					<dim>30</dim>
				</port>
			</input>
			<output>
				<port id="2" precision="FP32">
					<dim>1</dim>
					<dim>30</dim>
				</port>
			</output>
		</layer>
		<layer id="88" name="model/softmax_embedding_layer/dense/Relu" type="ReLU" version="opset1">
			<input>
				<port id="0" precision="FP32">
					<dim>1</dim>
					<dim>30</dim>
				</port>
			</input>
			<output>
				<port id="1" precision="FP32">
					<dim>1</dim>
					<dim>30</dim>
				</port>
			</output>
		</layer>
		<layer id="89" name="Transpose_9686_compressed" type="Const" version="opset1">
			<data element_type="f16" shape="30, 30" offset="16520" size="1800" />
			<output>
				<port id="0" precision="FP16">
					<dim>30</dim>
					<dim>30</dim>
				</port>
			</output>
		</layer>
		<layer id="90" name="Transpose_9686" type="Convert" version="opset1">
			<data destination_type="f32" />
			<rt_info>
				<attribute name="decompression" version="0" />
			</rt_info>
			<input>
				<port id="0" precision="FP16">
					<dim>30</dim>
					<dim>30</dim>
				</port>
			</input>
			<output>
				<port id="1" precision="FP32">
					<dim>30</dim>
					<dim>30</dim>
				</port>
			</output>
		</layer>
		<layer id="91" name="model/softmax_embedding_layer/dense_1/MatMul" type="MatMul" version="opset1">
			<data transpose_a="false" transpose_b="true" />
			<input>
				<port id="0" precision="FP32">
					<dim>1</dim>
					<dim>30</dim>
				</port>
				<port id="1" precision="FP32">
					<dim>30</dim>
					<dim>30</dim>
				</port>
			</input>
			<output>
				<port id="2" precision="FP32">
					<dim>1</dim>
					<dim>30</dim>
				</port>
			</output>
		</layer>
		<layer id="92" name="Constant_10090_compressed" type="Const" version="opset1">
			<data element_type="f16" shape="1, 30" offset="18320" size="60" />
			<output>
				<port id="0" precision="FP16">
					<dim>1</dim>
					<dim>30</dim>
				</port>
			</output>
		</layer>
		<layer id="93" name="Constant_10090" type="Convert" version="opset1">
			<data destination_type="f32" />
			<rt_info>
				<attribute name="decompression" version="0" />
			</rt_info>
			<input>
				<port id="0" precision="FP16">
					<dim>1</dim>
					<dim>30</dim>
				</port>
			</input>
			<output>
				<port id="1" precision="FP32">
					<dim>1</dim>
					<dim>30</dim>
				</port>
			</output>
		</layer>
		<layer id="94" name="model/softmax_embedding_layer/dense_1/BiasAdd" type="Add" version="opset1">
			<data auto_broadcast="numpy" />
			<input>
				<port id="0" precision="FP32">
					<dim>1</dim>
					<dim>30</dim>
				</port>
				<port id="1" precision="FP32">
					<dim>1</dim>
					<dim>30</dim>
				</port>
			</input>
			<output>
				<port id="2" precision="FP32">
					<dim>1</dim>
					<dim>30</dim>
				</port>
			</output>
		</layer>
		<layer id="95" name="model/softmax_embedding_layer/dense_1/Relu" type="ReLU" version="opset1">
			<input>
				<port id="0" precision="FP32">
					<dim>1</dim>
					<dim>30</dim>
				</port>
			</input>
			<output>
				<port id="1" precision="FP32">
					<dim>1</dim>
					<dim>30</dim>
				</port>
			</output>
		</layer>
		<layer id="96" name="Transpose_9689_compressed" type="Const" version="opset1">
			<data element_type="f16" shape="30, 30" offset="18380" size="1800" />
			<output>
				<port id="0" precision="FP16">
					<dim>30</dim>
					<dim>30</dim>
				</port>
			</output>
		</layer>
		<layer id="97" name="Transpose_9689" type="Convert" version="opset1">
			<data destination_type="f32" />
			<rt_info>
				<attribute name="decompression" version="0" />
			</rt_info>
			<input>
				<port id="0" precision="FP16">
					<dim>30</dim>
					<dim>30</dim>
				</port>
			</input>
			<output>
				<port id="1" precision="FP32">
					<dim>30</dim>
					<dim>30</dim>
				</port>
			</output>
		</layer>
		<layer id="98" name="model/softmax_embedding_layer/dense_2/MatMul" type="MatMul" version="opset1">
			<data transpose_a="false" transpose_b="true" />
			<input>
				<port id="0" precision="FP32">
					<dim>1</dim>
					<dim>30</dim>
				</port>
				<port id="1" precision="FP32">
					<dim>30</dim>
					<dim>30</dim>
				</port>
			</input>
			<output>
				<port id="2" precision="FP32">
					<dim>1</dim>
					<dim>30</dim>
				</port>
			</output>
		</layer>
		<layer id="99" name="Constant_10091_compressed" type="Const" version="opset1">
			<data element_type="f16" shape="1, 30" offset="20180" size="60" />
			<output>
				<port id="0" precision="FP16">
					<dim>1</dim>
					<dim>30</dim>
				</port>
			</output>
		</layer>
		<layer id="100" name="Constant_10091" type="Convert" version="opset1">
			<data destination_type="f32" />
			<rt_info>
				<attribute name="decompression" version="0" />
			</rt_info>
			<input>
				<port id="0" precision="FP16">
					<dim>1</dim>
					<dim>30</dim>
				</port>
			</input>
			<output>
				<port id="1" precision="FP32">
					<dim>1</dim>
					<dim>30</dim>
				</port>
			</output>
		</layer>
		<layer id="101" name="model/softmax_embedding_layer/dense_2/BiasAdd" type="Add" version="opset1">
			<data auto_broadcast="numpy" />
			<input>
				<port id="0" precision="FP32">
					<dim>1</dim>
					<dim>30</dim>
				</port>
				<port id="1" precision="FP32">
					<dim>1</dim>
					<dim>30</dim>
				</port>
			</input>
			<output>
				<port id="2" precision="FP32">
					<dim>1</dim>
					<dim>30</dim>
				</port>
			</output>
		</layer>
		<layer id="102" name="model/softmax_embedding_layer/dense_2/Relu" type="ReLU" version="opset1">
			<input>
				<port id="0" precision="FP32">
					<dim>1</dim>
					<dim>30</dim>
				</port>
			</input>
			<output>
				<port id="1" precision="FP32">
					<dim>1</dim>
					<dim>30</dim>
				</port>
			</output>
		</layer>
		<layer id="103" name="Transpose_9692_compressed" type="Const" version="opset1">
			<data element_type="f16" shape="30, 30" offset="20240" size="1800" />
			<output>
				<port id="0" precision="FP16">
					<dim>30</dim>
					<dim>30</dim>
				</port>
			</output>
		</layer>
		<layer id="104" name="Transpose_9692" type="Convert" version="opset1">
			<data destination_type="f32" />
			<rt_info>
				<attribute name="decompression" version="0" />
			</rt_info>
			<input>
				<port id="0" precision="FP16">
					<dim>30</dim>
					<dim>30</dim>
				</port>
			</input>
			<output>
				<port id="1" precision="FP32">
					<dim>30</dim>
					<dim>30</dim>
				</port>
			</output>
		</layer>
		<layer id="105" name="model/softmax_embedding_layer/dense_3/MatMul" type="MatMul" version="opset1">
			<data transpose_a="false" transpose_b="true" />
			<input>
				<port id="0" precision="FP32">
					<dim>1</dim>
					<dim>30</dim>
				</port>
				<port id="1" precision="FP32">
					<dim>30</dim>
					<dim>30</dim>
				</port>
			</input>
			<output>
				<port id="2" precision="FP32">
					<dim>1</dim>
					<dim>30</dim>
				</port>
			</output>
		</layer>
		<layer id="106" name="Constant_10092_compressed" type="Const" version="opset1">
			<data element_type="f16" shape="1, 30" offset="22040" size="60" />
			<output>
				<port id="0" precision="FP16">
					<dim>1</dim>
					<dim>30</dim>
				</port>
			</output>
		</layer>
		<layer id="107" name="Constant_10092" type="Convert" version="opset1">
			<data destination_type="f32" />
			<rt_info>
				<attribute name="decompression" version="0" />
			</rt_info>
			<input>
				<port id="0" precision="FP16">
					<dim>1</dim>
					<dim>30</dim>
				</port>
			</input>
			<output>
				<port id="1" precision="FP32">
					<dim>1</dim>
					<dim>30</dim>
				</port>
			</output>
		</layer>
		<layer id="108" name="model/softmax_embedding_layer/dense_3/BiasAdd" type="Add" version="opset1">
			<data auto_broadcast="numpy" />
			<input>
				<port id="0" precision="FP32">
					<dim>1</dim>
					<dim>30</dim>
				</port>
				<port id="1" precision="FP32">
					<dim>1</dim>
					<dim>30</dim>
				</port>
			</input>
			<output>
				<port id="2" precision="FP32">
					<dim>1</dim>
					<dim>30</dim>
				</port>
			</output>
		</layer>
		<layer id="109" name="model/softmax_embedding_layer/dense_3/Relu" type="ReLU" version="opset1">
			<input>
				<port id="0" precision="FP32">
					<dim>1</dim>
					<dim>30</dim>
				</port>
			</input>
			<output>
				<port id="1" precision="FP32">
					<dim>1</dim>
					<dim>30</dim>
				</port>
			</output>
		</layer>
		<layer id="110" name="Transpose_9695_compressed" type="Const" version="opset1">
			<data element_type="f16" shape="30, 30" offset="22100" size="1800" />
			<output>
				<port id="0" precision="FP16">
					<dim>30</dim>
					<dim>30</dim>
				</port>
			</output>
		</layer>
		<layer id="111" name="Transpose_9695" type="Convert" version="opset1">
			<data destination_type="f32" />
			<rt_info>
				<attribute name="decompression" version="0" />
			</rt_info>
			<input>
				<port id="0" precision="FP16">
					<dim>30</dim>
					<dim>30</dim>
				</port>
			</input>
			<output>
				<port id="1" precision="FP32">
					<dim>30</dim>
					<dim>30</dim>
				</port>
			</output>
		</layer>
		<layer id="112" name="model/softmax_embedding_layer/dense_4/MatMul" type="MatMul" version="opset1">
			<data transpose_a="false" transpose_b="true" />
			<input>
				<port id="0" precision="FP32">
					<dim>1</dim>
					<dim>30</dim>
				</port>
				<port id="1" precision="FP32">
					<dim>30</dim>
					<dim>30</dim>
				</port>
			</input>
			<output>
				<port id="2" precision="FP32">
					<dim>1</dim>
					<dim>30</dim>
				</port>
			</output>
		</layer>
		<layer id="113" name="Constant_10093_compressed" type="Const" version="opset1">
			<data element_type="f16" shape="1, 30" offset="23900" size="60" />
			<output>
				<port id="0" precision="FP16">
					<dim>1</dim>
					<dim>30</dim>
				</port>
			</output>
		</layer>
		<layer id="114" name="Constant_10093" type="Convert" version="opset1">
			<data destination_type="f32" />
			<rt_info>
				<attribute name="decompression" version="0" />
			</rt_info>
			<input>
				<port id="0" precision="FP16">
					<dim>1</dim>
					<dim>30</dim>
				</port>
			</input>
			<output>
				<port id="1" precision="FP32">
					<dim>1</dim>
					<dim>30</dim>
				</port>
			</output>
		</layer>
		<layer id="115" name="model/softmax_embedding_layer/dense_4/BiasAdd" type="Add" version="opset1">
			<data auto_broadcast="numpy" />
			<input>
				<port id="0" precision="FP32">
					<dim>1</dim>
					<dim>30</dim>
				</port>
				<port id="1" precision="FP32">
					<dim>1</dim>
					<dim>30</dim>
				</port>
			</input>
			<output>
				<port id="2" precision="FP32">
					<dim>1</dim>
					<dim>30</dim>
				</port>
			</output>
		</layer>
		<layer id="116" name="model/softmax_embedding_layer/dense_4/Relu" type="ReLU" version="opset1">
			<input>
				<port id="0" precision="FP32">
					<dim>1</dim>
					<dim>30</dim>
				</port>
			</input>
			<output>
				<port id="1" precision="FP32">
					<dim>1</dim>
					<dim>30</dim>
				</port>
			</output>
		</layer>
		<layer id="117" name="Transpose_9698_compressed" type="Const" version="opset1">
			<data element_type="f16" shape="30, 30" offset="23960" size="1800" />
			<output>
				<port id="0" precision="FP16">
					<dim>30</dim>
					<dim>30</dim>
				</port>
			</output>
		</layer>
		<layer id="118" name="Transpose_9698" type="Convert" version="opset1">
			<data destination_type="f32" />
			<rt_info>
				<attribute name="decompression" version="0" />
			</rt_info>
			<input>
				<port id="0" precision="FP16">
					<dim>30</dim>
					<dim>30</dim>
				</port>
			</input>
			<output>
				<port id="1" precision="FP32">
					<dim>30</dim>
					<dim>30</dim>
				</port>
			</output>
		</layer>
		<layer id="119" name="model/softmax_embedding_layer/dense_5/MatMul" type="MatMul" version="opset1">
			<data transpose_a="false" transpose_b="true" />
			<input>
				<port id="0" precision="FP32">
					<dim>1</dim>
					<dim>30</dim>
				</port>
				<port id="1" precision="FP32">
					<dim>30</dim>
					<dim>30</dim>
				</port>
			</input>
			<output>
				<port id="2" precision="FP32">
					<dim>1</dim>
					<dim>30</dim>
				</port>
			</output>
		</layer>
		<layer id="120" name="Constant_10094_compressed" type="Const" version="opset1">
			<data element_type="f16" shape="1, 30" offset="25760" size="60" />
			<output>
				<port id="0" precision="FP16">
					<dim>1</dim>
					<dim>30</dim>
				</port>
			</output>
		</layer>
		<layer id="121" name="Constant_10094" type="Convert" version="opset1">
			<data destination_type="f32" />
			<rt_info>
				<attribute name="decompression" version="0" />
			</rt_info>
			<input>
				<port id="0" precision="FP16">
					<dim>1</dim>
					<dim>30</dim>
				</port>
			</input>
			<output>
				<port id="1" precision="FP32">
					<dim>1</dim>
					<dim>30</dim>
				</port>
			</output>
		</layer>
		<layer id="122" name="model/softmax_embedding_layer/dense_5/BiasAdd" type="Add" version="opset1">
			<data auto_broadcast="numpy" />
			<input>
				<port id="0" precision="FP32">
					<dim>1</dim>
					<dim>30</dim>
				</port>
				<port id="1" precision="FP32">
					<dim>1</dim>
					<dim>30</dim>
				</port>
			</input>
			<output>
				<port id="2" precision="FP32">
					<dim>1</dim>
					<dim>30</dim>
				</port>
			</output>
		</layer>
		<layer id="123" name="model/softmax_embedding_layer/dense_5/Relu" type="ReLU" version="opset1">
			<input>
				<port id="0" precision="FP32">
					<dim>1</dim>
					<dim>30</dim>
				</port>
			</input>
			<output>
				<port id="1" precision="FP32">
					<dim>1</dim>
					<dim>30</dim>
				</port>
			</output>
		</layer>
		<layer id="124" name="Transpose_9701_compressed" type="Const" version="opset1">
			<data element_type="f16" shape="30, 30" offset="25820" size="1800" />
			<output>
				<port id="0" precision="FP16">
					<dim>30</dim>
					<dim>30</dim>
				</port>
			</output>
		</layer>
		<layer id="125" name="Transpose_9701" type="Convert" version="opset1">
			<data destination_type="f32" />
			<rt_info>
				<attribute name="decompression" version="0" />
			</rt_info>
			<input>
				<port id="0" precision="FP16">
					<dim>30</dim>
					<dim>30</dim>
				</port>
			</input>
			<output>
				<port id="1" precision="FP32">
					<dim>30</dim>
					<dim>30</dim>
				</port>
			</output>
		</layer>
		<layer id="126" name="model/softmax_embedding_layer/dense_6/MatMul" type="MatMul" version="opset1">
			<data transpose_a="false" transpose_b="true" />
			<input>
				<port id="0" precision="FP32">
					<dim>1</dim>
					<dim>30</dim>
				</port>
				<port id="1" precision="FP32">
					<dim>30</dim>
					<dim>30</dim>
				</port>
			</input>
			<output>
				<port id="2" precision="FP32">
					<dim>1</dim>
					<dim>30</dim>
				</port>
			</output>
		</layer>
		<layer id="127" name="Constant_10095_compressed" type="Const" version="opset1">
			<data element_type="f16" shape="1, 30" offset="27620" size="60" />
			<output>
				<port id="0" precision="FP16">
					<dim>1</dim>
					<dim>30</dim>
				</port>
			</output>
		</layer>
		<layer id="128" name="Constant_10095" type="Convert" version="opset1">
			<data destination_type="f32" />
			<rt_info>
				<attribute name="decompression" version="0" />
			</rt_info>
			<input>
				<port id="0" precision="FP16">
					<dim>1</dim>
					<dim>30</dim>
				</port>
			</input>
			<output>
				<port id="1" precision="FP32">
					<dim>1</dim>
					<dim>30</dim>
				</port>
			</output>
		</layer>
		<layer id="129" name="model/softmax_embedding_layer/dense_6/BiasAdd" type="Add" version="opset1">
			<data auto_broadcast="numpy" />
			<input>
				<port id="0" precision="FP32">
					<dim>1</dim>
					<dim>30</dim>
				</port>
				<port id="1" precision="FP32">
					<dim>1</dim>
					<dim>30</dim>
				</port>
			</input>
			<output>
				<port id="2" precision="FP32">
					<dim>1</dim>
					<dim>30</dim>
				</port>
			</output>
		</layer>
		<layer id="130" name="model/softmax_embedding_layer/dense_6/Relu" type="ReLU" version="opset1">
			<input>
				<port id="0" precision="FP32">
					<dim>1</dim>
					<dim>30</dim>
				</port>
			</input>
			<output>
				<port id="1" precision="FP32">
					<dim>1</dim>
					<dim>30</dim>
				</port>
			</output>
		</layer>
		<layer id="131" name="Transpose_9704_compressed" type="Const" version="opset1">
			<data element_type="f16" shape="30, 30" offset="27680" size="1800" />
			<output>
				<port id="0" precision="FP16">
					<dim>30</dim>
					<dim>30</dim>
				</port>
			</output>
		</layer>
		<layer id="132" name="Transpose_9704" type="Convert" version="opset1">
			<data destination_type="f32" />
			<rt_info>
				<attribute name="decompression" version="0" />
			</rt_info>
			<input>
				<port id="0" precision="FP16">
					<dim>30</dim>
					<dim>30</dim>
				</port>
			</input>
			<output>
				<port id="1" precision="FP32">
					<dim>30</dim>
					<dim>30</dim>
				</port>
			</output>
		</layer>
		<layer id="133" name="model/softmax_embedding_layer/dense_7/MatMul" type="MatMul" version="opset1">
			<data transpose_a="false" transpose_b="true" />
			<input>
				<port id="0" precision="FP32">
					<dim>1</dim>
					<dim>30</dim>
				</port>
				<port id="1" precision="FP32">
					<dim>30</dim>
					<dim>30</dim>
				</port>
			</input>
			<output>
				<port id="2" precision="FP32">
					<dim>1</dim>
					<dim>30</dim>
				</port>
			</output>
		</layer>
		<layer id="134" name="Constant_10096_compressed" type="Const" version="opset1">
			<data element_type="f16" shape="1, 30" offset="29480" size="60" />
			<output>
				<port id="0" precision="FP16">
					<dim>1</dim>
					<dim>30</dim>
				</port>
			</output>
		</layer>
		<layer id="135" name="Constant_10096" type="Convert" version="opset1">
			<data destination_type="f32" />
			<rt_info>
				<attribute name="decompression" version="0" />
			</rt_info>
			<input>
				<port id="0" precision="FP16">
					<dim>1</dim>
					<dim>30</dim>
				</port>
			</input>
			<output>
				<port id="1" precision="FP32">
					<dim>1</dim>
					<dim>30</dim>
				</port>
			</output>
		</layer>
		<layer id="136" name="model/softmax_embedding_layer/dense_7/BiasAdd" type="Add" version="opset1">
			<data auto_broadcast="numpy" />
			<input>
				<port id="0" precision="FP32">
					<dim>1</dim>
					<dim>30</dim>
				</port>
				<port id="1" precision="FP32">
					<dim>1</dim>
					<dim>30</dim>
				</port>
			</input>
			<output>
				<port id="2" precision="FP32">
					<dim>1</dim>
					<dim>30</dim>
				</port>
			</output>
		</layer>
		<layer id="137" name="model/softmax_embedding_layer/dense_7/Relu" type="ReLU" version="opset1">
			<input>
				<port id="0" precision="FP32">
					<dim>1</dim>
					<dim>30</dim>
				</port>
			</input>
			<output>
				<port id="1" precision="FP32">
					<dim>1</dim>
					<dim>30</dim>
				</port>
			</output>
		</layer>
		<layer id="138" name="Transpose_9707_compressed" type="Const" version="opset1">
			<data element_type="f16" shape="10, 30" offset="29540" size="600" />
			<output>
				<port id="0" precision="FP16">
					<dim>10</dim>
					<dim>30</dim>
				</port>
			</output>
		</layer>
		<layer id="139" name="Transpose_9707" type="Convert" version="opset1">
			<data destination_type="f32" />
			<rt_info>
				<attribute name="decompression" version="0" />
			</rt_info>
			<input>
				<port id="0" precision="FP16">
					<dim>10</dim>
					<dim>30</dim>
				</port>
			</input>
			<output>
				<port id="1" precision="FP32">
					<dim>10</dim>
					<dim>30</dim>
				</port>
			</output>
		</layer>
		<layer id="140" name="model/softmax_embedding_layer/dense_8/MatMul" type="MatMul" version="opset1">
			<data transpose_a="false" transpose_b="true" />
			<input>
				<port id="0" precision="FP32">
					<dim>1</dim>
					<dim>30</dim>
				</port>
				<port id="1" precision="FP32">
					<dim>10</dim>
					<dim>30</dim>
				</port>
			</input>
			<output>
				<port id="2" precision="FP32">
					<dim>1</dim>
					<dim>10</dim>
				</port>
			</output>
		</layer>
		<layer id="141" name="Constant_10097_compressed" type="Const" version="opset1">
			<data element_type="f16" shape="1, 10" offset="30140" size="20" />
			<output>
				<port id="0" precision="FP16">
					<dim>1</dim>
					<dim>10</dim>
				</port>
			</output>
		</layer>
		<layer id="142" name="Constant_10097" type="Convert" version="opset1">
			<data destination_type="f32" />
			<rt_info>
				<attribute name="decompression" version="0" />
			</rt_info>
			<input>
				<port id="0" precision="FP16">
					<dim>1</dim>
					<dim>10</dim>
				</port>
			</input>
			<output>
				<port id="1" precision="FP32">
					<dim>1</dim>
					<dim>10</dim>
				</port>
			</output>
		</layer>
		<layer id="143" name="model/softmax_embedding_layer/dense_8/BiasAdd" type="Add" version="opset1">
			<data auto_broadcast="numpy" />
			<input>
				<port id="0" precision="FP32">
					<dim>1</dim>
					<dim>10</dim>
				</port>
				<port id="1" precision="FP32">
					<dim>1</dim>
					<dim>10</dim>
				</port>
			</input>
			<output>
				<port id="2" precision="FP32">
					<dim>1</dim>
					<dim>10</dim>
				</port>
			</output>
		</layer>
		<layer id="144" name="model/softmax_embedding_layer/Softmax" type="SoftMax" version="opset8">
			<data axis="-1" />
			<input>
				<port id="0" precision="FP32">
					<dim>1</dim>
					<dim>10</dim>
				</port>
			</input>
			<output>
				<port id="1" precision="FP32">
					<dim>1</dim>
					<dim>10</dim>
				</port>
			</output>
		</layer>
		<layer id="145" name="model/tf.__operators__.getitem/strided_slice/stack" type="Const" version="opset1">
			<data element_type="i32" shape="4" offset="30160" size="16" />
			<rt_info>
				<attribute name="precise" version="0" />
			</rt_info>
			<output>
				<port id="0" precision="I32">
					<dim>4</dim>
				</port>
			</output>
		</layer>
		<layer id="146" name="model/tf.__operators__.getitem/strided_slice/stack_1" type="Const" version="opset1">
			<data element_type="i32" shape="4" offset="30160" size="16" />
			<rt_info>
				<attribute name="precise" version="0" />
			</rt_info>
			<output>
				<port id="0" precision="I32">
					<dim>4</dim>
				</port>
			</output>
		</layer>
		<layer id="147" name="model/tf.__operators__.getitem/strided_slice/stack_2" type="Const" version="opset1">
			<data element_type="i32" shape="4" offset="30176" size="16" />
			<rt_info>
				<attribute name="precise" version="0" />
			</rt_info>
			<output>
				<port id="0" precision="I32">
					<dim>4</dim>
				</port>
			</output>
		</layer>
		<layer id="148" name="model/tf.__operators__.getitem/strided_slice" type="StridedSlice" version="opset1">
			<data begin_mask="1, 0, 0, 1" end_mask="1, 0, 0, 1" new_axis_mask="0, 1, 1, 0" shrink_axis_mask="0, 0, 0, 0" ellipsis_mask="0, 0, 0, 0" />
			<input>
				<port id="0" precision="FP32">
					<dim>1</dim>
					<dim>10</dim>
				</port>
				<port id="1" precision="I32">
					<dim>4</dim>
				</port>
				<port id="2" precision="I32">
					<dim>4</dim>
				</port>
				<port id="3" precision="I32">
					<dim>4</dim>
				</port>
			</input>
			<output>
				<port id="4" precision="FP32">
					<dim>1</dim>
					<dim>1</dim>
					<dim>1</dim>
					<dim>10</dim>
				</port>
			</output>
		</layer>
		<layer id="149" name="model/tf.__operators__.getitem_1/strided_slice/stack" type="Const" version="opset1">
			<data element_type="i32" shape="2" offset="30192" size="8" />
			<rt_info>
				<attribute name="precise" version="0" />
			</rt_info>
			<output>
				<port id="0" precision="I32">
					<dim>2</dim>
				</port>
			</output>
		</layer>
		<layer id="150" name="model/tf.__operators__.getitem_1/strided_slice/stack_1" type="Const" version="opset1">
			<data element_type="i32" shape="2" offset="30200" size="8" />
			<rt_info>
				<attribute name="precise" version="0" />
			</rt_info>
			<output>
				<port id="0" precision="I32">
					<dim>2</dim>
				</port>
			</output>
		</layer>
		<layer id="151" name="model/tf.__operators__.getitem_1/strided_slice/stack_2" type="Const" version="opset1">
			<data element_type="i32" shape="2" offset="30208" size="8" />
			<rt_info>
				<attribute name="precise" version="0" />
			</rt_info>
			<output>
				<port id="0" precision="I32">
					<dim>2</dim>
				</port>
			</output>
		</layer>
		<layer id="152" name="model/tf.__operators__.getitem_1/strided_slice" type="StridedSlice" version="opset1">
			<data begin_mask="0, 0" end_mask="0, 0" new_axis_mask="0, 0" shrink_axis_mask="0, 1" ellipsis_mask="1, 0" />
			<input>
				<port id="0" precision="FP32">
					<dim>1</dim>
					<dim>1</dim>
					<dim>1</dim>
					<dim>10</dim>
				</port>
				<port id="1" precision="I32">
					<dim>2</dim>
				</port>
				<port id="2" precision="I32">
					<dim>2</dim>
				</port>
				<port id="3" precision="I32">
					<dim>2</dim>
				</port>
			</input>
			<output>
				<port id="4" precision="FP32">
					<dim>1</dim>
					<dim>1</dim>
					<dim>1</dim>
				</port>
			</output>
		</layer>
		<layer id="153" name="model/multiply/mul" type="Multiply" version="opset1">
			<data auto_broadcast="numpy" />
			<input>
				<port id="0" precision="FP32">
					<dim>1</dim>
					<dim>256</dim>
					<dim>64</dim>
				</port>
				<port id="1" precision="FP32">
					<dim>1</dim>
					<dim>1</dim>
					<dim>1</dim>
				</port>
			</input>
			<output>
				<port id="2" precision="FP32">
					<dim>1</dim>
					<dim>256</dim>
					<dim>64</dim>
				</port>
			</output>
		</layer>
		<layer id="154" name="model/ttl_1/sequential_1/tt_dense_1/t3f_matmul/t3f_transpose/transpose_compressed" type="Const" version="opset1">
			<data element_type="f16" shape="1, 4, 2, 7" offset="30216" size="112" />
			<output>
				<port id="0" precision="FP16">
					<dim>1</dim>
					<dim>4</dim>
					<dim>2</dim>
					<dim>7</dim>
				</port>
			</output>
		</layer>
		<layer id="155" name="model/ttl_1/sequential_1/tt_dense_1/t3f_matmul/t3f_transpose/transpose" type="Convert" version="opset1">
			<data destination_type="f32" />
			<rt_info>
				<attribute name="decompression" version="0" />
			</rt_info>
			<input>
				<port id="0" precision="FP16">
					<dim>1</dim>
					<dim>4</dim>
					<dim>2</dim>
					<dim>7</dim>
				</port>
			</input>
			<output>
				<port id="1" precision="FP32">
					<dim>1</dim>
					<dim>4</dim>
					<dim>2</dim>
					<dim>7</dim>
				</port>
			</output>
		</layer>
		<layer id="156" name="model/ttl_1/sequential_1/tt_dense_1/t3f_matmul/t3f_transpose/transpose_1_compressed" type="Const" version="opset1">
			<data element_type="f16" shape="7, 4, 2, 16" offset="30328" size="1792" />
			<output>
				<port id="0" precision="FP16">
					<dim>7</dim>
					<dim>4</dim>
					<dim>2</dim>
					<dim>16</dim>
				</port>
			</output>
		</layer>
		<layer id="157" name="model/ttl_1/sequential_1/tt_dense_1/t3f_matmul/t3f_transpose/transpose_1" type="Convert" version="opset1">
			<data destination_type="f32" />
			<rt_info>
				<attribute name="decompression" version="0" />
			</rt_info>
			<input>
				<port id="0" precision="FP16">
					<dim>7</dim>
					<dim>4</dim>
					<dim>2</dim>
					<dim>16</dim>
				</port>
			</input>
			<output>
				<port id="1" precision="FP32">
					<dim>7</dim>
					<dim>4</dim>
					<dim>2</dim>
					<dim>16</dim>
				</port>
			</output>
		</layer>
		<layer id="158" name="model/ttl_1/sequential_1/tt_dense_1/t3f_matmul/t3f_transpose/transpose_2_compressed" type="Const" version="opset1">
			<data element_type="f16" shape="16, 4, 2, 16" offset="32120" size="4096" />
			<output>
				<port id="0" precision="FP16">
					<dim>16</dim>
					<dim>4</dim>
					<dim>2</dim>
					<dim>16</dim>
				</port>
			</output>
		</layer>
		<layer id="159" name="model/ttl_1/sequential_1/tt_dense_1/t3f_matmul/t3f_transpose/transpose_2" type="Convert" version="opset1">
			<data destination_type="f32" />
			<rt_info>
				<attribute name="decompression" version="0" />
			</rt_info>
			<input>
				<port id="0" precision="FP16">
					<dim>16</dim>
					<dim>4</dim>
					<dim>2</dim>
					<dim>16</dim>
				</port>
			</input>
			<output>
				<port id="1" precision="FP32">
					<dim>16</dim>
					<dim>4</dim>
					<dim>2</dim>
					<dim>16</dim>
				</port>
			</output>
		</layer>
		<layer id="160" name="model/ttl_1/sequential_1/tt_dense_1/t3f_matmul/t3f_transpose/transpose_3_compressed" type="Const" version="opset1">
			<data element_type="f16" shape="16, 4, 2, 16" offset="36216" size="4096" />
			<output>
				<port id="0" precision="FP16">
					<dim>16</dim>
					<dim>4</dim>
					<dim>2</dim>
					<dim>16</dim>
				</port>
			</output>
		</layer>
		<layer id="161" name="model/ttl_1/sequential_1/tt_dense_1/t3f_matmul/t3f_transpose/transpose_3" type="Convert" version="opset1">
			<data destination_type="f32" />
			<rt_info>
				<attribute name="decompression" version="0" />
			</rt_info>
			<input>
				<port id="0" precision="FP16">
					<dim>16</dim>
					<dim>4</dim>
					<dim>2</dim>
					<dim>16</dim>
				</port>
			</input>
			<output>
				<port id="1" precision="FP32">
					<dim>16</dim>
					<dim>4</dim>
					<dim>2</dim>
					<dim>16</dim>
				</port>
			</output>
		</layer>
		<layer id="162" name="model/ttl_1/sequential_1/tt_dense_1/t3f_matmul/t3f_transpose/transpose_4_compressed" type="Const" version="opset1">
			<data element_type="f16" shape="16, 4, 2, 16" offset="40312" size="4096" />
			<output>
				<port id="0" precision="FP16">
					<dim>16</dim>
					<dim>4</dim>
					<dim>2</dim>
					<dim>16</dim>
				</port>
			</output>
		</layer>
		<layer id="163" name="model/ttl_1/sequential_1/tt_dense_1/t3f_matmul/t3f_transpose/transpose_4" type="Convert" version="opset1">
			<data destination_type="f32" />
			<rt_info>
				<attribute name="decompression" version="0" />
			</rt_info>
			<input>
				<port id="0" precision="FP16">
					<dim>16</dim>
					<dim>4</dim>
					<dim>2</dim>
					<dim>16</dim>
				</port>
			</input>
			<output>
				<port id="1" precision="FP32">
					<dim>16</dim>
					<dim>4</dim>
					<dim>2</dim>
					<dim>16</dim>
				</port>
			</output>
		</layer>
		<layer id="164" name="model/ttl_1/sequential_1/tt_dense_1/t3f_matmul/t3f_transpose/transpose_5_compressed" type="Const" version="opset1">
			<data element_type="f16" shape="16, 4, 2, 7" offset="44408" size="1792" />
			<output>
				<port id="0" precision="FP16">
					<dim>16</dim>
					<dim>4</dim>
					<dim>2</dim>
					<dim>7</dim>
				</port>
			</output>
		</layer>
		<layer id="165" name="model/ttl_1/sequential_1/tt_dense_1/t3f_matmul/t3f_transpose/transpose_5" type="Convert" version="opset1">
			<data destination_type="f32" />
			<rt_info>
				<attribute name="decompression" version="0" />
			</rt_info>
			<input>
				<port id="0" precision="FP16">
					<dim>16</dim>
					<dim>4</dim>
					<dim>2</dim>
					<dim>7</dim>
				</port>
			</input>
			<output>
				<port id="1" precision="FP32">
					<dim>16</dim>
					<dim>4</dim>
					<dim>2</dim>
					<dim>7</dim>
				</port>
			</output>
		</layer>
		<layer id="166" name="model/ttl_1/sequential_1/tt_dense_1/t3f_matmul/t3f_transpose/transpose_6_compressed" type="Const" version="opset1">
			<data element_type="f16" shape="7, 4, 2, 1" offset="46200" size="112" />
			<output>
				<port id="0" precision="FP16">
					<dim>7</dim>
					<dim>4</dim>
					<dim>2</dim>
					<dim>1</dim>
				</port>
			</output>
		</layer>
		<layer id="167" name="model/ttl_1/sequential_1/tt_dense_1/t3f_matmul/t3f_transpose/transpose_6" type="Convert" version="opset1">
			<data destination_type="f32" />
			<rt_info>
				<attribute name="decompression" version="0" />
			</rt_info>
			<input>
				<port id="0" precision="FP16">
					<dim>7</dim>
					<dim>4</dim>
					<dim>2</dim>
					<dim>1</dim>
				</port>
			</input>
			<output>
				<port id="1" precision="FP32">
					<dim>7</dim>
					<dim>4</dim>
					<dim>2</dim>
					<dim>1</dim>
				</port>
			</output>
		</layer>
		<layer id="168" name="model/ttl_1/sequential_1/einsum_ttl_1/strided_slice/stack" type="Const" version="opset1">
			<data element_type="i32" shape="3" offset="16100" size="12" />
			<rt_info>
				<attribute name="precise" version="0" />
			</rt_info>
			<output>
				<port id="0" precision="I32">
					<dim>3</dim>
				</port>
			</output>
		</layer>
		<layer id="169" name="model/ttl_1/sequential_1/einsum_ttl_1/strided_slice/stack_1" type="Const" version="opset1">
			<data element_type="i32" shape="3" offset="16112" size="12" />
			<rt_info>
				<attribute name="precise" version="0" />
			</rt_info>
			<output>
				<port id="0" precision="I32">
					<dim>3</dim>
				</port>
			</output>
		</layer>
		<layer id="170" name="model/ttl_1/sequential_1/einsum_ttl_1/strided_slice/stack_2" type="Const" version="opset1">
			<data element_type="i32" shape="3" offset="16124" size="12" />
			<rt_info>
				<attribute name="precise" version="0" />
			</rt_info>
			<output>
				<port id="0" precision="I32">
					<dim>3</dim>
				</port>
			</output>
		</layer>
		<layer id="171" name="model/ttl_1/sequential_1/einsum_ttl_1/strided_slice" type="StridedSlice" version="opset1">
			<data begin_mask="1, 1, 1" end_mask="1, 0, 0" new_axis_mask="0, 0, 0" shrink_axis_mask="0, 0, 0" ellipsis_mask="0, 0, 0" />
			<input>
				<port id="0" precision="FP32">
					<dim>1</dim>
					<dim>128</dim>
					<dim>16</dim>
				</port>
				<port id="1" precision="I32">
					<dim>3</dim>
				</port>
				<port id="2" precision="I32">
					<dim>3</dim>
				</port>
				<port id="3" precision="I32">
					<dim>3</dim>
				</port>
			</input>
			<output>
				<port id="4" precision="FP32">
					<dim>1</dim>
					<dim>64</dim>
					<dim>8</dim>
				</port>
			</output>
		</layer>
		<layer id="172" name="model/ttl_1/sequential_1/einsum_ttl_1/strided_slice_1_compressed" type="Const" version="opset1">
			<data element_type="f16" shape="8" offset="46312" size="16" />
			<output>
				<port id="0" precision="FP16">
					<dim>8</dim>
				</port>
			</output>
		</layer>
		<layer id="173" name="model/ttl_1/sequential_1/einsum_ttl_1/strided_slice_1" type="Convert" version="opset1">
			<data destination_type="f32" />
			<rt_info>
				<attribute name="decompression" version="0" />
			</rt_info>
			<input>
				<port id="0" precision="FP16">
					<dim>8</dim>
				</port>
			</input>
			<output>
				<port id="1" precision="FP32">
					<dim>8</dim>
				</port>
			</output>
		</layer>
		<layer id="174" name="model/ttl_1/sequential_1/einsum_ttl_1/einsum/Einsum" type="Einsum" version="opset7">
			<data equation="abc,c->ab" />
			<input>
				<port id="0" precision="FP32">
					<dim>1</dim>
					<dim>64</dim>
					<dim>8</dim>
				</port>
				<port id="1" precision="FP32">
					<dim>8</dim>
				</port>
			</input>
			<output>
				<port id="2" precision="FP32">
					<dim>1</dim>
					<dim>64</dim>
				</port>
			</output>
		</layer>
		<layer id="175" name="model/ttl_1/sequential_1/einsum_ttl_1/strided_slice_2/stack" type="Const" version="opset1">
			<data element_type="i32" shape="3" offset="16152" size="12" />
			<rt_info>
				<attribute name="precise" version="0" />
			</rt_info>
			<output>
				<port id="0" precision="I32">
					<dim>3</dim>
				</port>
			</output>
		</layer>
		<layer id="176" name="model/ttl_1/sequential_1/einsum_ttl_1/strided_slice_2/stack_1" type="Const" version="opset1">
			<data element_type="i32" shape="3" offset="16164" size="12" />
			<rt_info>
				<attribute name="precise" version="0" />
			</rt_info>
			<output>
				<port id="0" precision="I32">
					<dim>3</dim>
				</port>
			</output>
		</layer>
		<layer id="177" name="model/ttl_1/sequential_1/einsum_ttl_1/strided_slice_2/stack_2" type="Const" version="opset1">
			<data element_type="i32" shape="3" offset="16124" size="12" />
			<rt_info>
				<attribute name="precise" version="0" />
			</rt_info>
			<output>
				<port id="0" precision="I32">
					<dim>3</dim>
				</port>
			</output>
		</layer>
		<layer id="178" name="model/ttl_1/sequential_1/einsum_ttl_1/strided_slice_2" type="StridedSlice" version="opset1">
			<data begin_mask="1, 1" end_mask="1, 0" new_axis_mask="0, 0" shrink_axis_mask="0, 0" ellipsis_mask="0, 0" />
			<input>
				<port id="0" precision="FP32">
					<dim>1</dim>
					<dim>128</dim>
					<dim>16</dim>
				</port>
				<port id="1" precision="I32">
					<dim>3</dim>
				</port>
				<port id="2" precision="I32">
					<dim>3</dim>
				</port>
				<port id="3" precision="I32">
					<dim>3</dim>
				</port>
			</input>
			<output>
				<port id="4" precision="FP32">
					<dim>1</dim>
					<dim>64</dim>
					<dim>8</dim>
				</port>
			</output>
		</layer>
		<layer id="179" name="Unsqueeze_1289_compressed" type="Const" version="opset1">
			<data element_type="f16" shape="1, 8" offset="46312" size="16" />
			<output>
				<port id="0" precision="FP16">
					<dim>1</dim>
					<dim>8</dim>
				</port>
			</output>
		</layer>
		<layer id="180" name="Unsqueeze_1289" type="Convert" version="opset1">
			<data destination_type="f32" />
			<rt_info>
				<attribute name="decompression" version="0" />
			</rt_info>
			<input>
				<port id="0" precision="FP16">
					<dim>1</dim>
					<dim>8</dim>
				</port>
			</input>
			<output>
				<port id="1" precision="FP32">
					<dim>1</dim>
					<dim>8</dim>
				</port>
			</output>
		</layer>
		<layer id="181" name="Broadcast_1296" type="Const" version="opset1">
			<data element_type="i32" shape="1" offset="16176" size="4" />
			<output>
				<port id="0" precision="I32">
					<dim>1</dim>
				</port>
			</output>
		</layer>
		<layer id="182" name="ReverseSequence_1299" type="ReverseSequence" version="opset1">
			<data batch_axis="0" seq_axis="1" />
			<input>
				<port id="0" precision="FP32">
					<dim>1</dim>
					<dim>8</dim>
				</port>
				<port id="1" precision="I32">
					<dim>1</dim>
				</port>
			</input>
			<output>
				<port id="2" precision="FP32">
					<dim>1</dim>
					<dim>8</dim>
				</port>
			</output>
		</layer>
		<layer id="183" name="Constant_1300" type="Const" version="opset1">
			<data element_type="i32" shape="1" offset="16180" size="4" />
			<output>
				<port id="0" precision="I32">
					<dim>1</dim>
				</port>
			</output>
		</layer>
		<layer id="184" name="model/ttl_1/sequential_1/einsum_ttl_1/ReverseV2" type="Squeeze" version="opset1">
			<input>
				<port id="0" precision="FP32">
					<dim>1</dim>
					<dim>8</dim>
				</port>
				<port id="1" precision="I32">
					<dim>1</dim>
				</port>
			</input>
			<output>
				<port id="2" precision="FP32">
					<dim>8</dim>
				</port>
			</output>
		</layer>
		<layer id="185" name="model/ttl_1/sequential_1/einsum_ttl_1/einsum_1/Einsum" type="Einsum" version="opset7">
			<data equation="abc,c->ab" />
			<input>
				<port id="0" precision="FP32">
					<dim>1</dim>
					<dim>64</dim>
					<dim>8</dim>
				</port>
				<port id="1" precision="FP32">
					<dim>8</dim>
				</port>
			</input>
			<output>
				<port id="2" precision="FP32">
					<dim>1</dim>
					<dim>64</dim>
				</port>
			</output>
		</layer>
		<layer id="186" name="model/ttl_1/sequential_1/einsum_ttl_1/add" type="Add" version="opset1">
			<data auto_broadcast="numpy" />
			<input>
				<port id="0" precision="FP32">
					<dim>1</dim>
					<dim>64</dim>
				</port>
				<port id="1" precision="FP32">
					<dim>1</dim>
					<dim>64</dim>
				</port>
			</input>
			<output>
				<port id="2" precision="FP32">
					<dim>1</dim>
					<dim>64</dim>
				</port>
			</output>
		</layer>
		<layer id="187" name="model/ttl_1/sequential_1/einsum_ttl_1/strided_slice_4/stack" type="Const" version="opset1">
			<data element_type="i32" shape="3" offset="16184" size="12" />
			<rt_info>
				<attribute name="precise" version="0" />
			</rt_info>
			<output>
				<port id="0" precision="I32">
					<dim>3</dim>
				</port>
			</output>
		</layer>
		<layer id="188" name="model/ttl_1/sequential_1/einsum_ttl_1/strided_slice_4/stack_1" type="Const" version="opset1">
			<data element_type="i32" shape="3" offset="16152" size="12" />
			<rt_info>
				<attribute name="precise" version="0" />
			</rt_info>
			<output>
				<port id="0" precision="I32">
					<dim>3</dim>
				</port>
			</output>
		</layer>
		<layer id="189" name="model/ttl_1/sequential_1/einsum_ttl_1/strided_slice_4/stack_2" type="Const" version="opset1">
			<data element_type="i32" shape="3" offset="16124" size="12" />
			<rt_info>
				<attribute name="precise" version="0" />
			</rt_info>
			<output>
				<port id="0" precision="I32">
					<dim>3</dim>
				</port>
			</output>
		</layer>
		<layer id="190" name="model/ttl_1/sequential_1/einsum_ttl_1/strided_slice_4" type="StridedSlice" version="opset1">
			<data begin_mask="1, 0, 1" end_mask="1, 1, 0" new_axis_mask="0, 0, 0" shrink_axis_mask="0, 0, 0" ellipsis_mask="0, 0, 0" />
			<input>
				<port id="0" precision="FP32">
					<dim>1</dim>
					<dim>128</dim>
					<dim>16</dim>
				</port>
				<port id="1" precision="I32">
					<dim>3</dim>
				</port>
				<port id="2" precision="I32">
					<dim>3</dim>
				</port>
				<port id="3" precision="I32">
					<dim>3</dim>
				</port>
			</input>
			<output>
				<port id="4" precision="FP32">
					<dim>1</dim>
					<dim>64</dim>
					<dim>8</dim>
				</port>
			</output>
		</layer>
		<layer id="191" name="model/ttl_1/sequential_1/einsum_ttl_1/strided_slice_5_compressed" type="Const" version="opset1">
			<data element_type="f16" shape="8" offset="46328" size="16" />
			<output>
				<port id="0" precision="FP16">
					<dim>8</dim>
				</port>
			</output>
		</layer>
		<layer id="192" name="model/ttl_1/sequential_1/einsum_ttl_1/strided_slice_5" type="Convert" version="opset1">
			<data destination_type="f32" />
			<rt_info>
				<attribute name="decompression" version="0" />
			</rt_info>
			<input>
				<port id="0" precision="FP16">
					<dim>8</dim>
				</port>
			</input>
			<output>
				<port id="1" precision="FP32">
					<dim>8</dim>
				</port>
			</output>
		</layer>
		<layer id="193" name="model/ttl_1/sequential_1/einsum_ttl_1/einsum_2/Einsum" type="Einsum" version="opset7">
			<data equation="abc,c->ab" />
			<input>
				<port id="0" precision="FP32">
					<dim>1</dim>
					<dim>64</dim>
					<dim>8</dim>
				</port>
				<port id="1" precision="FP32">
					<dim>8</dim>
				</port>
			</input>
			<output>
				<port id="2" precision="FP32">
					<dim>1</dim>
					<dim>64</dim>
				</port>
			</output>
		</layer>
		<layer id="194" name="model/ttl_1/sequential_1/einsum_ttl_1/strided_slice_6/stack" type="Const" version="opset1">
			<data element_type="i32" shape="3" offset="16112" size="12" />
			<rt_info>
				<attribute name="precise" version="0" />
			</rt_info>
			<output>
				<port id="0" precision="I32">
					<dim>3</dim>
				</port>
			</output>
		</layer>
		<layer id="195" name="model/ttl_1/sequential_1/einsum_ttl_1/strided_slice_6/stack_1" type="Const" version="opset1">
			<data element_type="i32" shape="3" offset="16212" size="12" />
			<rt_info>
				<attribute name="precise" version="0" />
			</rt_info>
			<output>
				<port id="0" precision="I32">
					<dim>3</dim>
				</port>
			</output>
		</layer>
		<layer id="196" name="model/ttl_1/sequential_1/einsum_ttl_1/strided_slice_6/stack_2" type="Const" version="opset1">
			<data element_type="i32" shape="3" offset="16124" size="12" />
			<rt_info>
				<attribute name="precise" version="0" />
			</rt_info>
			<output>
				<port id="0" precision="I32">
					<dim>3</dim>
				</port>
			</output>
		</layer>
		<layer id="197" name="model/ttl_1/sequential_1/einsum_ttl_1/strided_slice_6" type="StridedSlice" version="opset1">
			<data begin_mask="1, 0" end_mask="1, 1" new_axis_mask="0, 0" shrink_axis_mask="0, 0" ellipsis_mask="0, 0" />
			<input>
				<port id="0" precision="FP32">
					<dim>1</dim>
					<dim>128</dim>
					<dim>16</dim>
				</port>
				<port id="1" precision="I32">
					<dim>3</dim>
				</port>
				<port id="2" precision="I32">
					<dim>3</dim>
				</port>
				<port id="3" precision="I32">
					<dim>3</dim>
				</port>
			</input>
			<output>
				<port id="4" precision="FP32">
					<dim>1</dim>
					<dim>64</dim>
					<dim>8</dim>
				</port>
			</output>
		</layer>
		<layer id="198" name="Unsqueeze_1253_compressed" type="Const" version="opset1">
			<data element_type="f16" shape="1, 8" offset="46328" size="16" />
			<output>
				<port id="0" precision="FP16">
					<dim>1</dim>
					<dim>8</dim>
				</port>
			</output>
		</layer>
		<layer id="199" name="Unsqueeze_1253" type="Convert" version="opset1">
			<data destination_type="f32" />
			<rt_info>
				<attribute name="decompression" version="0" />
			</rt_info>
			<input>
				<port id="0" precision="FP16">
					<dim>1</dim>
					<dim>8</dim>
				</port>
			</input>
			<output>
				<port id="1" precision="FP32">
					<dim>1</dim>
					<dim>8</dim>
				</port>
			</output>
		</layer>
		<layer id="200" name="Broadcast_1260" type="Const" version="opset1">
			<data element_type="i32" shape="1" offset="16176" size="4" />
			<output>
				<port id="0" precision="I32">
					<dim>1</dim>
				</port>
			</output>
		</layer>
		<layer id="201" name="ReverseSequence_1263" type="ReverseSequence" version="opset1">
			<data batch_axis="0" seq_axis="1" />
			<input>
				<port id="0" precision="FP32">
					<dim>1</dim>
					<dim>8</dim>
				</port>
				<port id="1" precision="I32">
					<dim>1</dim>
				</port>
			</input>
			<output>
				<port id="2" precision="FP32">
					<dim>1</dim>
					<dim>8</dim>
				</port>
			</output>
		</layer>
		<layer id="202" name="Constant_1264" type="Const" version="opset1">
			<data element_type="i32" shape="1" offset="16180" size="4" />
			<output>
				<port id="0" precision="I32">
					<dim>1</dim>
				</port>
			</output>
		</layer>
		<layer id="203" name="model/ttl_1/sequential_1/einsum_ttl_1/ReverseV2_1" type="Squeeze" version="opset1">
			<input>
				<port id="0" precision="FP32">
					<dim>1</dim>
					<dim>8</dim>
				</port>
				<port id="1" precision="I32">
					<dim>1</dim>
				</port>
			</input>
			<output>
				<port id="2" precision="FP32">
					<dim>8</dim>
				</port>
			</output>
		</layer>
		<layer id="204" name="model/ttl_1/sequential_1/einsum_ttl_1/einsum_3/Einsum" type="Einsum" version="opset7">
			<data equation="abc,c->ab" />
			<input>
				<port id="0" precision="FP32">
					<dim>1</dim>
					<dim>64</dim>
					<dim>8</dim>
				</port>
				<port id="1" precision="FP32">
					<dim>8</dim>
				</port>
			</input>
			<output>
				<port id="2" precision="FP32">
					<dim>1</dim>
					<dim>64</dim>
				</port>
			</output>
		</layer>
		<layer id="205" name="model/ttl_1/sequential_1/einsum_ttl_1/add_1" type="Add" version="opset1">
			<data auto_broadcast="numpy" />
			<input>
				<port id="0" precision="FP32">
					<dim>1</dim>
					<dim>64</dim>
				</port>
				<port id="1" precision="FP32">
					<dim>1</dim>
					<dim>64</dim>
				</port>
			</input>
			<output>
				<port id="2" precision="FP32">
					<dim>1</dim>
					<dim>64</dim>
				</port>
			</output>
		</layer>
		<layer id="206" name="model/ttl_1/sequential_1/einsum_ttl_1/concat" type="Concat" version="opset1">
			<data axis="1" />
			<input>
				<port id="0" precision="FP32">
					<dim>1</dim>
					<dim>64</dim>
				</port>
				<port id="1" precision="FP32">
					<dim>1</dim>
					<dim>64</dim>
				</port>
			</input>
			<output>
				<port id="2" precision="FP32">
					<dim>1</dim>
					<dim>128</dim>
				</port>
			</output>
		</layer>
		<layer id="207" name="model/ttl_1/sequential_1/flatten_1/Const" type="Const" version="opset1">
			<data element_type="i32" shape="2" offset="16224" size="8" />
			<rt_info>
				<attribute name="precise" version="0" />
			</rt_info>
			<output>
				<port id="0" precision="I32">
					<dim>2</dim>
				</port>
			</output>
		</layer>
		<layer id="208" name="model/ttl_1/sequential_1/flatten_1/Reshape" type="Reshape" version="opset1">
			<data special_zero="false" />
			<input>
				<port id="0" precision="FP32">
					<dim>1</dim>
					<dim>128</dim>
				</port>
				<port id="1" precision="I32">
					<dim>2</dim>
				</port>
			</input>
			<output>
				<port id="2" precision="FP32">
					<dim>1</dim>
					<dim>128</dim>
				</port>
			</output>
		</layer>
		<layer id="209" name="model/ttl_1/sequential_1/tt_dense_1/t3f_matmul/Reshape/shape" type="Const" version="opset1">
			<data element_type="i32" shape="3" offset="16232" size="12" />
			<rt_info>
				<attribute name="precise" version="0" />
			</rt_info>
			<output>
				<port id="0" precision="I32">
					<dim>3</dim>
				</port>
			</output>
		</layer>
		<layer id="210" name="model/ttl_1/sequential_1/tt_dense_1/t3f_matmul/Reshape" type="Reshape" version="opset1">
			<data special_zero="false" />
			<input>
				<port id="0" precision="FP32">
					<dim>1</dim>
					<dim>128</dim>
				</port>
				<port id="1" precision="I32">
					<dim>3</dim>
				</port>
			</input>
			<output>
				<port id="2" precision="FP32">
					<dim>64</dim>
					<dim>2</dim>
					<dim>1</dim>
				</port>
			</output>
		</layer>
		<layer id="211" name="model/ttl_1/sequential_1/tt_dense_1/t3f_matmul/einsum/Einsum" type="Einsum" version="opset7">
			<data equation="aijb,rjb->ira" />
			<input>
				<port id="0" precision="FP32">
					<dim>7</dim>
					<dim>4</dim>
					<dim>2</dim>
					<dim>1</dim>
				</port>
				<port id="1" precision="FP32">
					<dim>64</dim>
					<dim>2</dim>
					<dim>1</dim>
				</port>
			</input>
			<output>
				<port id="2" precision="FP32">
					<dim>4</dim>
					<dim>64</dim>
					<dim>7</dim>
				</port>
			</output>
		</layer>
		<layer id="212" name="model/ttl_1/sequential_1/tt_dense_1/t3f_matmul/Reshape_1/shape" type="Const" version="opset1">
			<data element_type="i32" shape="3" offset="16244" size="12" />
			<rt_info>
				<attribute name="precise" version="0" />
			</rt_info>
			<output>
				<port id="0" precision="I32">
					<dim>3</dim>
				</port>
			</output>
		</layer>
		<layer id="213" name="model/ttl_1/sequential_1/tt_dense_1/t3f_matmul/Reshape_1" type="Reshape" version="opset1">
			<data special_zero="false" />
			<input>
				<port id="0" precision="FP32">
					<dim>4</dim>
					<dim>64</dim>
					<dim>7</dim>
				</port>
				<port id="1" precision="I32">
					<dim>3</dim>
				</port>
			</input>
			<output>
				<port id="2" precision="FP32">
					<dim>128</dim>
					<dim>2</dim>
					<dim>7</dim>
				</port>
			</output>
		</layer>
		<layer id="214" name="model/ttl_1/sequential_1/tt_dense_1/t3f_matmul/einsum_1/Einsum" type="Einsum" version="opset7">
			<data equation="aijb,rjb->ira" />
			<input>
				<port id="0" precision="FP32">
					<dim>16</dim>
					<dim>4</dim>
					<dim>2</dim>
					<dim>7</dim>
				</port>
				<port id="1" precision="FP32">
					<dim>128</dim>
					<dim>2</dim>
					<dim>7</dim>
				</port>
			</input>
			<output>
				<port id="2" precision="FP32">
					<dim>4</dim>
					<dim>128</dim>
					<dim>16</dim>
				</port>
			</output>
		</layer>
		<layer id="215" name="model/ttl_1/sequential_1/tt_dense_1/t3f_matmul/Reshape_2/shape" type="Const" version="opset1">
			<data element_type="i32" shape="3" offset="16256" size="12" />
			<rt_info>
				<attribute name="precise" version="0" />
			</rt_info>
			<output>
				<port id="0" precision="I32">
					<dim>3</dim>
				</port>
			</output>
		</layer>
		<layer id="216" name="model/ttl_1/sequential_1/tt_dense_1/t3f_matmul/Reshape_2" type="Reshape" version="opset1">
			<data special_zero="false" />
			<input>
				<port id="0" precision="FP32">
					<dim>4</dim>
					<dim>128</dim>
					<dim>16</dim>
				</port>
				<port id="1" precision="I32">
					<dim>3</dim>
				</port>
			</input>
			<output>
				<port id="2" precision="FP32">
					<dim>256</dim>
					<dim>2</dim>
					<dim>16</dim>
				</port>
			</output>
		</layer>
		<layer id="217" name="model/ttl_1/sequential_1/tt_dense_1/t3f_matmul/einsum_2/Einsum" type="Einsum" version="opset7">
			<data equation="aijb,rjb->ira" />
			<input>
				<port id="0" precision="FP32">
					<dim>16</dim>
					<dim>4</dim>
					<dim>2</dim>
					<dim>16</dim>
				</port>
				<port id="1" precision="FP32">
					<dim>256</dim>
					<dim>2</dim>
					<dim>16</dim>
				</port>
			</input>
			<output>
				<port id="2" precision="FP32">
					<dim>4</dim>
					<dim>256</dim>
					<dim>16</dim>
				</port>
			</output>
		</layer>
		<layer id="218" name="model/ttl_1/sequential_1/tt_dense_1/t3f_matmul/Reshape_3/shape" type="Const" version="opset1">
			<data element_type="i32" shape="3" offset="16256" size="12" />
			<rt_info>
				<attribute name="precise" version="0" />
			</rt_info>
			<output>
				<port id="0" precision="I32">
					<dim>3</dim>
				</port>
			</output>
		</layer>
		<layer id="219" name="model/ttl_1/sequential_1/tt_dense_1/t3f_matmul/Reshape_3" type="Reshape" version="opset1">
			<data special_zero="false" />
			<input>
				<port id="0" precision="FP32">
					<dim>4</dim>
					<dim>256</dim>
					<dim>16</dim>
				</port>
				<port id="1" precision="I32">
					<dim>3</dim>
				</port>
			</input>
			<output>
				<port id="2" precision="FP32">
					<dim>512</dim>
					<dim>2</dim>
					<dim>16</dim>
				</port>
			</output>
		</layer>
		<layer id="220" name="model/ttl_1/sequential_1/tt_dense_1/t3f_matmul/einsum_3/Einsum" type="Einsum" version="opset7">
			<data equation="aijb,rjb->ira" />
			<input>
				<port id="0" precision="FP32">
					<dim>16</dim>
					<dim>4</dim>
					<dim>2</dim>
					<dim>16</dim>
				</port>
				<port id="1" precision="FP32">
					<dim>512</dim>
					<dim>2</dim>
					<dim>16</dim>
				</port>
			</input>
			<output>
				<port id="2" precision="FP32">
					<dim>4</dim>
					<dim>512</dim>
					<dim>16</dim>
				</port>
			</output>
		</layer>
		<layer id="221" name="model/ttl_1/sequential_1/tt_dense_1/t3f_matmul/Reshape_4/shape" type="Const" version="opset1">
			<data element_type="i32" shape="3" offset="16256" size="12" />
			<rt_info>
				<attribute name="precise" version="0" />
			</rt_info>
			<output>
				<port id="0" precision="I32">
					<dim>3</dim>
				</port>
			</output>
		</layer>
		<layer id="222" name="model/ttl_1/sequential_1/tt_dense_1/t3f_matmul/Reshape_4" type="Reshape" version="opset1">
			<data special_zero="false" />
			<input>
				<port id="0" precision="FP32">
					<dim>4</dim>
					<dim>512</dim>
					<dim>16</dim>
				</port>
				<port id="1" precision="I32">
					<dim>3</dim>
				</port>
			</input>
			<output>
				<port id="2" precision="FP32">
					<dim>1024</dim>
					<dim>2</dim>
					<dim>16</dim>
				</port>
			</output>
		</layer>
		<layer id="223" name="model/ttl_1/sequential_1/tt_dense_1/t3f_matmul/einsum_4/Einsum" type="Einsum" version="opset7">
			<data equation="aijb,rjb->ira" />
			<input>
				<port id="0" precision="FP32">
					<dim>16</dim>
					<dim>4</dim>
					<dim>2</dim>
					<dim>16</dim>
				</port>
				<port id="1" precision="FP32">
					<dim>1024</dim>
					<dim>2</dim>
					<dim>16</dim>
				</port>
			</input>
			<output>
				<port id="2" precision="FP32">
					<dim>4</dim>
					<dim>1024</dim>
					<dim>16</dim>
				</port>
			</output>
		</layer>
		<layer id="224" name="model/ttl_1/sequential_1/tt_dense_1/t3f_matmul/Reshape_5/shape" type="Const" version="opset1">
			<data element_type="i32" shape="3" offset="16256" size="12" />
			<rt_info>
				<attribute name="precise" version="0" />
			</rt_info>
			<output>
				<port id="0" precision="I32">
					<dim>3</dim>
				</port>
			</output>
		</layer>
		<layer id="225" name="model/ttl_1/sequential_1/tt_dense_1/t3f_matmul/Reshape_5" type="Reshape" version="opset1">
			<data special_zero="false" />
			<input>
				<port id="0" precision="FP32">
					<dim>4</dim>
					<dim>1024</dim>
					<dim>16</dim>
				</port>
				<port id="1" precision="I32">
					<dim>3</dim>
				</port>
			</input>
			<output>
				<port id="2" precision="FP32">
					<dim>2048</dim>
					<dim>2</dim>
					<dim>16</dim>
				</port>
			</output>
		</layer>
		<layer id="226" name="model/ttl_1/sequential_1/tt_dense_1/t3f_matmul/einsum_5/Einsum" type="Einsum" version="opset7">
			<data equation="aijb,rjb->ira" />
			<input>
				<port id="0" precision="FP32">
					<dim>7</dim>
					<dim>4</dim>
					<dim>2</dim>
					<dim>16</dim>
				</port>
				<port id="1" precision="FP32">
					<dim>2048</dim>
					<dim>2</dim>
					<dim>16</dim>
				</port>
			</input>
			<output>
				<port id="2" precision="FP32">
					<dim>4</dim>
					<dim>2048</dim>
					<dim>7</dim>
				</port>
			</output>
		</layer>
		<layer id="227" name="model/ttl_1/sequential_1/tt_dense_1/t3f_matmul/Reshape_6/shape" type="Const" version="opset1">
			<data element_type="i32" shape="3" offset="16244" size="12" />
			<rt_info>
				<attribute name="precise" version="0" />
			</rt_info>
			<output>
				<port id="0" precision="I32">
					<dim>3</dim>
				</port>
			</output>
		</layer>
		<layer id="228" name="model/ttl_1/sequential_1/tt_dense_1/t3f_matmul/Reshape_6" type="Reshape" version="opset1">
			<data special_zero="false" />
			<input>
				<port id="0" precision="FP32">
					<dim>4</dim>
					<dim>2048</dim>
					<dim>7</dim>
				</port>
				<port id="1" precision="I32">
					<dim>3</dim>
				</port>
			</input>
			<output>
				<port id="2" precision="FP32">
					<dim>4096</dim>
					<dim>2</dim>
					<dim>7</dim>
				</port>
			</output>
		</layer>
		<layer id="229" name="model/ttl_1/sequential_1/tt_dense_1/t3f_matmul/einsum_6/Einsum" type="Einsum" version="opset7">
			<data equation="aijb,rjb->ira" />
			<input>
				<port id="0" precision="FP32">
					<dim>1</dim>
					<dim>4</dim>
					<dim>2</dim>
					<dim>7</dim>
				</port>
				<port id="1" precision="FP32">
					<dim>4096</dim>
					<dim>2</dim>
					<dim>7</dim>
				</port>
			</input>
			<output>
				<port id="2" precision="FP32">
					<dim>4</dim>
					<dim>4096</dim>
					<dim>1</dim>
				</port>
			</output>
		</layer>
		<layer id="230" name="model/ttl_1/sequential_1/reshape_1/Reshape/shape" type="Const" version="opset1">
			<data element_type="i32" shape="3" offset="16268" size="12" />
			<rt_info>
				<attribute name="precise" version="0" />
			</rt_info>
			<output>
				<port id="0" precision="I32">
					<dim>3</dim>
				</port>
			</output>
		</layer>
		<layer id="231" name="model/ttl_1/sequential_1/reshape_1/Reshape" type="Reshape" version="opset1">
			<data special_zero="false" />
			<input>
				<port id="0" precision="FP32">
					<dim>4</dim>
					<dim>4096</dim>
					<dim>1</dim>
				</port>
				<port id="1" precision="I32">
					<dim>3</dim>
				</port>
			</input>
			<output>
				<port id="2" precision="FP32">
					<dim>1</dim>
					<dim>256</dim>
					<dim>64</dim>
				</port>
			</output>
		</layer>
		<layer id="232" name="model/tf.__operators__.getitem_2/strided_slice/stack" type="Const" version="opset1">
			<data element_type="i32" shape="2" offset="30200" size="8" />
			<rt_info>
				<attribute name="precise" version="0" />
			</rt_info>
			<output>
				<port id="0" precision="I32">
					<dim>2</dim>
				</port>
			</output>
		</layer>
		<layer id="233" name="model/tf.__operators__.getitem_2/strided_slice/stack_1" type="Const" version="opset1">
			<data element_type="i32" shape="2" offset="46344" size="8" />
			<rt_info>
				<attribute name="precise" version="0" />
			</rt_info>
			<output>
				<port id="0" precision="I32">
					<dim>2</dim>
				</port>
			</output>
		</layer>
		<layer id="234" name="model/tf.__operators__.getitem_2/strided_slice/stack_2" type="Const" version="opset1">
			<data element_type="i32" shape="2" offset="30208" size="8" />
			<rt_info>
				<attribute name="precise" version="0" />
			</rt_info>
			<output>
				<port id="0" precision="I32">
					<dim>2</dim>
				</port>
			</output>
		</layer>
		<layer id="235" name="model/tf.__operators__.getitem_2/strided_slice" type="StridedSlice" version="opset1">
			<data begin_mask="0, 0" end_mask="0, 0" new_axis_mask="0, 0" shrink_axis_mask="0, 1" ellipsis_mask="1, 0" />
			<input>
				<port id="0" precision="FP32">
					<dim>1</dim>
					<dim>1</dim>
					<dim>1</dim>
					<dim>10</dim>
				</port>
				<port id="1" precision="I32">
					<dim>2</dim>
				</port>
				<port id="2" precision="I32">
					<dim>2</dim>
				</port>
				<port id="3" precision="I32">
					<dim>2</dim>
				</port>
			</input>
			<output>
				<port id="4" precision="FP32">
					<dim>1</dim>
					<dim>1</dim>
					<dim>1</dim>
				</port>
			</output>
		</layer>
		<layer id="236" name="model/multiply_1/mul" type="Multiply" version="opset1">
			<data auto_broadcast="numpy" />
			<input>
				<port id="0" precision="FP32">
					<dim>1</dim>
					<dim>256</dim>
					<dim>64</dim>
				</port>
				<port id="1" precision="FP32">
					<dim>1</dim>
					<dim>1</dim>
					<dim>1</dim>
				</port>
			</input>
			<output>
				<port id="2" precision="FP32">
					<dim>1</dim>
					<dim>256</dim>
					<dim>64</dim>
				</port>
			</output>
		</layer>
		<layer id="237" name="model/add/add" type="Add" version="opset1">
			<data auto_broadcast="numpy" />
			<input>
				<port id="0" precision="FP32">
					<dim>1</dim>
					<dim>256</dim>
					<dim>64</dim>
				</port>
				<port id="1" precision="FP32">
					<dim>1</dim>
					<dim>256</dim>
					<dim>64</dim>
				</port>
			</input>
			<output>
				<port id="2" precision="FP32">
					<dim>1</dim>
					<dim>256</dim>
					<dim>64</dim>
				</port>
			</output>
		</layer>
		<layer id="238" name="model/ttl_2/sequential_2/tt_dense_2/t3f_matmul/t3f_transpose/transpose_compressed" type="Const" version="opset1">
			<data element_type="f16" shape="1, 4, 2, 7" offset="46352" size="112" />
			<output>
				<port id="0" precision="FP16">
					<dim>1</dim>
					<dim>4</dim>
					<dim>2</dim>
					<dim>7</dim>
				</port>
			</output>
		</layer>
		<layer id="239" name="model/ttl_2/sequential_2/tt_dense_2/t3f_matmul/t3f_transpose/transpose" type="Convert" version="opset1">
			<data destination_type="f32" />
			<rt_info>
				<attribute name="decompression" version="0" />
			</rt_info>
			<input>
				<port id="0" precision="FP16">
					<dim>1</dim>
					<dim>4</dim>
					<dim>2</dim>
					<dim>7</dim>
				</port>
			</input>
			<output>
				<port id="1" precision="FP32">
					<dim>1</dim>
					<dim>4</dim>
					<dim>2</dim>
					<dim>7</dim>
				</port>
			</output>
		</layer>
		<layer id="240" name="model/ttl_2/sequential_2/tt_dense_2/t3f_matmul/t3f_transpose/transpose_1_compressed" type="Const" version="opset1">
			<data element_type="f16" shape="7, 4, 2, 16" offset="46464" size="1792" />
			<output>
				<port id="0" precision="FP16">
					<dim>7</dim>
					<dim>4</dim>
					<dim>2</dim>
					<dim>16</dim>
				</port>
			</output>
		</layer>
		<layer id="241" name="model/ttl_2/sequential_2/tt_dense_2/t3f_matmul/t3f_transpose/transpose_1" type="Convert" version="opset1">
			<data destination_type="f32" />
			<rt_info>
				<attribute name="decompression" version="0" />
			</rt_info>
			<input>
				<port id="0" precision="FP16">
					<dim>7</dim>
					<dim>4</dim>
					<dim>2</dim>
					<dim>16</dim>
				</port>
			</input>
			<output>
				<port id="1" precision="FP32">
					<dim>7</dim>
					<dim>4</dim>
					<dim>2</dim>
					<dim>16</dim>
				</port>
			</output>
		</layer>
		<layer id="242" name="model/ttl_2/sequential_2/tt_dense_2/t3f_matmul/t3f_transpose/transpose_2_compressed" type="Const" version="opset1">
			<data element_type="f16" shape="16, 4, 2, 16" offset="48256" size="4096" />
			<output>
				<port id="0" precision="FP16">
					<dim>16</dim>
					<dim>4</dim>
					<dim>2</dim>
					<dim>16</dim>
				</port>
			</output>
		</layer>
		<layer id="243" name="model/ttl_2/sequential_2/tt_dense_2/t3f_matmul/t3f_transpose/transpose_2" type="Convert" version="opset1">
			<data destination_type="f32" />
			<rt_info>
				<attribute name="decompression" version="0" />
			</rt_info>
			<input>
				<port id="0" precision="FP16">
					<dim>16</dim>
					<dim>4</dim>
					<dim>2</dim>
					<dim>16</dim>
				</port>
			</input>
			<output>
				<port id="1" precision="FP32">
					<dim>16</dim>
					<dim>4</dim>
					<dim>2</dim>
					<dim>16</dim>
				</port>
			</output>
		</layer>
		<layer id="244" name="model/ttl_2/sequential_2/tt_dense_2/t3f_matmul/t3f_transpose/transpose_3_compressed" type="Const" version="opset1">
			<data element_type="f16" shape="16, 4, 2, 16" offset="52352" size="4096" />
			<output>
				<port id="0" precision="FP16">
					<dim>16</dim>
					<dim>4</dim>
					<dim>2</dim>
					<dim>16</dim>
				</port>
			</output>
		</layer>
		<layer id="245" name="model/ttl_2/sequential_2/tt_dense_2/t3f_matmul/t3f_transpose/transpose_3" type="Convert" version="opset1">
			<data destination_type="f32" />
			<rt_info>
				<attribute name="decompression" version="0" />
			</rt_info>
			<input>
				<port id="0" precision="FP16">
					<dim>16</dim>
					<dim>4</dim>
					<dim>2</dim>
					<dim>16</dim>
				</port>
			</input>
			<output>
				<port id="1" precision="FP32">
					<dim>16</dim>
					<dim>4</dim>
					<dim>2</dim>
					<dim>16</dim>
				</port>
			</output>
		</layer>
		<layer id="246" name="model/ttl_2/sequential_2/tt_dense_2/t3f_matmul/t3f_transpose/transpose_4_compressed" type="Const" version="opset1">
			<data element_type="f16" shape="16, 4, 2, 16" offset="56448" size="4096" />
			<output>
				<port id="0" precision="FP16">
					<dim>16</dim>
					<dim>4</dim>
					<dim>2</dim>
					<dim>16</dim>
				</port>
			</output>
		</layer>
		<layer id="247" name="model/ttl_2/sequential_2/tt_dense_2/t3f_matmul/t3f_transpose/transpose_4" type="Convert" version="opset1">
			<data destination_type="f32" />
			<rt_info>
				<attribute name="decompression" version="0" />
			</rt_info>
			<input>
				<port id="0" precision="FP16">
					<dim>16</dim>
					<dim>4</dim>
					<dim>2</dim>
					<dim>16</dim>
				</port>
			</input>
			<output>
				<port id="1" precision="FP32">
					<dim>16</dim>
					<dim>4</dim>
					<dim>2</dim>
					<dim>16</dim>
				</port>
			</output>
		</layer>
		<layer id="248" name="model/ttl_2/sequential_2/tt_dense_2/t3f_matmul/t3f_transpose/transpose_5_compressed" type="Const" version="opset1">
			<data element_type="f16" shape="16, 4, 2, 7" offset="60544" size="1792" />
			<output>
				<port id="0" precision="FP16">
					<dim>16</dim>
					<dim>4</dim>
					<dim>2</dim>
					<dim>7</dim>
				</port>
			</output>
		</layer>
		<layer id="249" name="model/ttl_2/sequential_2/tt_dense_2/t3f_matmul/t3f_transpose/transpose_5" type="Convert" version="opset1">
			<data destination_type="f32" />
			<rt_info>
				<attribute name="decompression" version="0" />
			</rt_info>
			<input>
				<port id="0" precision="FP16">
					<dim>16</dim>
					<dim>4</dim>
					<dim>2</dim>
					<dim>7</dim>
				</port>
			</input>
			<output>
				<port id="1" precision="FP32">
					<dim>16</dim>
					<dim>4</dim>
					<dim>2</dim>
					<dim>7</dim>
				</port>
			</output>
		</layer>
		<layer id="250" name="model/ttl_2/sequential_2/tt_dense_2/t3f_matmul/t3f_transpose/transpose_6_compressed" type="Const" version="opset1">
			<data element_type="f16" shape="7, 4, 2, 1" offset="62336" size="112" />
			<output>
				<port id="0" precision="FP16">
					<dim>7</dim>
					<dim>4</dim>
					<dim>2</dim>
					<dim>1</dim>
				</port>
			</output>
		</layer>
		<layer id="251" name="model/ttl_2/sequential_2/tt_dense_2/t3f_matmul/t3f_transpose/transpose_6" type="Convert" version="opset1">
			<data destination_type="f32" />
			<rt_info>
				<attribute name="decompression" version="0" />
			</rt_info>
			<input>
				<port id="0" precision="FP16">
					<dim>7</dim>
					<dim>4</dim>
					<dim>2</dim>
					<dim>1</dim>
				</port>
			</input>
			<output>
				<port id="1" precision="FP32">
					<dim>7</dim>
					<dim>4</dim>
					<dim>2</dim>
					<dim>1</dim>
				</port>
			</output>
		</layer>
		<layer id="252" name="model/ttl_2/sequential_2/einsum_ttl_2/strided_slice/stack" type="Const" version="opset1">
			<data element_type="i32" shape="3" offset="16100" size="12" />
			<rt_info>
				<attribute name="precise" version="0" />
			</rt_info>
			<output>
				<port id="0" precision="I32">
					<dim>3</dim>
				</port>
			</output>
		</layer>
		<layer id="253" name="model/ttl_2/sequential_2/einsum_ttl_2/strided_slice/stack_1" type="Const" version="opset1">
			<data element_type="i32" shape="3" offset="16112" size="12" />
			<rt_info>
				<attribute name="precise" version="0" />
			</rt_info>
			<output>
				<port id="0" precision="I32">
					<dim>3</dim>
				</port>
			</output>
		</layer>
		<layer id="254" name="model/ttl_2/sequential_2/einsum_ttl_2/strided_slice/stack_2" type="Const" version="opset1">
			<data element_type="i32" shape="3" offset="16124" size="12" />
			<rt_info>
				<attribute name="precise" version="0" />
			</rt_info>
			<output>
				<port id="0" precision="I32">
					<dim>3</dim>
				</port>
			</output>
		</layer>
		<layer id="255" name="model/ttl_2/sequential_2/einsum_ttl_2/strided_slice" type="StridedSlice" version="opset1">
			<data begin_mask="1, 1, 1" end_mask="1, 0, 0" new_axis_mask="0, 0, 0" shrink_axis_mask="0, 0, 0" ellipsis_mask="0, 0, 0" />
			<input>
				<port id="0" precision="FP32">
					<dim>1</dim>
					<dim>128</dim>
					<dim>16</dim>
				</port>
				<port id="1" precision="I32">
					<dim>3</dim>
				</port>
				<port id="2" precision="I32">
					<dim>3</dim>
				</port>
				<port id="3" precision="I32">
					<dim>3</dim>
				</port>
			</input>
			<output>
				<port id="4" precision="FP32">
					<dim>1</dim>
					<dim>64</dim>
					<dim>8</dim>
				</port>
			</output>
		</layer>
		<layer id="256" name="model/ttl_2/sequential_2/einsum_ttl_2/strided_slice_1_compressed" type="Const" version="opset1">
			<data element_type="f16" shape="8" offset="62448" size="16" />
			<output>
				<port id="0" precision="FP16">
					<dim>8</dim>
				</port>
			</output>
		</layer>
		<layer id="257" name="model/ttl_2/sequential_2/einsum_ttl_2/strided_slice_1" type="Convert" version="opset1">
			<data destination_type="f32" />
			<rt_info>
				<attribute name="decompression" version="0" />
			</rt_info>
			<input>
				<port id="0" precision="FP16">
					<dim>8</dim>
				</port>
			</input>
			<output>
				<port id="1" precision="FP32">
					<dim>8</dim>
				</port>
			</output>
		</layer>
		<layer id="258" name="model/ttl_2/sequential_2/einsum_ttl_2/einsum/Einsum" type="Einsum" version="opset7">
			<data equation="abc,c->ab" />
			<input>
				<port id="0" precision="FP32">
					<dim>1</dim>
					<dim>64</dim>
					<dim>8</dim>
				</port>
				<port id="1" precision="FP32">
					<dim>8</dim>
				</port>
			</input>
			<output>
				<port id="2" precision="FP32">
					<dim>1</dim>
					<dim>64</dim>
				</port>
			</output>
		</layer>
		<layer id="259" name="model/ttl_2/sequential_2/einsum_ttl_2/strided_slice_2/stack" type="Const" version="opset1">
			<data element_type="i32" shape="3" offset="16152" size="12" />
			<rt_info>
				<attribute name="precise" version="0" />
			</rt_info>
			<output>
				<port id="0" precision="I32">
					<dim>3</dim>
				</port>
			</output>
		</layer>
		<layer id="260" name="model/ttl_2/sequential_2/einsum_ttl_2/strided_slice_2/stack_1" type="Const" version="opset1">
			<data element_type="i32" shape="3" offset="16164" size="12" />
			<rt_info>
				<attribute name="precise" version="0" />
			</rt_info>
			<output>
				<port id="0" precision="I32">
					<dim>3</dim>
				</port>
			</output>
		</layer>
		<layer id="261" name="model/ttl_2/sequential_2/einsum_ttl_2/strided_slice_2/stack_2" type="Const" version="opset1">
			<data element_type="i32" shape="3" offset="16124" size="12" />
			<rt_info>
				<attribute name="precise" version="0" />
			</rt_info>
			<output>
				<port id="0" precision="I32">
					<dim>3</dim>
				</port>
			</output>
		</layer>
		<layer id="262" name="model/ttl_2/sequential_2/einsum_ttl_2/strided_slice_2" type="StridedSlice" version="opset1">
			<data begin_mask="1, 1" end_mask="1, 0" new_axis_mask="0, 0" shrink_axis_mask="0, 0" ellipsis_mask="0, 0" />
			<input>
				<port id="0" precision="FP32">
					<dim>1</dim>
					<dim>128</dim>
					<dim>16</dim>
				</port>
				<port id="1" precision="I32">
					<dim>3</dim>
				</port>
				<port id="2" precision="I32">
					<dim>3</dim>
				</port>
				<port id="3" precision="I32">
					<dim>3</dim>
				</port>
			</input>
			<output>
				<port id="4" precision="FP32">
					<dim>1</dim>
					<dim>64</dim>
					<dim>8</dim>
				</port>
			</output>
		</layer>
		<layer id="263" name="Unsqueeze_1154_compressed" type="Const" version="opset1">
			<data element_type="f16" shape="1, 8" offset="62448" size="16" />
			<output>
				<port id="0" precision="FP16">
					<dim>1</dim>
					<dim>8</dim>
				</port>
			</output>
		</layer>
		<layer id="264" name="Unsqueeze_1154" type="Convert" version="opset1">
			<data destination_type="f32" />
			<rt_info>
				<attribute name="decompression" version="0" />
			</rt_info>
			<input>
				<port id="0" precision="FP16">
					<dim>1</dim>
					<dim>8</dim>
				</port>
			</input>
			<output>
				<port id="1" precision="FP32">
					<dim>1</dim>
					<dim>8</dim>
				</port>
			</output>
		</layer>
		<layer id="265" name="Broadcast_1161" type="Const" version="opset1">
			<data element_type="i32" shape="1" offset="16176" size="4" />
			<output>
				<port id="0" precision="I32">
					<dim>1</dim>
				</port>
			</output>
		</layer>
		<layer id="266" name="ReverseSequence_1164" type="ReverseSequence" version="opset1">
			<data batch_axis="0" seq_axis="1" />
			<input>
				<port id="0" precision="FP32">
					<dim>1</dim>
					<dim>8</dim>
				</port>
				<port id="1" precision="I32">
					<dim>1</dim>
				</port>
			</input>
			<output>
				<port id="2" precision="FP32">
					<dim>1</dim>
					<dim>8</dim>
				</port>
			</output>
		</layer>
		<layer id="267" name="Constant_1165" type="Const" version="opset1">
			<data element_type="i32" shape="1" offset="16180" size="4" />
			<output>
				<port id="0" precision="I32">
					<dim>1</dim>
				</port>
			</output>
		</layer>
		<layer id="268" name="model/ttl_2/sequential_2/einsum_ttl_2/ReverseV2" type="Squeeze" version="opset1">
			<input>
				<port id="0" precision="FP32">
					<dim>1</dim>
					<dim>8</dim>
				</port>
				<port id="1" precision="I32">
					<dim>1</dim>
				</port>
			</input>
			<output>
				<port id="2" precision="FP32">
					<dim>8</dim>
				</port>
			</output>
		</layer>
		<layer id="269" name="model/ttl_2/sequential_2/einsum_ttl_2/einsum_1/Einsum" type="Einsum" version="opset7">
			<data equation="abc,c->ab" />
			<input>
				<port id="0" precision="FP32">
					<dim>1</dim>
					<dim>64</dim>
					<dim>8</dim>
				</port>
				<port id="1" precision="FP32">
					<dim>8</dim>
				</port>
			</input>
			<output>
				<port id="2" precision="FP32">
					<dim>1</dim>
					<dim>64</dim>
				</port>
			</output>
		</layer>
		<layer id="270" name="model/ttl_2/sequential_2/einsum_ttl_2/add" type="Add" version="opset1">
			<data auto_broadcast="numpy" />
			<input>
				<port id="0" precision="FP32">
					<dim>1</dim>
					<dim>64</dim>
				</port>
				<port id="1" precision="FP32">
					<dim>1</dim>
					<dim>64</dim>
				</port>
			</input>
			<output>
				<port id="2" precision="FP32">
					<dim>1</dim>
					<dim>64</dim>
				</port>
			</output>
		</layer>
		<layer id="271" name="model/ttl_2/sequential_2/einsum_ttl_2/strided_slice_4/stack" type="Const" version="opset1">
			<data element_type="i32" shape="3" offset="16184" size="12" />
			<rt_info>
				<attribute name="precise" version="0" />
			</rt_info>
			<output>
				<port id="0" precision="I32">
					<dim>3</dim>
				</port>
			</output>
		</layer>
		<layer id="272" name="model/ttl_2/sequential_2/einsum_ttl_2/strided_slice_4/stack_1" type="Const" version="opset1">
			<data element_type="i32" shape="3" offset="16152" size="12" />
			<rt_info>
				<attribute name="precise" version="0" />
			</rt_info>
			<output>
				<port id="0" precision="I32">
					<dim>3</dim>
				</port>
			</output>
		</layer>
		<layer id="273" name="model/ttl_2/sequential_2/einsum_ttl_2/strided_slice_4/stack_2" type="Const" version="opset1">
			<data element_type="i32" shape="3" offset="16124" size="12" />
			<rt_info>
				<attribute name="precise" version="0" />
			</rt_info>
			<output>
				<port id="0" precision="I32">
					<dim>3</dim>
				</port>
			</output>
		</layer>
		<layer id="274" name="model/ttl_2/sequential_2/einsum_ttl_2/strided_slice_4" type="StridedSlice" version="opset1">
			<data begin_mask="1, 0, 1" end_mask="1, 1, 0" new_axis_mask="0, 0, 0" shrink_axis_mask="0, 0, 0" ellipsis_mask="0, 0, 0" />
			<input>
				<port id="0" precision="FP32">
					<dim>1</dim>
					<dim>128</dim>
					<dim>16</dim>
				</port>
				<port id="1" precision="I32">
					<dim>3</dim>
				</port>
				<port id="2" precision="I32">
					<dim>3</dim>
				</port>
				<port id="3" precision="I32">
					<dim>3</dim>
				</port>
			</input>
			<output>
				<port id="4" precision="FP32">
					<dim>1</dim>
					<dim>64</dim>
					<dim>8</dim>
				</port>
			</output>
		</layer>
		<layer id="275" name="model/ttl_2/sequential_2/einsum_ttl_2/strided_slice_5_compressed" type="Const" version="opset1">
			<data element_type="f16" shape="8" offset="62464" size="16" />
			<output>
				<port id="0" precision="FP16">
					<dim>8</dim>
				</port>
			</output>
		</layer>
		<layer id="276" name="model/ttl_2/sequential_2/einsum_ttl_2/strided_slice_5" type="Convert" version="opset1">
			<data destination_type="f32" />
			<rt_info>
				<attribute name="decompression" version="0" />
			</rt_info>
			<input>
				<port id="0" precision="FP16">
					<dim>8</dim>
				</port>
			</input>
			<output>
				<port id="1" precision="FP32">
					<dim>8</dim>
				</port>
			</output>
		</layer>
		<layer id="277" name="model/ttl_2/sequential_2/einsum_ttl_2/einsum_2/Einsum" type="Einsum" version="opset7">
			<data equation="abc,c->ab" />
			<input>
				<port id="0" precision="FP32">
					<dim>1</dim>
					<dim>64</dim>
					<dim>8</dim>
				</port>
				<port id="1" precision="FP32">
					<dim>8</dim>
				</port>
			</input>
			<output>
				<port id="2" precision="FP32">
					<dim>1</dim>
					<dim>64</dim>
				</port>
			</output>
		</layer>
		<layer id="278" name="model/ttl_2/sequential_2/einsum_ttl_2/strided_slice_6/stack" type="Const" version="opset1">
			<data element_type="i32" shape="3" offset="16112" size="12" />
			<rt_info>
				<attribute name="precise" version="0" />
			</rt_info>
			<output>
				<port id="0" precision="I32">
					<dim>3</dim>
				</port>
			</output>
		</layer>
		<layer id="279" name="model/ttl_2/sequential_2/einsum_ttl_2/strided_slice_6/stack_1" type="Const" version="opset1">
			<data element_type="i32" shape="3" offset="16212" size="12" />
			<rt_info>
				<attribute name="precise" version="0" />
			</rt_info>
			<output>
				<port id="0" precision="I32">
					<dim>3</dim>
				</port>
			</output>
		</layer>
		<layer id="280" name="model/ttl_2/sequential_2/einsum_ttl_2/strided_slice_6/stack_2" type="Const" version="opset1">
			<data element_type="i32" shape="3" offset="16124" size="12" />
			<rt_info>
				<attribute name="precise" version="0" />
			</rt_info>
			<output>
				<port id="0" precision="I32">
					<dim>3</dim>
				</port>
			</output>
		</layer>
		<layer id="281" name="model/ttl_2/sequential_2/einsum_ttl_2/strided_slice_6" type="StridedSlice" version="opset1">
			<data begin_mask="1, 0" end_mask="1, 1" new_axis_mask="0, 0" shrink_axis_mask="0, 0" ellipsis_mask="0, 0" />
			<input>
				<port id="0" precision="FP32">
					<dim>1</dim>
					<dim>128</dim>
					<dim>16</dim>
				</port>
				<port id="1" precision="I32">
					<dim>3</dim>
				</port>
				<port id="2" precision="I32">
					<dim>3</dim>
				</port>
				<port id="3" precision="I32">
					<dim>3</dim>
				</port>
			</input>
			<output>
				<port id="4" precision="FP32">
					<dim>1</dim>
					<dim>64</dim>
					<dim>8</dim>
				</port>
			</output>
		</layer>
		<layer id="282" name="Unsqueeze_1118_compressed" type="Const" version="opset1">
			<data element_type="f16" shape="1, 8" offset="62464" size="16" />
			<output>
				<port id="0" precision="FP16">
					<dim>1</dim>
					<dim>8</dim>
				</port>
			</output>
		</layer>
		<layer id="283" name="Unsqueeze_1118" type="Convert" version="opset1">
			<data destination_type="f32" />
			<rt_info>
				<attribute name="decompression" version="0" />
			</rt_info>
			<input>
				<port id="0" precision="FP16">
					<dim>1</dim>
					<dim>8</dim>
				</port>
			</input>
			<output>
				<port id="1" precision="FP32">
					<dim>1</dim>
					<dim>8</dim>
				</port>
			</output>
		</layer>
		<layer id="284" name="Broadcast_1125" type="Const" version="opset1">
			<data element_type="i32" shape="1" offset="16176" size="4" />
			<output>
				<port id="0" precision="I32">
					<dim>1</dim>
				</port>
			</output>
		</layer>
		<layer id="285" name="ReverseSequence_1128" type="ReverseSequence" version="opset1">
			<data batch_axis="0" seq_axis="1" />
			<input>
				<port id="0" precision="FP32">
					<dim>1</dim>
					<dim>8</dim>
				</port>
				<port id="1" precision="I32">
					<dim>1</dim>
				</port>
			</input>
			<output>
				<port id="2" precision="FP32">
					<dim>1</dim>
					<dim>8</dim>
				</port>
			</output>
		</layer>
		<layer id="286" name="Constant_1129" type="Const" version="opset1">
			<data element_type="i32" shape="1" offset="16180" size="4" />
			<output>
				<port id="0" precision="I32">
					<dim>1</dim>
				</port>
			</output>
		</layer>
		<layer id="287" name="model/ttl_2/sequential_2/einsum_ttl_2/ReverseV2_1" type="Squeeze" version="opset1">
			<input>
				<port id="0" precision="FP32">
					<dim>1</dim>
					<dim>8</dim>
				</port>
				<port id="1" precision="I32">
					<dim>1</dim>
				</port>
			</input>
			<output>
				<port id="2" precision="FP32">
					<dim>8</dim>
				</port>
			</output>
		</layer>
		<layer id="288" name="model/ttl_2/sequential_2/einsum_ttl_2/einsum_3/Einsum" type="Einsum" version="opset7">
			<data equation="abc,c->ab" />
			<input>
				<port id="0" precision="FP32">
					<dim>1</dim>
					<dim>64</dim>
					<dim>8</dim>
				</port>
				<port id="1" precision="FP32">
					<dim>8</dim>
				</port>
			</input>
			<output>
				<port id="2" precision="FP32">
					<dim>1</dim>
					<dim>64</dim>
				</port>
			</output>
		</layer>
		<layer id="289" name="model/ttl_2/sequential_2/einsum_ttl_2/add_1" type="Add" version="opset1">
			<data auto_broadcast="numpy" />
			<input>
				<port id="0" precision="FP32">
					<dim>1</dim>
					<dim>64</dim>
				</port>
				<port id="1" precision="FP32">
					<dim>1</dim>
					<dim>64</dim>
				</port>
			</input>
			<output>
				<port id="2" precision="FP32">
					<dim>1</dim>
					<dim>64</dim>
				</port>
			</output>
		</layer>
		<layer id="290" name="model/ttl_2/sequential_2/einsum_ttl_2/concat" type="Concat" version="opset1">
			<data axis="1" />
			<input>
				<port id="0" precision="FP32">
					<dim>1</dim>
					<dim>64</dim>
				</port>
				<port id="1" precision="FP32">
					<dim>1</dim>
					<dim>64</dim>
				</port>
			</input>
			<output>
				<port id="2" precision="FP32">
					<dim>1</dim>
					<dim>128</dim>
				</port>
			</output>
		</layer>
		<layer id="291" name="model/ttl_2/sequential_2/flatten_2/Const" type="Const" version="opset1">
			<data element_type="i32" shape="2" offset="16224" size="8" />
			<rt_info>
				<attribute name="precise" version="0" />
			</rt_info>
			<output>
				<port id="0" precision="I32">
					<dim>2</dim>
				</port>
			</output>
		</layer>
		<layer id="292" name="model/ttl_2/sequential_2/flatten_2/Reshape" type="Reshape" version="opset1">
			<data special_zero="false" />
			<input>
				<port id="0" precision="FP32">
					<dim>1</dim>
					<dim>128</dim>
				</port>
				<port id="1" precision="I32">
					<dim>2</dim>
				</port>
			</input>
			<output>
				<port id="2" precision="FP32">
					<dim>1</dim>
					<dim>128</dim>
				</port>
			</output>
		</layer>
		<layer id="293" name="model/ttl_2/sequential_2/tt_dense_2/t3f_matmul/Reshape/shape" type="Const" version="opset1">
			<data element_type="i32" shape="3" offset="16232" size="12" />
			<rt_info>
				<attribute name="precise" version="0" />
			</rt_info>
			<output>
				<port id="0" precision="I32">
					<dim>3</dim>
				</port>
			</output>
		</layer>
		<layer id="294" name="model/ttl_2/sequential_2/tt_dense_2/t3f_matmul/Reshape" type="Reshape" version="opset1">
			<data special_zero="false" />
			<input>
				<port id="0" precision="FP32">
					<dim>1</dim>
					<dim>128</dim>
				</port>
				<port id="1" precision="I32">
					<dim>3</dim>
				</port>
			</input>
			<output>
				<port id="2" precision="FP32">
					<dim>64</dim>
					<dim>2</dim>
					<dim>1</dim>
				</port>
			</output>
		</layer>
		<layer id="295" name="model/ttl_2/sequential_2/tt_dense_2/t3f_matmul/einsum/Einsum" type="Einsum" version="opset7">
			<data equation="aijb,rjb->ira" />
			<input>
				<port id="0" precision="FP32">
					<dim>7</dim>
					<dim>4</dim>
					<dim>2</dim>
					<dim>1</dim>
				</port>
				<port id="1" precision="FP32">
					<dim>64</dim>
					<dim>2</dim>
					<dim>1</dim>
				</port>
			</input>
			<output>
				<port id="2" precision="FP32">
					<dim>4</dim>
					<dim>64</dim>
					<dim>7</dim>
				</port>
			</output>
		</layer>
		<layer id="296" name="model/ttl_2/sequential_2/tt_dense_2/t3f_matmul/Reshape_1/shape" type="Const" version="opset1">
			<data element_type="i32" shape="3" offset="16244" size="12" />
			<rt_info>
				<attribute name="precise" version="0" />
			</rt_info>
			<output>
				<port id="0" precision="I32">
					<dim>3</dim>
				</port>
			</output>
		</layer>
		<layer id="297" name="model/ttl_2/sequential_2/tt_dense_2/t3f_matmul/Reshape_1" type="Reshape" version="opset1">
			<data special_zero="false" />
			<input>
				<port id="0" precision="FP32">
					<dim>4</dim>
					<dim>64</dim>
					<dim>7</dim>
				</port>
				<port id="1" precision="I32">
					<dim>3</dim>
				</port>
			</input>
			<output>
				<port id="2" precision="FP32">
					<dim>128</dim>
					<dim>2</dim>
					<dim>7</dim>
				</port>
			</output>
		</layer>
		<layer id="298" name="model/ttl_2/sequential_2/tt_dense_2/t3f_matmul/einsum_1/Einsum" type="Einsum" version="opset7">
			<data equation="aijb,rjb->ira" />
			<input>
				<port id="0" precision="FP32">
					<dim>16</dim>
					<dim>4</dim>
					<dim>2</dim>
					<dim>7</dim>
				</port>
				<port id="1" precision="FP32">
					<dim>128</dim>
					<dim>2</dim>
					<dim>7</dim>
				</port>
			</input>
			<output>
				<port id="2" precision="FP32">
					<dim>4</dim>
					<dim>128</dim>
					<dim>16</dim>
				</port>
			</output>
		</layer>
		<layer id="299" name="model/ttl_2/sequential_2/tt_dense_2/t3f_matmul/Reshape_2/shape" type="Const" version="opset1">
			<data element_type="i32" shape="3" offset="16256" size="12" />
			<rt_info>
				<attribute name="precise" version="0" />
			</rt_info>
			<output>
				<port id="0" precision="I32">
					<dim>3</dim>
				</port>
			</output>
		</layer>
		<layer id="300" name="model/ttl_2/sequential_2/tt_dense_2/t3f_matmul/Reshape_2" type="Reshape" version="opset1">
			<data special_zero="false" />
			<input>
				<port id="0" precision="FP32">
					<dim>4</dim>
					<dim>128</dim>
					<dim>16</dim>
				</port>
				<port id="1" precision="I32">
					<dim>3</dim>
				</port>
			</input>
			<output>
				<port id="2" precision="FP32">
					<dim>256</dim>
					<dim>2</dim>
					<dim>16</dim>
				</port>
			</output>
		</layer>
		<layer id="301" name="model/ttl_2/sequential_2/tt_dense_2/t3f_matmul/einsum_2/Einsum" type="Einsum" version="opset7">
			<data equation="aijb,rjb->ira" />
			<input>
				<port id="0" precision="FP32">
					<dim>16</dim>
					<dim>4</dim>
					<dim>2</dim>
					<dim>16</dim>
				</port>
				<port id="1" precision="FP32">
					<dim>256</dim>
					<dim>2</dim>
					<dim>16</dim>
				</port>
			</input>
			<output>
				<port id="2" precision="FP32">
					<dim>4</dim>
					<dim>256</dim>
					<dim>16</dim>
				</port>
			</output>
		</layer>
		<layer id="302" name="model/ttl_2/sequential_2/tt_dense_2/t3f_matmul/Reshape_3/shape" type="Const" version="opset1">
			<data element_type="i32" shape="3" offset="16256" size="12" />
			<rt_info>
				<attribute name="precise" version="0" />
			</rt_info>
			<output>
				<port id="0" precision="I32">
					<dim>3</dim>
				</port>
			</output>
		</layer>
		<layer id="303" name="model/ttl_2/sequential_2/tt_dense_2/t3f_matmul/Reshape_3" type="Reshape" version="opset1">
			<data special_zero="false" />
			<input>
				<port id="0" precision="FP32">
					<dim>4</dim>
					<dim>256</dim>
					<dim>16</dim>
				</port>
				<port id="1" precision="I32">
					<dim>3</dim>
				</port>
			</input>
			<output>
				<port id="2" precision="FP32">
					<dim>512</dim>
					<dim>2</dim>
					<dim>16</dim>
				</port>
			</output>
		</layer>
		<layer id="304" name="model/ttl_2/sequential_2/tt_dense_2/t3f_matmul/einsum_3/Einsum" type="Einsum" version="opset7">
			<data equation="aijb,rjb->ira" />
			<input>
				<port id="0" precision="FP32">
					<dim>16</dim>
					<dim>4</dim>
					<dim>2</dim>
					<dim>16</dim>
				</port>
				<port id="1" precision="FP32">
					<dim>512</dim>
					<dim>2</dim>
					<dim>16</dim>
				</port>
			</input>
			<output>
				<port id="2" precision="FP32">
					<dim>4</dim>
					<dim>512</dim>
					<dim>16</dim>
				</port>
			</output>
		</layer>
		<layer id="305" name="model/ttl_2/sequential_2/tt_dense_2/t3f_matmul/Reshape_4/shape" type="Const" version="opset1">
			<data element_type="i32" shape="3" offset="16256" size="12" />
			<rt_info>
				<attribute name="precise" version="0" />
			</rt_info>
			<output>
				<port id="0" precision="I32">
					<dim>3</dim>
				</port>
			</output>
		</layer>
		<layer id="306" name="model/ttl_2/sequential_2/tt_dense_2/t3f_matmul/Reshape_4" type="Reshape" version="opset1">
			<data special_zero="false" />
			<input>
				<port id="0" precision="FP32">
					<dim>4</dim>
					<dim>512</dim>
					<dim>16</dim>
				</port>
				<port id="1" precision="I32">
					<dim>3</dim>
				</port>
			</input>
			<output>
				<port id="2" precision="FP32">
					<dim>1024</dim>
					<dim>2</dim>
					<dim>16</dim>
				</port>
			</output>
		</layer>
		<layer id="307" name="model/ttl_2/sequential_2/tt_dense_2/t3f_matmul/einsum_4/Einsum" type="Einsum" version="opset7">
			<data equation="aijb,rjb->ira" />
			<input>
				<port id="0" precision="FP32">
					<dim>16</dim>
					<dim>4</dim>
					<dim>2</dim>
					<dim>16</dim>
				</port>
				<port id="1" precision="FP32">
					<dim>1024</dim>
					<dim>2</dim>
					<dim>16</dim>
				</port>
			</input>
			<output>
				<port id="2" precision="FP32">
					<dim>4</dim>
					<dim>1024</dim>
					<dim>16</dim>
				</port>
			</output>
		</layer>
		<layer id="308" name="model/ttl_2/sequential_2/tt_dense_2/t3f_matmul/Reshape_5/shape" type="Const" version="opset1">
			<data element_type="i32" shape="3" offset="16256" size="12" />
			<rt_info>
				<attribute name="precise" version="0" />
			</rt_info>
			<output>
				<port id="0" precision="I32">
					<dim>3</dim>
				</port>
			</output>
		</layer>
		<layer id="309" name="model/ttl_2/sequential_2/tt_dense_2/t3f_matmul/Reshape_5" type="Reshape" version="opset1">
			<data special_zero="false" />
			<input>
				<port id="0" precision="FP32">
					<dim>4</dim>
					<dim>1024</dim>
					<dim>16</dim>
				</port>
				<port id="1" precision="I32">
					<dim>3</dim>
				</port>
			</input>
			<output>
				<port id="2" precision="FP32">
					<dim>2048</dim>
					<dim>2</dim>
					<dim>16</dim>
				</port>
			</output>
		</layer>
		<layer id="310" name="model/ttl_2/sequential_2/tt_dense_2/t3f_matmul/einsum_5/Einsum" type="Einsum" version="opset7">
			<data equation="aijb,rjb->ira" />
			<input>
				<port id="0" precision="FP32">
					<dim>7</dim>
					<dim>4</dim>
					<dim>2</dim>
					<dim>16</dim>
				</port>
				<port id="1" precision="FP32">
					<dim>2048</dim>
					<dim>2</dim>
					<dim>16</dim>
				</port>
			</input>
			<output>
				<port id="2" precision="FP32">
					<dim>4</dim>
					<dim>2048</dim>
					<dim>7</dim>
				</port>
			</output>
		</layer>
		<layer id="311" name="model/ttl_2/sequential_2/tt_dense_2/t3f_matmul/Reshape_6/shape" type="Const" version="opset1">
			<data element_type="i32" shape="3" offset="16244" size="12" />
			<rt_info>
				<attribute name="precise" version="0" />
			</rt_info>
			<output>
				<port id="0" precision="I32">
					<dim>3</dim>
				</port>
			</output>
		</layer>
		<layer id="312" name="model/ttl_2/sequential_2/tt_dense_2/t3f_matmul/Reshape_6" type="Reshape" version="opset1">
			<data special_zero="false" />
			<input>
				<port id="0" precision="FP32">
					<dim>4</dim>
					<dim>2048</dim>
					<dim>7</dim>
				</port>
				<port id="1" precision="I32">
					<dim>3</dim>
				</port>
			</input>
			<output>
				<port id="2" precision="FP32">
					<dim>4096</dim>
					<dim>2</dim>
					<dim>7</dim>
				</port>
			</output>
		</layer>
		<layer id="313" name="model/ttl_2/sequential_2/tt_dense_2/t3f_matmul/einsum_6/Einsum" type="Einsum" version="opset7">
			<data equation="aijb,rjb->ira" />
			<input>
				<port id="0" precision="FP32">
					<dim>1</dim>
					<dim>4</dim>
					<dim>2</dim>
					<dim>7</dim>
				</port>
				<port id="1" precision="FP32">
					<dim>4096</dim>
					<dim>2</dim>
					<dim>7</dim>
				</port>
			</input>
			<output>
				<port id="2" precision="FP32">
					<dim>4</dim>
					<dim>4096</dim>
					<dim>1</dim>
				</port>
			</output>
		</layer>
		<layer id="314" name="model/ttl_2/sequential_2/reshape_2/Reshape/shape" type="Const" version="opset1">
			<data element_type="i32" shape="3" offset="16268" size="12" />
			<rt_info>
				<attribute name="precise" version="0" />
			</rt_info>
			<output>
				<port id="0" precision="I32">
					<dim>3</dim>
				</port>
			</output>
		</layer>
		<layer id="315" name="model/ttl_2/sequential_2/reshape_2/Reshape" type="Reshape" version="opset1">
			<data special_zero="false" />
			<input>
				<port id="0" precision="FP32">
					<dim>4</dim>
					<dim>4096</dim>
					<dim>1</dim>
				</port>
				<port id="1" precision="I32">
					<dim>3</dim>
				</port>
			</input>
			<output>
				<port id="2" precision="FP32">
					<dim>1</dim>
					<dim>256</dim>
					<dim>64</dim>
				</port>
			</output>
		</layer>
		<layer id="316" name="model/tf.__operators__.getitem_3/strided_slice/stack" type="Const" version="opset1">
			<data element_type="i32" shape="2" offset="46344" size="8" />
			<rt_info>
				<attribute name="precise" version="0" />
			</rt_info>
			<output>
				<port id="0" precision="I32">
					<dim>2</dim>
				</port>
			</output>
		</layer>
		<layer id="317" name="model/tf.__operators__.getitem_3/strided_slice/stack_1" type="Const" version="opset1">
			<data element_type="i32" shape="2" offset="62480" size="8" />
			<rt_info>
				<attribute name="precise" version="0" />
			</rt_info>
			<output>
				<port id="0" precision="I32">
					<dim>2</dim>
				</port>
			</output>
		</layer>
		<layer id="318" name="model/tf.__operators__.getitem_3/strided_slice/stack_2" type="Const" version="opset1">
			<data element_type="i32" shape="2" offset="30208" size="8" />
			<rt_info>
				<attribute name="precise" version="0" />
			</rt_info>
			<output>
				<port id="0" precision="I32">
					<dim>2</dim>
				</port>
			</output>
		</layer>
		<layer id="319" name="model/tf.__operators__.getitem_3/strided_slice" type="StridedSlice" version="opset1">
			<data begin_mask="0, 0" end_mask="0, 0" new_axis_mask="0, 0" shrink_axis_mask="0, 1" ellipsis_mask="1, 0" />
			<input>
				<port id="0" precision="FP32">
					<dim>1</dim>
					<dim>1</dim>
					<dim>1</dim>
					<dim>10</dim>
				</port>
				<port id="1" precision="I32">
					<dim>2</dim>
				</port>
				<port id="2" precision="I32">
					<dim>2</dim>
				</port>
				<port id="3" precision="I32">
					<dim>2</dim>
				</port>
			</input>
			<output>
				<port id="4" precision="FP32">
					<dim>1</dim>
					<dim>1</dim>
					<dim>1</dim>
				</port>
			</output>
		</layer>
		<layer id="320" name="model/multiply_2/mul" type="Multiply" version="opset1">
			<data auto_broadcast="numpy" />
			<input>
				<port id="0" precision="FP32">
					<dim>1</dim>
					<dim>256</dim>
					<dim>64</dim>
				</port>
				<port id="1" precision="FP32">
					<dim>1</dim>
					<dim>1</dim>
					<dim>1</dim>
				</port>
			</input>
			<output>
				<port id="2" precision="FP32">
					<dim>1</dim>
					<dim>256</dim>
					<dim>64</dim>
				</port>
			</output>
		</layer>
		<layer id="321" name="model/add/add_1" type="Add" version="opset1">
			<data auto_broadcast="numpy" />
			<input>
				<port id="0" precision="FP32">
					<dim>1</dim>
					<dim>256</dim>
					<dim>64</dim>
				</port>
				<port id="1" precision="FP32">
					<dim>1</dim>
					<dim>256</dim>
					<dim>64</dim>
				</port>
			</input>
			<output>
				<port id="2" precision="FP32">
					<dim>1</dim>
					<dim>256</dim>
					<dim>64</dim>
				</port>
			</output>
		</layer>
		<layer id="322" name="model/ttl_3/sequential_3/tt_dense_3/t3f_matmul/t3f_transpose/transpose_compressed" type="Const" version="opset1">
			<data element_type="f16" shape="1, 4, 2, 7" offset="62488" size="112" />
			<output>
				<port id="0" precision="FP16">
					<dim>1</dim>
					<dim>4</dim>
					<dim>2</dim>
					<dim>7</dim>
				</port>
			</output>
		</layer>
		<layer id="323" name="model/ttl_3/sequential_3/tt_dense_3/t3f_matmul/t3f_transpose/transpose" type="Convert" version="opset1">
			<data destination_type="f32" />
			<rt_info>
				<attribute name="decompression" version="0" />
			</rt_info>
			<input>
				<port id="0" precision="FP16">
					<dim>1</dim>
					<dim>4</dim>
					<dim>2</dim>
					<dim>7</dim>
				</port>
			</input>
			<output>
				<port id="1" precision="FP32">
					<dim>1</dim>
					<dim>4</dim>
					<dim>2</dim>
					<dim>7</dim>
				</port>
			</output>
		</layer>
		<layer id="324" name="model/ttl_3/sequential_3/tt_dense_3/t3f_matmul/t3f_transpose/transpose_1_compressed" type="Const" version="opset1">
			<data element_type="f16" shape="7, 4, 2, 16" offset="62600" size="1792" />
			<output>
				<port id="0" precision="FP16">
					<dim>7</dim>
					<dim>4</dim>
					<dim>2</dim>
					<dim>16</dim>
				</port>
			</output>
		</layer>
		<layer id="325" name="model/ttl_3/sequential_3/tt_dense_3/t3f_matmul/t3f_transpose/transpose_1" type="Convert" version="opset1">
			<data destination_type="f32" />
			<rt_info>
				<attribute name="decompression" version="0" />
			</rt_info>
			<input>
				<port id="0" precision="FP16">
					<dim>7</dim>
					<dim>4</dim>
					<dim>2</dim>
					<dim>16</dim>
				</port>
			</input>
			<output>
				<port id="1" precision="FP32">
					<dim>7</dim>
					<dim>4</dim>
					<dim>2</dim>
					<dim>16</dim>
				</port>
			</output>
		</layer>
		<layer id="326" name="model/ttl_3/sequential_3/tt_dense_3/t3f_matmul/t3f_transpose/transpose_2_compressed" type="Const" version="opset1">
			<data element_type="f16" shape="16, 4, 2, 16" offset="64392" size="4096" />
			<output>
				<port id="0" precision="FP16">
					<dim>16</dim>
					<dim>4</dim>
					<dim>2</dim>
					<dim>16</dim>
				</port>
			</output>
		</layer>
		<layer id="327" name="model/ttl_3/sequential_3/tt_dense_3/t3f_matmul/t3f_transpose/transpose_2" type="Convert" version="opset1">
			<data destination_type="f32" />
			<rt_info>
				<attribute name="decompression" version="0" />
			</rt_info>
			<input>
				<port id="0" precision="FP16">
					<dim>16</dim>
					<dim>4</dim>
					<dim>2</dim>
					<dim>16</dim>
				</port>
			</input>
			<output>
				<port id="1" precision="FP32">
					<dim>16</dim>
					<dim>4</dim>
					<dim>2</dim>
					<dim>16</dim>
				</port>
			</output>
		</layer>
		<layer id="328" name="model/ttl_3/sequential_3/tt_dense_3/t3f_matmul/t3f_transpose/transpose_3_compressed" type="Const" version="opset1">
			<data element_type="f16" shape="16, 4, 2, 16" offset="68488" size="4096" />
			<output>
				<port id="0" precision="FP16">
					<dim>16</dim>
					<dim>4</dim>
					<dim>2</dim>
					<dim>16</dim>
				</port>
			</output>
		</layer>
		<layer id="329" name="model/ttl_3/sequential_3/tt_dense_3/t3f_matmul/t3f_transpose/transpose_3" type="Convert" version="opset1">
			<data destination_type="f32" />
			<rt_info>
				<attribute name="decompression" version="0" />
			</rt_info>
			<input>
				<port id="0" precision="FP16">
					<dim>16</dim>
					<dim>4</dim>
					<dim>2</dim>
					<dim>16</dim>
				</port>
			</input>
			<output>
				<port id="1" precision="FP32">
					<dim>16</dim>
					<dim>4</dim>
					<dim>2</dim>
					<dim>16</dim>
				</port>
			</output>
		</layer>
		<layer id="330" name="model/ttl_3/sequential_3/tt_dense_3/t3f_matmul/t3f_transpose/transpose_4_compressed" type="Const" version="opset1">
			<data element_type="f16" shape="16, 4, 2, 16" offset="72584" size="4096" />
			<output>
				<port id="0" precision="FP16">
					<dim>16</dim>
					<dim>4</dim>
					<dim>2</dim>
					<dim>16</dim>
				</port>
			</output>
		</layer>
		<layer id="331" name="model/ttl_3/sequential_3/tt_dense_3/t3f_matmul/t3f_transpose/transpose_4" type="Convert" version="opset1">
			<data destination_type="f32" />
			<rt_info>
				<attribute name="decompression" version="0" />
			</rt_info>
			<input>
				<port id="0" precision="FP16">
					<dim>16</dim>
					<dim>4</dim>
					<dim>2</dim>
					<dim>16</dim>
				</port>
			</input>
			<output>
				<port id="1" precision="FP32">
					<dim>16</dim>
					<dim>4</dim>
					<dim>2</dim>
					<dim>16</dim>
				</port>
			</output>
		</layer>
		<layer id="332" name="model/ttl_3/sequential_3/tt_dense_3/t3f_matmul/t3f_transpose/transpose_5_compressed" type="Const" version="opset1">
			<data element_type="f16" shape="16, 4, 2, 7" offset="76680" size="1792" />
			<output>
				<port id="0" precision="FP16">
					<dim>16</dim>
					<dim>4</dim>
					<dim>2</dim>
					<dim>7</dim>
				</port>
			</output>
		</layer>
		<layer id="333" name="model/ttl_3/sequential_3/tt_dense_3/t3f_matmul/t3f_transpose/transpose_5" type="Convert" version="opset1">
			<data destination_type="f32" />
			<rt_info>
				<attribute name="decompression" version="0" />
			</rt_info>
			<input>
				<port id="0" precision="FP16">
					<dim>16</dim>
					<dim>4</dim>
					<dim>2</dim>
					<dim>7</dim>
				</port>
			</input>
			<output>
				<port id="1" precision="FP32">
					<dim>16</dim>
					<dim>4</dim>
					<dim>2</dim>
					<dim>7</dim>
				</port>
			</output>
		</layer>
		<layer id="334" name="model/ttl_3/sequential_3/tt_dense_3/t3f_matmul/t3f_transpose/transpose_6_compressed" type="Const" version="opset1">
			<data element_type="f16" shape="7, 4, 2, 1" offset="78472" size="112" />
			<output>
				<port id="0" precision="FP16">
					<dim>7</dim>
					<dim>4</dim>
					<dim>2</dim>
					<dim>1</dim>
				</port>
			</output>
		</layer>
		<layer id="335" name="model/ttl_3/sequential_3/tt_dense_3/t3f_matmul/t3f_transpose/transpose_6" type="Convert" version="opset1">
			<data destination_type="f32" />
			<rt_info>
				<attribute name="decompression" version="0" />
			</rt_info>
			<input>
				<port id="0" precision="FP16">
					<dim>7</dim>
					<dim>4</dim>
					<dim>2</dim>
					<dim>1</dim>
				</port>
			</input>
			<output>
				<port id="1" precision="FP32">
					<dim>7</dim>
					<dim>4</dim>
					<dim>2</dim>
					<dim>1</dim>
				</port>
			</output>
		</layer>
		<layer id="336" name="model/ttl_3/sequential_3/einsum_ttl_3/strided_slice/stack" type="Const" version="opset1">
			<data element_type="i32" shape="3" offset="16100" size="12" />
			<rt_info>
				<attribute name="precise" version="0" />
			</rt_info>
			<output>
				<port id="0" precision="I32">
					<dim>3</dim>
				</port>
			</output>
		</layer>
		<layer id="337" name="model/ttl_3/sequential_3/einsum_ttl_3/strided_slice/stack_1" type="Const" version="opset1">
			<data element_type="i32" shape="3" offset="16112" size="12" />
			<rt_info>
				<attribute name="precise" version="0" />
			</rt_info>
			<output>
				<port id="0" precision="I32">
					<dim>3</dim>
				</port>
			</output>
		</layer>
		<layer id="338" name="model/ttl_3/sequential_3/einsum_ttl_3/strided_slice/stack_2" type="Const" version="opset1">
			<data element_type="i32" shape="3" offset="16124" size="12" />
			<rt_info>
				<attribute name="precise" version="0" />
			</rt_info>
			<output>
				<port id="0" precision="I32">
					<dim>3</dim>
				</port>
			</output>
		</layer>
		<layer id="339" name="model/ttl_3/sequential_3/einsum_ttl_3/strided_slice" type="StridedSlice" version="opset1">
			<data begin_mask="1, 1, 1" end_mask="1, 0, 0" new_axis_mask="0, 0, 0" shrink_axis_mask="0, 0, 0" ellipsis_mask="0, 0, 0" />
			<input>
				<port id="0" precision="FP32">
					<dim>1</dim>
					<dim>128</dim>
					<dim>16</dim>
				</port>
				<port id="1" precision="I32">
					<dim>3</dim>
				</port>
				<port id="2" precision="I32">
					<dim>3</dim>
				</port>
				<port id="3" precision="I32">
					<dim>3</dim>
				</port>
			</input>
			<output>
				<port id="4" precision="FP32">
					<dim>1</dim>
					<dim>64</dim>
					<dim>8</dim>
				</port>
			</output>
		</layer>
		<layer id="340" name="model/ttl_3/sequential_3/einsum_ttl_3/strided_slice_1_compressed" type="Const" version="opset1">
			<data element_type="f16" shape="8" offset="78584" size="16" />
			<output>
				<port id="0" precision="FP16">
					<dim>8</dim>
				</port>
			</output>
		</layer>
		<layer id="341" name="model/ttl_3/sequential_3/einsum_ttl_3/strided_slice_1" type="Convert" version="opset1">
			<data destination_type="f32" />
			<rt_info>
				<attribute name="decompression" version="0" />
			</rt_info>
			<input>
				<port id="0" precision="FP16">
					<dim>8</dim>
				</port>
			</input>
			<output>
				<port id="1" precision="FP32">
					<dim>8</dim>
				</port>
			</output>
		</layer>
		<layer id="342" name="model/ttl_3/sequential_3/einsum_ttl_3/einsum/Einsum" type="Einsum" version="opset7">
			<data equation="abc,c->ab" />
			<input>
				<port id="0" precision="FP32">
					<dim>1</dim>
					<dim>64</dim>
					<dim>8</dim>
				</port>
				<port id="1" precision="FP32">
					<dim>8</dim>
				</port>
			</input>
			<output>
				<port id="2" precision="FP32">
					<dim>1</dim>
					<dim>64</dim>
				</port>
			</output>
		</layer>
		<layer id="343" name="model/ttl_3/sequential_3/einsum_ttl_3/strided_slice_2/stack" type="Const" version="opset1">
			<data element_type="i32" shape="3" offset="16152" size="12" />
			<rt_info>
				<attribute name="precise" version="0" />
			</rt_info>
			<output>
				<port id="0" precision="I32">
					<dim>3</dim>
				</port>
			</output>
		</layer>
		<layer id="344" name="model/ttl_3/sequential_3/einsum_ttl_3/strided_slice_2/stack_1" type="Const" version="opset1">
			<data element_type="i32" shape="3" offset="16164" size="12" />
			<rt_info>
				<attribute name="precise" version="0" />
			</rt_info>
			<output>
				<port id="0" precision="I32">
					<dim>3</dim>
				</port>
			</output>
		</layer>
		<layer id="345" name="model/ttl_3/sequential_3/einsum_ttl_3/strided_slice_2/stack_2" type="Const" version="opset1">
			<data element_type="i32" shape="3" offset="16124" size="12" />
			<rt_info>
				<attribute name="precise" version="0" />
			</rt_info>
			<output>
				<port id="0" precision="I32">
					<dim>3</dim>
				</port>
			</output>
		</layer>
		<layer id="346" name="model/ttl_3/sequential_3/einsum_ttl_3/strided_slice_2" type="StridedSlice" version="opset1">
			<data begin_mask="1, 1" end_mask="1, 0" new_axis_mask="0, 0" shrink_axis_mask="0, 0" ellipsis_mask="0, 0" />
			<input>
				<port id="0" precision="FP32">
					<dim>1</dim>
					<dim>128</dim>
					<dim>16</dim>
				</port>
				<port id="1" precision="I32">
					<dim>3</dim>
				</port>
				<port id="2" precision="I32">
					<dim>3</dim>
				</port>
				<port id="3" precision="I32">
					<dim>3</dim>
				</port>
			</input>
			<output>
				<port id="4" precision="FP32">
					<dim>1</dim>
					<dim>64</dim>
					<dim>8</dim>
				</port>
			</output>
		</layer>
		<layer id="347" name="Unsqueeze_1019_compressed" type="Const" version="opset1">
			<data element_type="f16" shape="1, 8" offset="78584" size="16" />
			<output>
				<port id="0" precision="FP16">
					<dim>1</dim>
					<dim>8</dim>
				</port>
			</output>
		</layer>
…
		<edge from-layer="201" from-port="2" to-layer="203" to-port="0" />
		<edge from-layer="202" from-port="0" to-layer="203" to-port="1" />
		<edge from-layer="203" from-port="2" to-layer="204" to-port="1" />
		<edge from-layer="204" from-port="2" to-layer="205" to-port="1" />
		<edge from-layer="205" from-port="2" to-layer="206" to-port="1" />
		<edge from-layer="206" from-port="2" to-layer="208" to-port="0" />
		<edge from-layer="207" from-port="0" to-layer="208" to-port="1" />
		<edge from-layer="208" from-port="2" to-layer="210" to-port="0" />
		<edge from-layer="209" from-port="0" to-layer="210" to-port="1" />
		<edge from-layer="210" from-port="2" to-layer="211" to-port="1" />
		<edge from-layer="211" from-port="2" to-layer="213" to-port="0" />
		<edge from-layer="212" from-port="0" to-layer="213" to-port="1" />
		<edge from-layer="213" from-port="2" to-layer="214" to-port="1" />
		<edge from-layer="214" from-port="2" to-layer="216" to-port="0" />
		<edge from-layer="215" from-port="0" to-layer="216" to-port="1" />
		<edge from-layer="216" from-port="2" to-layer="217" to-port="1" />
		<edge from-layer="217" from-port="2" to-layer="219" to-port="0" />
		<edge from-layer="218" from-port="0" to-layer="219" to-port="1" />
		<edge from-layer="219" from-port="2" to-layer="220" to-port="1" />
		<edge from-layer="220" from-port="2" to-layer="222" to-port="0" />
		<edge from-layer="221" from-port="0" to-layer="222" to-port="1" />
		<edge from-layer="222" from-port="2" to-layer="223" to-port="1" />
		<edge from-layer="223" from-port="2" to-layer="225" to-port="0" />
		<edge from-layer="224" from-port="0" to-layer="225" to-port="1" />
		<edge from-layer="225" from-port="2" to-layer="226" to-port="1" />
		<edge from-layer="226" from-port="2" to-layer="228" to-port="0" />
		<edge from-layer="227" from-port="0" to-layer="228" to-port="1" />
		<edge from-layer="228" from-port="2" to-layer="229" to-port="1" />
		<edge from-layer="229" from-port="2" to-layer="231" to-port="0" />
		<edge from-layer="230" from-port="0" to-layer="231" to-port="1" />
		<edge from-layer="231" from-port="2" to-layer="236" to-port="0" />
		<edge from-layer="232" from-port="0" to-layer="235" to-port="1" />
		<edge from-layer="233" from-port="0" to-layer="235" to-port="2" />
		<edge from-layer="234" from-port="0" to-layer="235" to-port="3" />
		<edge from-layer="235" from-port="4" to-layer="236" to-port="1" />
		<edge from-layer="236" from-port="2" to-layer="237" to-port="1" />
		<edge from-layer="237" from-port="2" to-layer="321" to-port="0" />
		<edge from-layer="238" from-port="0" to-layer="239" to-port="0" />
		<edge from-layer="239" from-port="1" to-layer="313" to-port="0" />
		<edge from-layer="240" from-port="0" to-layer="241" to-port="0" />
		<edge from-layer="241" from-port="1" to-layer="310" to-port="0" />
		<edge from-layer="242" from-port="0" to-layer="243" to-port="0" />
		<edge from-layer="243" from-port="1" to-layer="307" to-port="0" />
		<edge from-layer="244" from-port="0" to-layer="245" to-port="0" />
		<edge from-layer="245" from-port="1" to-layer="304" to-port="0" />
		<edge from-layer="246" from-port="0" to-layer="247" to-port="0" />
		<edge from-layer="247" from-port="1" to-layer="301" to-port="0" />
		<edge from-layer="248" from-port="0" to-layer="249" to-port="0" />
		<edge from-layer="249" from-port="1" to-layer="298" to-port="0" />
		<edge from-layer="250" from-port="0" to-layer="251" to-port="0" />
		<edge from-layer="251" from-port="1" to-layer="295" to-port="0" />
		<edge from-layer="252" from-port="0" to-layer="255" to-port="1" />
		<edge from-layer="253" from-port="0" to-layer="255" to-port="2" />
		<edge from-layer="254" from-port="0" to-layer="255" to-port="3" />
		<edge from-layer="255" from-port="4" to-layer="258" to-port="0" />
		<edge from-layer="256" from-port="0" to-layer="257" to-port="0" />
		<edge from-layer="257" from-port="1" to-layer="258" to-port="1" />
		<edge from-layer="258" from-port="2" to-layer="270" to-port="0" />
		<edge from-layer="259" from-port="0" to-layer="262" to-port="1" />
		<edge from-layer="260" from-port="0" to-layer="262" to-port="2" />
		<edge from-layer="261" from-port="0" to-layer="262" to-port="3" />
		<edge from-layer="262" from-port="4" to-layer="269" to-port="0" />
		<edge from-layer="263" from-port="0" to-layer="264" to-port="0" />
		<edge from-layer="264" from-port="1" to-layer="266" to-port="0" />
		<edge from-layer="265" from-port="0" to-layer="266" to-port="1" />
		<edge from-layer="266" from-port="2" to-layer="268" to-port="0" />
		<edge from-layer="267" from-port="0" to-layer="268" to-port="1" />
		<edge from-layer="268" from-port="2" to-layer="269" to-port="1" />
		<edge from-layer="269" from-port="2" to-layer="270" to-port="1" />
		<edge from-layer="270" from-port="2" to-layer="290" to-port="0" />
		<edge from-layer="271" from-port="0" to-layer="274" to-port="1" />
		<edge from-layer="272" from-port="0" to-layer="274" to-port="2" />
		<edge from-layer="273" from-port="0" to-layer="274" to-port="3" />
		<edge from-layer="274" from-port="4" to-layer="277" to-port="0" />
		<edge from-layer="275" from-port="0" to-layer="276" to-port="0" />
		<edge from-layer="276" from-port="1" to-layer="277" to-port="1" />
		<edge from-layer="277" from-port="2" to-layer="289" to-port="0" />
		<edge from-layer="278" from-port="0" to-layer="281" to-port="1" />
		<edge from-layer="279" from-port="0" to-layer="281" to-port="2" />
		<edge from-layer="280" from-port="0" to-layer="281" to-port="3" />
		<edge from-layer="281" from-port="4" to-layer="288" to-port="0" />
		<edge from-layer="282" from-port="0" to-layer="283" to-port="0" />
		<edge from-layer="283" from-port="1" to-layer="285" to-port="0" />
		<edge from-layer="284" from-port="0" to-layer="285" to-port="1" />
		<edge from-layer="285" from-port="2" to-layer="287" to-port="0" />
		<edge from-layer="286" from-port="0" to-layer="287" to-port="1" />
		<edge from-layer="287" from-port="2" to-layer="288" to-port="1" />
		<edge from-layer="288" from-port="2" to-layer="289" to-port="1" />
		<edge from-layer="289" from-port="2" to-layer="290" to-port="1" />
		<edge from-layer="290" from-port="2" to-layer="292" to-port="0" />
		<edge from-layer="291" from-port="0" to-layer="292" to-port="1" />
		<edge from-layer="292" from-port="2" to-layer="294" to-port="0" />
		<edge from-layer="293" from-port="0" to-layer="294" to-port="1" />
		<edge from-layer="294" from-port="2" to-layer="295" to-port="1" />
		<edge from-layer="295" from-port="2" to-layer="297" to-port="0" />
		<edge from-layer="296" from-port="0" to-layer="297" to-port="1" />
		<edge from-layer="297" from-port="2" to-layer="298" to-port="1" />
		<edge from-layer="298" from-port="2" to-layer="300" to-port="0" />
		<edge from-layer="299" from-port="0" to-layer="300" to-port="1" />
		<edge from-layer="300" from-port="2" to-layer="301" to-port="1" />
		<edge from-layer="301" from-port="2" to-layer="303" to-port="0" />
		<edge from-layer="302" from-port="0" to-layer="303" to-port="1" />
		<edge from-layer="303" from-port="2" to-layer="304" to-port="1" />
		<edge from-layer="304" from-port="2" to-layer="306" to-port="0" />
		<edge from-layer="305" from-port="0" to-layer="306" to-port="1" />
		<edge from-layer="306" from-port="2" to-layer="307" to-port="1" />
		<edge from-layer="307" from-port="2" to-layer="309" to-port="0" />
		<edge from-layer="308" from-port="0" to-layer="309" to-port="1" />
		<edge from-layer="309" from-port="2" to-layer="310" to-port="1" />
		<edge from-layer="310" from-port="2" to-layer="312" to-port="0" />
		<edge from-layer="311" from-port="0" to-layer="312" to-port="1" />
		<edge from-layer="312" from-port="2" to-layer="313" to-port="1" />
		<edge from-layer="313" from-port="2" to-layer="315" to-port="0" />
		<edge from-layer="314" from-port="0" to-layer="315" to-port="1" />
		<edge from-layer="315" from-port="2" to-layer="320" to-port="0" />
		<edge from-layer="316" from-port="0" to-layer="319" to-port="1" />
		<edge from-layer="317" from-port="0" to-layer="319" to-port="2" />
		<edge from-layer="318" from-port="0" to-layer="319" to-port="3" />
		<edge from-layer="319" from-port="4" to-layer="320" to-port="1" />
		<edge from-layer="320" from-port="2" to-layer="321" to-port="1" />
		<edge from-layer="321" from-port="2" to-layer="405" to-port="0" />
		<edge from-layer="322" from-port="0" to-layer="323" to-port="0" />
		<edge from-layer="323" from-port="1" to-layer="397" to-port="0" />
		<edge from-layer="324" from-port="0" to-layer="325" to-port="0" />
		<edge from-layer="325" from-port="1" to-layer="394" to-port="0" />
		<edge from-layer="326" from-port="0" to-layer="327" to-port="0" />
		<edge from-layer="327" from-port="1" to-layer="391" to-port="0" />
		<edge from-layer="328" from-port="0" to-layer="329" to-port="0" />
		<edge from-layer="329" from-port="1" to-layer="388" to-port="0" />
		<edge from-layer="330" from-port="0" to-layer="331" to-port="0" />
		<edge from-layer="331" from-port="1" to-layer="385" to-port="0" />
		<edge from-layer="332" from-port="0" to-layer="333" to-port="0" />
		<edge from-layer="333" from-port="1" to-layer="382" to-port="0" />
		<edge from-layer="334" from-port="0" to-layer="335" to-port="0" />
		<edge from-layer="335" from-port="1" to-layer="379" to-port="0" />
		<edge from-layer="336" from-port="0" to-layer="339" to-port="1" />
		<edge from-layer="337" from-port="0" to-layer="339" to-port="2" />
		<edge from-layer="338" from-port="0" to-layer="339" to-port="3" />
		<edge from-layer="339" from-port="4" to-layer="342" to-port="0" />
		<edge from-layer="340" from-port="0" to-layer="341" to-port="0" />
		<edge from-layer="341" from-port="1" to-layer="342" to-port="1" />
		<edge from-layer="342" from-port="2" to-layer="354" to-port="0" />
		<edge from-layer="343" from-port="0" to-layer="346" to-port="1" />
		<edge from-layer="344" from-port="0" to-layer="346" to-port="2" />
		<edge from-layer="345" from-port="0" to-layer="346" to-port="3" />
		<edge from-layer="346" from-port="4" to-layer="353" to-port="0" />
		<edge from-layer="347" from-port="0" to-layer="348" to-port="0" />
		<edge from-layer="348" from-port="1" to-layer="350" to-port="0" />
		<edge from-layer="349" from-port="0" to-layer="350" to-port="1" />
		<edge from-layer="350" from-port="2" to-layer="352" to-port="0" />
		<edge from-layer="351" from-port="0" to-layer="352" to-port="1" />
		<edge from-layer="352" from-port="2" to-layer="353" to-port="1" />
		<edge from-layer="353" from-port="2" to-layer="354" to-port="1" />
		<edge from-layer="354" from-port="2" to-layer="374" to-port="0" />
		<edge from-layer="355" from-port="0" to-layer="358" to-port="1" />
		<edge from-layer="356" from-port="0" to-layer="358" to-port="2" />
		<edge from-layer="357" from-port="0" to-layer="358" to-port="3" />
		<edge from-layer="358" from-port="4" to-layer="361" to-port="0" />
		<edge from-layer="359" from-port="0" to-layer="360" to-port="0" />
		<edge from-layer="360" from-port="1" to-layer="361" to-port="1" />
		<edge from-layer="361" from-port="2" to-layer="373" to-port="0" />
		<edge from-layer="362" from-port="0" to-layer="365" to-port="1" />
		<edge from-layer="363" from-port="0" to-layer="365" to-port="2" />
		<edge from-layer="364" from-port="0" to-layer="365" to-port="3" />
		<edge from-layer="365" from-port="4" to-layer="372" to-port="0" />
		<edge from-layer="366" from-port="0" to-layer="367" to-port="0" />
		<edge from-layer="367" from-port="1" to-layer="369" to-port="0" />
		<edge from-layer="368" from-port="0" to-layer="369" to-port="1" />
		<edge from-layer="369" from-port="2" to-layer="371" to-port="0" />
		<edge from-layer="370" from-port="0" to-layer="371" to-port="1" />
		<edge from-layer="371" from-port="2" to-layer="372" to-port="1" />
		<edge from-layer="372" from-port="2" to-layer="373" to-port="1" />
		<edge from-layer="373" from-port="2" to-layer="374" to-port="1" />
		<edge from-layer="374" from-port="2" to-layer="376" to-port="0" />
		<edge from-layer="375" from-port="0" to-layer="376" to-port="1" />
		<edge from-layer="376" from-port="2" to-layer="378" to-port="0" />
		<edge from-layer="377" from-port="0" to-layer="378" to-port="1" />
		<edge from-layer="378" from-port="2" to-layer="379" to-port="1" />
		<edge from-layer="379" from-port="2" to-layer="381" to-port="0" />
		<edge from-layer="380" from-port="0" to-layer="381" to-port="1" />
		<edge from-layer="381" from-port="2" to-layer="382" to-port="1" />
		<edge from-layer="382" from-port="2" to-layer="384" to-port="0" />
		<edge from-layer="383" from-port="0" to-layer="384" to-port="1" />
		<edge from-layer="384" from-port="2" to-layer="385" to-port="1" />
		<edge from-layer="385" from-port="2" to-layer="387" to-port="0" />
		<edge from-layer="386" from-port="0" to-layer="387" to-port="1" />
		<edge from-layer="387" from-port="2" to-layer="388" to-port="1" />
		<edge from-layer="388" from-port="2" to-layer="390" to-port="0" />
		<edge from-layer="389" from-port="0" to-layer="390" to-port="1" />
		<edge from-layer="390" from-port="2" to-layer="391" to-port="1" />
		<edge from-layer="391" from-port="2" to-layer="393" to-port="0" />
		<edge from-layer="392" from-port="0" to-layer="393" to-port="1" />
		<edge from-layer="393" from-port="2" to-layer="394" to-port="1" />
		<edge from-layer="394" from-port="2" to-layer="396" to-port="0" />
		<edge from-layer="395" from-port="0" to-layer="396" to-port="1" />
		<edge from-layer="396" from-port="2" to-layer="397" to-port="1" />
		<edge from-layer="397" from-port="2" to-layer="399" to-port="0" />
		<edge from-layer="398" from-port="0" to-layer="399" to-port="1" />
		<edge from-layer="399" from-port="2" to-layer="404" to-port="0" />
		<edge from-layer="400" from-port="0" to-layer="403" to-port="1" />
		<edge from-layer="401" from-port="0" to-layer="403" to-port="2" />
		<edge from-layer="402" from-port="0" to-layer="403" to-port="3" />
		<edge from-layer="403" from-port="4" to-layer="404" to-port="1" />
		<edge from-layer="404" from-port="2" to-layer="405" to-port="1" />
		<edge from-layer="405" from-port="2" to-layer="489" to-port="0" />
		<edge from-layer="406" from-port="0" to-layer="407" to-port="0" />
		<edge from-layer="407" from-port="1" to-layer="481" to-port="0" />
		<edge from-layer="408" from-port="0" to-layer="409" to-port="0" />
		<edge from-layer="409" from-port="1" to-layer="478" to-port="0" />
		<edge from-layer="410" from-port="0" to-layer="411" to-port="0" />
		<edge from-layer="411" from-port="1" to-layer="475" to-port="0" />
		<edge from-layer="412" from-port="0" to-layer="413" to-port="0" />
		<edge from-layer="413" from-port="1" to-layer="472" to-port="0" />
		<edge from-layer="414" from-port="0" to-layer="415" to-port="0" />
		<edge from-layer="415" from-port="1" to-layer="469" to-port="0" />
		<edge from-layer="416" from-port="0" to-layer="417" to-port="0" />
		<edge from-layer="417" from-port="1" to-layer="466" to-port="0" />
		<edge from-layer="418" from-port="0" to-layer="419" to-port="0" />
		<edge from-layer="419" from-port="1" to-layer="463" to-port="0" />
		<edge from-layer="420" from-port="0" to-layer="423" to-port="1" />
		<edge from-layer="421" from-port="0" to-layer="423" to-port="2" />
		<edge from-layer="422" from-port="0" to-layer="423" to-port="3" />
		<edge from-layer="423" from-port="4" to-layer="426" to-port="0" />
		<edge from-layer="424" from-port="0" to-layer="425" to-port="0" />
		<edge from-layer="425" from-port="1" to-layer="426" to-port="1" />
		<edge from-layer="426" from-port="2" to-layer="438" to-port="0" />
		<edge from-layer="427" from-port="0" to-layer="430" to-port="1" />
		<edge from-layer="428" from-port="0" to-layer="430" to-port="2" />
		<edge from-layer="429" from-port="0" to-layer="430" to-port="3" />
		<edge from-layer="430" from-port="4" to-layer="437" to-port="0" />
		<edge from-layer="431" from-port="0" to-layer="432" to-port="0" />
		<edge from-layer="432" from-port="1" to-layer="434" to-port="0" />
		<edge from-layer="433" from-port="0" to-layer="434" to-port="1" />
		<edge from-layer="434" from-port="2" to-layer="436" to-port="0" />
		<edge from-layer="435" from-port="0" to-layer="436" to-port="1" />
		<edge from-layer="436" from-port="2" to-layer="437" to-port="1" />
		<edge from-layer="437" from-port="2" to-layer="438" to-port="1" />
		<edge from-layer="438" from-port="2" to-layer="458" to-port="0" />
		<edge from-layer="439" from-port="0" to-layer="442" to-port="1" />
		<edge from-layer="440" from-port="0" to-layer="442" to-port="2" />
		<edge from-layer="441" from-port="0" to-layer="442" to-port="3" />
		<edge from-layer="442" from-port="4" to-layer="445" to-port="0" />
		<edge from-layer="443" from-port="0" to-layer="444" to-port="0" />
		<edge from-layer="444" from-port="1" to-layer="445" to-port="1" />
		<edge from-layer="445" from-port="2" to-layer="457" to-port="0" />
		<edge from-layer="446" from-port="0" to-layer="449" to-port="1" />
		<edge from-layer="447" from-port="0" to-layer="449" to-port="2" />
		<edge from-layer="448" from-port="0" to-layer="449" to-port="3" />
		<edge from-layer="449" from-port="4" to-layer="456" to-port="0" />
		<edge from-layer="450" from-port="0" to-layer="451" to-port="0" />
		<edge from-layer="451" from-port="1" to-layer="453" to-port="0" />
		<edge from-layer="452" from-port="0" to-layer="453" to-port="1" />
		<edge from-layer="453" from-port="2" to-layer="455" to-port="0" />
		<edge from-layer="454" from-port="0" to-layer="455" to-port="1" />
		<edge from-layer="455" from-port="2" to-layer="456" to-port="1" />
		<edge from-layer="456" from-port="2" to-layer="457" to-port="1" />
		<edge from-layer="457" from-port="2" to-layer="458" to-port="1" />
		<edge from-layer="458" from-port="2" to-layer="460" to-port="0" />
		<edge from-layer="459" from-port="0" to-layer="460" to-port="1" />
		<edge from-layer="460" from-port="2" to-layer="462" to-port="0" />
		<edge from-layer="461" from-port="0" to-layer="462" to-port="1" />
		<edge from-layer="462" from-port="2" to-layer="463" to-port="1" />
		<edge from-layer="463" from-port="2" to-layer="465" to-port="0" />
		<edge from-layer="464" from-port="0" to-layer="465" to-port="1" />
		<edge from-layer="465" from-port="2" to-layer="466" to-port="1" />
		<edge from-layer="466" from-port="2" to-layer="468" to-port="0" />
		<edge from-layer="467" from-port="0" to-layer="468" to-port="1" />
		<edge from-layer="468" from-port="2" to-layer="469" to-port="1" />
		<edge from-layer="469" from-port="2" to-layer="471" to-port="0" />
		<edge from-layer="470" from-port="0" to-layer="471" to-port="1" />
		<edge from-layer="471" from-port="2" to-layer="472" to-port="1" />
		<edge from-layer="472" from-port="2" to-layer="474" to-port="0" />
		<edge from-layer="473" from-port="0" to-layer="474" to-port="1" />
		<edge from-layer="474" from-port="2" to-layer="475" to-port="1" />
		<edge from-layer="475" from-port="2" to-layer="477" to-port="0" />
		<edge from-layer="476" from-port="0" to-layer="477" to-port="1" />
		<edge from-layer="477" from-port="2" to-layer="478" to-port="1" />
		<edge from-layer="478" from-port="2" to-layer="480" to-port="0" />
		<edge from-layer="479" from-port="0" to-layer="480" to-port="1" />
		<edge from-layer="480" from-port="2" to-layer="481" to-port="1" />
		<edge from-layer="481" from-port="2" to-layer="483" to-port="0" />
		<edge from-layer="482" from-port="0" to-layer="483" to-port="1" />
		<edge from-layer="483" from-port="2" to-layer="488" to-port="0" />
		<edge from-layer="484" from-port="0" to-layer="487" to-port="1" />
		<edge from-layer="485" from-port="0" to-layer="487" to-port="2" />
		<edge from-layer="486" from-port="0" to-layer="487" to-port="3" />
		<edge from-layer="487" from-port="4" to-layer="488" to-port="1" />
		<edge from-layer="488" from-port="2" to-layer="489" to-port="1" />
		<edge from-layer="489" from-port="2" to-layer="573" to-port="0" />
		<edge from-layer="490" from-port="0" to-layer="491" to-port="0" />
		<edge from-layer="491" from-port="1" to-layer="565" to-port="0" />
		<edge from-layer="492" from-port="0" to-layer="493" to-port="0" />
		<edge from-layer="493" from-port="1" to-layer="562" to-port="0" />
		<edge from-layer="494" from-port="0" to-layer="495" to-port="0" />
		<edge from-layer="495" from-port="1" to-layer="559" to-port="0" />
		<edge from-layer="496" from-port="0" to-layer="497" to-port="0" />
		<edge from-layer="497" from-port="1" to-layer="556" to-port="0" />
		<edge from-layer="498" from-port="0" to-layer="499" to-port="0" />
		<edge from-layer="499" from-port="1" to-layer="553" to-port="0" />
		<edge from-layer="500" from-port="0" to-layer="501" to-port="0" />
		<edge from-layer="501" from-port="1" to-layer="550" to-port="0" />
		<edge from-layer="502" from-port="0" to-layer="503" to-port="0" />
		<edge from-layer="503" from-port="1" to-layer="547" to-port="0" />
		<edge from-layer="504" from-port="0" to-layer="507" to-port="1" />
		<edge from-layer="505" from-port="0" to-layer="507" to-port="2" />
		<edge from-layer="506" from-port="0" to-layer="507" to-port="3" />
		<edge from-layer="507" from-port="4" to-layer="510" to-port="0" />
		<edge from-layer="508" from-port="0" to-layer="509" to-port="0" />
		<edge from-layer="509" from-port="1" to-layer="510" to-port="1" />
		<edge from-layer="510" from-port="2" to-layer="522" to-port="0" />
		<edge from-layer="511" from-port="0" to-layer="514" to-port="1" />
		<edge from-layer="512" from-port="0" to-layer="514" to-port="2" />
		<edge from-layer="513" from-port="0" to-layer="514" to-port="3" />
		<edge from-layer="514" from-port="4" to-layer="521" to-port="0" />
		<edge from-layer="515" from-port="0" to-layer="516" to-port="0" />
		<edge from-layer="516" from-port="1" to-layer="518" to-port="0" />
		<edge from-layer="517" from-port="0" to-layer="518" to-port="1" />
		<edge from-layer="518" from-port="2" to-layer="520" to-port="0" />
		<edge from-layer="519" from-port="0" to-layer="520" to-port="1" />
		<edge from-layer="520" from-port="2" to-layer="521" to-port="1" />
		<edge from-layer="521" from-port="2" to-layer="522" to-port="1" />
		<edge from-layer="522" from-port="2" to-layer="542" to-port="0" />
		<edge from-layer="523" from-port="0" to-layer="526" to-port="1" />
		<edge from-layer="524" from-port="0" to-layer="526" to-port="2" />
		<edge from-layer="525" from-port="0" to-layer="526" to-port="3" />
		<edge from-layer="526" from-port="4" to-layer="529" to-port="0" />
		<edge from-layer="527" from-port="0" to-layer="528" to-port="0" />
		<edge from-layer="528" from-port="1" to-layer="529" to-port="1" />
		<edge from-layer="529" from-port="2" to-layer="541" to-port="0" />
		<edge from-layer="530" from-port="0" to-layer="533" to-port="1" />
		<edge from-layer="531" from-port="0" to-layer="533" to-port="2" />
		<edge from-layer="532" from-port="0" to-layer="533" to-port="3" />
		<edge from-layer="533" from-port="4" to-layer="540" to-port="0" />
		<edge from-layer="534" from-port="0" to-layer="535" to-port="0" />
		<edge from-layer="535" from-port="1" to-layer="537" to-port="0" />
		<edge from-layer="536" from-port="0" to-layer="537" to-port="1" />
		<edge from-layer="537" from-port="2" to-layer="539" to-port="0" />
		<edge from-layer="538" from-port="0" to-layer="539" to-port="1" />
		<edge from-layer="539" from-port="2" to-layer="540" to-port="1" />
		<edge from-layer="540" from-port="2" to-layer="541" to-port="1" />
		<edge from-layer="541" from-port="2" to-layer="542" to-port="1" />
		<edge from-layer="542" from-port="2" to-layer="544" to-port="0" />
		<edge from-layer="543" from-port="0" to-layer="544" to-port="1" />
		<edge from-layer="544" from-port="2" to-layer="546" to-port="0" />
		<edge from-layer="545" from-port="0" to-layer="546" to-port="1" />
		<edge from-layer="546" from-port="2" to-layer="547" to-port="1" />
		<edge from-layer="547" from-port="2" to-layer="549" to-port="0" />
		<edge from-layer="548" from-port="0" to-layer="549" to-port="1" />
		<edge from-layer="549" from-port="2" to-layer="550" to-port="1" />
		<edge from-layer="550" from-port="2" to-layer="552" to-port="0" />
		<edge from-layer="551" from-port="0" to-layer="552" to-port="1" />
		<edge from-layer="552" from-port="2" to-layer="553" to-port="1" />
		<edge from-layer="553" from-port="2" to-layer="555" to-port="0" />
		<edge from-layer="554" from-port="0" to-layer="555" to-port="1" />
		<edge from-layer="555" from-port="2" to-layer="556" to-port="1" />
		<edge from-layer="556" from-port="2" to-layer="558" to-port="0" />
		<edge from-layer="557" from-port="0" to-layer="558" to-port="1" />
		<edge from-layer="558" from-port="2" to-layer="559" to-port="1" />
		<edge from-layer="559" from-port="2" to-layer="561" to-port="0" />
		<edge from-layer="560" from-port="0" to-layer="561" to-port="1" />
		<edge from-layer="561" from-port="2" to-layer="562" to-port="1" />
		<edge from-layer="562" from-port="2" to-layer="564" to-port="0" />
		<edge from-layer="563" from-port="0" to-layer="564" to-port="1" />
		<edge from-layer="564" from-port="2" to-layer="565" to-port="1" />
		<edge from-layer="565" from-port="2" to-layer="567" to-port="0" />
		<edge from-layer="566" from-port="0" to-layer="567" to-port="1" />
		<edge from-layer="567" from-port="2" to-layer="572" to-port="0" />
		<edge from-layer="568" from-port="0" to-layer="571" to-port="1" />
		<edge from-layer="569" from-port="0" to-layer="571" to-port="2" />
		<edge from-layer="570" from-port="0" to-layer="571" to-port="3" />
		<edge from-layer="571" from-port="4" to-layer="572" to-port="1" />
		<edge from-layer="572" from-port="2" to-layer="573" to-port="1" />
		<edge from-layer="573" from-port="2" to-layer="657" to-port="0" />
		<edge from-layer="574" from-port="0" to-layer="575" to-port="0" />
		<edge from-layer="575" from-port="1" to-layer="649" to-port="0" />
		<edge from-layer="576" from-port="0" to-layer="577" to-port="0" />
		<edge from-layer="577" from-port="1" to-layer="646" to-port="0" />
		<edge from-layer="578" from-port="0" to-layer="579" to-port="0" />
		<edge from-layer="579" from-port="1" to-layer="643" to-port="0" />
		<edge from-layer="580" from-port="0" to-layer="581" to-port="0" />
		<edge from-layer="581" from-port="1" to-layer="640" to-port="0" />
		<edge from-layer="582" from-port="0" to-layer="583" to-port="0" />
		<edge from-layer="583" from-port="1" to-layer="637" to-port="0" />
		<edge from-layer="584" from-port="0" to-layer="585" to-port="0" />
		<edge from-layer="585" from-port="1" to-layer="634" to-port="0" />
		<edge from-layer="586" from-port="0" to-layer="587" to-port="0" />
		<edge from-layer="587" from-port="1" to-layer="631" to-port="0" />
		<edge from-layer="588" from-port="0" to-layer="591" to-port="1" />
		<edge from-layer="589" from-port="0" to-layer="591" to-port="2" />
		<edge from-layer="590" from-port="0" to-layer="591" to-port="3" />
		<edge from-layer="591" from-port="4" to-layer="594" to-port="0" />
		<edge from-layer="592" from-port="0" to-layer="593" to-port="0" />
		<edge from-layer="593" from-port="1" to-layer="594" to-port="1" />
		<edge from-layer="594" from-port="2" to-layer="606" to-port="0" />
		<edge from-layer="595" from-port="0" to-layer="598" to-port="1" />
		<edge from-layer="596" from-port="0" to-layer="598" to-port="2" />
		<edge from-layer="597" from-port="0" to-layer="598" to-port="3" />
		<edge from-layer="598" from-port="4" to-layer="605" to-port="0" />
		<edge from-layer="599" from-port="0" to-layer="600" to-port="0" />
		<edge from-layer="600" from-port="1" to-layer="602" to-port="0" />
		<edge from-layer="601" from-port="0" to-layer="602" to-port="1" />
		<edge from-layer="602" from-port="2" to-layer="604" to-port="0" />
		<edge from-layer="603" from-port="0" to-layer="604" to-port="1" />
		<edge from-layer="604" from-port="2" to-layer="605" to-port="1" />
		<edge from-layer="605" from-port="2" to-layer="606" to-port="1" />
		<edge from-layer="606" from-port="2" to-layer="626" to-port="0" />
		<edge from-layer="607" from-port="0" to-layer="610" to-port="1" />
		<edge from-layer="608" from-port="0" to-layer="610" to-port="2" />
		<edge from-layer="609" from-port="0" to-layer="610" to-port="3" />
		<edge from-layer="610" from-port="4" to-layer="613" to-port="0" />
		<edge from-layer="611" from-port="0" to-layer="612" to-port="0" />
		<edge from-layer="612" from-port="1" to-layer="613" to-port="1" />
		<edge from-layer="613" from-port="2" to-layer="625" to-port="0" />
		<edge from-layer="614" from-port="0" to-layer="617" to-port="1" />
		<edge from-layer="615" from-port="0" to-layer="617" to-port="2" />
		<edge from-layer="616" from-port="0" to-layer="617" to-port="3" />
		<edge from-layer="617" from-port="4" to-layer="624" to-port="0" />
		<edge from-layer="618" from-port="0" to-layer="619" to-port="0" />
		<edge from-layer="619" from-port="1" to-layer="621" to-port="0" />
		<edge from-layer="620" from-port="0" to-layer="621" to-port="1" />
		<edge from-layer="621" from-port="2" to-layer="623" to-port="0" />
		<edge from-layer="622" from-port="0" to-layer="623" to-port="1" />
		<edge from-layer="623" from-port="2" to-layer="624" to-port="1" />
		<edge from-layer="624" from-port="2" to-layer="625" to-port="1" />
		<edge from-layer="625" from-port="2" to-layer="626" to-port="1" />
		<edge from-layer="626" from-port="2" to-layer="628" to-port="0" />
		<edge from-layer="627" from-port="0" to-layer="628" to-port="1" />
		<edge from-layer="628" from-port="2" to-layer="630" to-port="0" />
		<edge from-layer="629" from-port="0" to-layer="630" to-port="1" />
		<edge from-layer="630" from-port="2" to-layer="631" to-port="1" />
		<edge from-layer="631" from-port="2" to-layer="633" to-port="0" />
		<edge from-layer="632" from-port="0" to-layer="633" to-port="1" />
		<edge from-layer="633" from-port="2" to-layer="634" to-port="1" />
		<edge from-layer="634" from-port="2" to-layer="636" to-port="0" />
		<edge from-layer="635" from-port="0" to-layer="636" to-port="1" />
		<edge from-layer="636" from-port="2" to-layer="637" to-port="1" />
		<edge from-layer="637" from-port="2" to-layer="639" to-port="0" />
		<edge from-layer="638" from-port="0" to-layer="639" to-port="1" />
		<edge from-layer="639" from-port="2" to-layer="640" to-port="1" />
		<edge from-layer="640" from-port="2" to-layer="642" to-port="0" />
		<edge from-layer="641" from-port="0" to-layer="642" to-port="1" />
		<edge from-layer="642" from-port="2" to-layer="643" to-port="1" />
		<edge from-layer="643" from-port="2" to-layer="645" to-port="0" />
		<edge from-layer="644" from-port="0" to-layer="645" to-port="1" />
		<edge from-layer="645" from-port="2" to-layer="646" to-port="1" />
		<edge from-layer="646" from-port="2" to-layer="648" to-port="0" />
		<edge from-layer="647" from-port="0" to-layer="648" to-port="1" />
		<edge from-layer="648" from-port="2" to-layer="649" to-port="1" />
		<edge from-layer="649" from-port="2" to-layer="651" to-port="0" />
		<edge from-layer="650" from-port="0" to-layer="651" to-port="1" />
		<edge from-layer="651" from-port="2" to-layer="656" to-port="0" />
		<edge from-layer="652" from-port="0" to-layer="655" to-port="1" />
		<edge from-layer="653" from-port="0" to-layer="655" to-port="2" />
		<edge from-layer="654" from-port="0" to-layer="655" to-port="3" />
		<edge from-layer="655" from-port="4" to-layer="656" to-port="1" />
		<edge from-layer="656" from-port="2" to-layer="657" to-port="1" />
		<edge from-layer="657" from-port="2" to-layer="741" to-port="0" />
		<edge from-layer="658" from-port="0" to-layer="659" to-port="0" />
		<edge from-layer="659" from-port="1" to-layer="733" to-port="0" />
		<edge from-layer="660" from-port="0" to-layer="661" to-port="0" />
		<edge from-layer="661" from-port="1" to-layer="730" to-port="0" />
		<edge from-layer="662" from-port="0" to-layer="663" to-port="0" />
		<edge from-layer="663" from-port="1" to-layer="727" to-port="0" />
		<edge from-layer="664" from-port="0" to-layer="665" to-port="0" />
		<edge from-layer="665" from-port="1" to-layer="724" to-port="0" />
		<edge from-layer="666" from-port="0" to-layer="667" to-port="0" />
		<edge from-layer="667" from-port="1" to-layer="721" to-port="0" />
		<edge from-layer="668" from-port="0" to-layer="669" to-port="0" />
		<edge from-layer="669" from-port="1" to-layer="718" to-port="0" />
		<edge from-layer="670" from-port="0" to-layer="671" to-port="0" />
		<edge from-layer="671" from-port="1" to-layer="715" to-port="0" />
		<edge from-layer="672" from-port="0" to-layer="675" to-port="1" />
		<edge from-layer="673" from-port="0" to-layer="675" to-port="2" />
		<edge from-layer="674" from-port="0" to-layer="675" to-port="3" />
		<edge from-layer="675" from-port="4" to-layer="678" to-port="0" />
		<edge from-layer="676" from-port="0" to-layer="677" to-port="0" />
		<edge from-layer="677" from-port="1" to-layer="678" to-port="1" />
		<edge from-layer="678" from-port="2" to-layer="690" to-port="0" />
		<edge from-layer="679" from-port="0" to-layer="682" to-port="1" />
		<edge from-layer="680" from-port="0" to-layer="682" to-port="2" />
		<edge from-layer="681" from-port="0" to-layer="682" to-port="3" />
		<edge from-layer="682" from-port="4" to-layer="689" to-port="0" />
		<edge from-layer="683" from-port="0" to-layer="684" to-port="0" />
		<edge from-layer="684" from-port="1" to-layer="686" to-port="0" />
		<edge from-layer="685" from-port="0" to-layer="686" to-port="1" />
		<edge from-layer="686" from-port="2" to-layer="688" to-port="0" />
		<edge from-layer="687" from-port="0" to-layer="688" to-port="1" />
		<edge from-layer="688" from-port="2" to-layer="689" to-port="1" />
		<edge from-layer="689" from-port="2" to-layer="690" to-port="1" />
		<edge from-layer="690" from-port="2" to-layer="710" to-port="0" />
		<edge from-layer="691" from-port="0" to-layer="694" to-port="1" />
		<edge from-layer="692" from-port="0" to-layer="694" to-port="2" />
		<edge from-layer="693" from-port="0" to-layer="694" to-port="3" />
		<edge from-layer="694" from-port="4" to-layer="697" to-port="0" />
		<edge from-layer="695" from-port="0" to-layer="696" to-port="0" />
		<edge from-layer="696" from-port="1" to-layer="697" to-port="1" />
		<edge from-layer="697" from-port="2" to-layer="709" to-port="0" />
		<edge from-layer="698" from-port="0" to-layer="701" to-port="1" />
		<edge from-layer="699" from-port="0" to-layer="701" to-port="2" />
		<edge from-layer="700" from-port="0" to-layer="701" to-port="3" />
		<edge from-layer="701" from-port="4" to-layer="708" to-port="0" />
		<edge from-layer="702" from-port="0" to-layer="703" to-port="0" />
		<edge from-layer="703" from-port="1" to-layer="705" to-port="0" />
		<edge from-layer="704" from-port="0" to-layer="705" to-port="1" />
		<edge from-layer="705" from-port="2" to-layer="707" to-port="0" />
		<edge from-layer="706" from-port="0" to-layer="707" to-port="1" />
		<edge from-layer="707" from-port="2" to-layer="708" to-port="1" />
		<edge from-layer="708" from-port="2" to-layer="709" to-port="1" />
		<edge from-layer="709" from-port="2" to-layer="710" to-port="1" />
		<edge from-layer="710" from-port="2" to-layer="712" to-port="0" />
		<edge from-layer="711" from-port="0" to-layer="712" to-port="1" />
		<edge from-layer="712" from-port="2" to-layer="714" to-port="0" />
		<edge from-layer="713" from-port="0" to-layer="714" to-port="1" />
		<edge from-layer="714" from-port="2" to-layer="715" to-port="1" />
		<edge from-layer="715" from-port="2" to-layer="717" to-port="0" />
		<edge from-layer="716" from-port="0" to-layer="717" to-port="1" />
		<edge from-layer="717" from-port="2" to-layer="718" to-port="1" />
		<edge from-layer="718" from-port="2" to-layer="720" to-port="0" />
		<edge from-layer="719" from-port="0" to-layer="720" to-port="1" />
		<edge from-layer="720" from-port="2" to-layer="721" to-port="1" />
		<edge from-layer="721" from-port="2" to-layer="723" to-port="0" />
		<edge from-layer="722" from-port="0" to-layer="723" to-port="1" />
		<edge from-layer="723" from-port="2" to-layer="724" to-port="1" />
		<edge from-layer="724" from-port="2" to-layer="726" to-port="0" />
		<edge from-layer="725" from-port="0" to-layer="726" to-port="1" />
		<edge from-layer="726" from-port="2" to-layer="727" to-port="1" />
		<edge from-layer="727" from-port="2" to-layer="729" to-port="0" />
		<edge from-layer="728" from-port="0" to-layer="729" to-port="1" />
		<edge from-layer="729" from-port="2" to-layer="730" to-port="1" />
		<edge from-layer="730" from-port="2" to-layer="732" to-port="0" />
		<edge from-layer="731" from-port="0" to-layer="732" to-port="1" />
		<edge from-layer="732" from-port="2" to-layer="733" to-port="1" />
		<edge from-layer="733" from-port="2" to-layer="735" to-port="0" />
		<edge from-layer="734" from-port="0" to-layer="735" to-port="1" />
		<edge from-layer="735" from-port="2" to-layer="740" to-port="0" />
		<edge from-layer="736" from-port="0" to-layer="739" to-port="1" />
		<edge from-layer="737" from-port="0" to-layer="739" to-port="2" />
		<edge from-layer="738" from-port="0" to-layer="739" to-port="3" />
		<edge from-layer="739" from-port="4" to-layer="740" to-port="1" />
		<edge from-layer="740" from-port="2" to-layer="741" to-port="1" />
		<edge from-layer="741" from-port="2" to-layer="825" to-port="0" />
		<edge from-layer="742" from-port="0" to-layer="743" to-port="0" />
		<edge from-layer="743" from-port="1" to-layer="817" to-port="0" />
		<edge from-layer="744" from-port="0" to-layer="745" to-port="0" />
		<edge from-layer="745" from-port="1" to-layer="814" to-port="0" />
		<edge from-layer="746" from-port="0" to-layer="747" to-port="0" />
		<edge from-layer="747" from-port="1" to-layer="811" to-port="0" />
		<edge from-layer="748" from-port="0" to-layer="749" to-port="0" />
		<edge from-layer="749" from-port="1" to-layer="808" to-port="0" />
		<edge from-layer="750" from-port="0" to-layer="751" to-port="0" />
		<edge from-layer="751" from-port="1" to-layer="805" to-port="0" />
		<edge from-layer="752" from-port="0" to-layer="753" to-port="0" />
		<edge from-layer="753" from-port="1" to-layer="802" to-port="0" />
		<edge from-layer="754" from-port="0" to-layer="755" to-port="0" />
		<edge from-layer="755" from-port="1" to-layer="799" to-port="0" />
		<edge from-layer="756" from-port="0" to-layer="759" to-port="1" />
		<edge from-layer="757" from-port="0" to-layer="759" to-port="2" />
		<edge from-layer="758" from-port="0" to-layer="759" to-port="3" />
		<edge from-layer="759" from-port="4" to-layer="762" to-port="0" />
		<edge from-layer="760" from-port="0" to-layer="761" to-port="0" />
		<edge from-layer="761" from-port="1" to-layer="762" to-port="1" />
		<edge from-layer="762" from-port="2" to-layer="774" to-port="0" />
		<edge from-layer="763" from-port="0" to-layer="766" to-port="1" />
		<edge from-layer="764" from-port="0" to-layer="766" to-port="2" />
		<edge from-layer="765" from-port="0" to-layer="766" to-port="3" />
		<edge from-layer="766" from-port="4" to-layer="773" to-port="0" />
		<edge from-layer="767" from-port="0" to-layer="768" to-port="0" />
		<edge from-layer="768" from-port="1" to-layer="770" to-port="0" />
		<edge from-layer="769" from-port="0" to-layer="770" to-port="1" />
		<edge from-layer="770" from-port="2" to-layer="772" to-port="0" />
		<edge from-layer="771" from-port="0" to-layer="772" to-port="1" />
		<edge from-layer="772" from-port="2" to-layer="773" to-port="1" />
		<edge from-layer="773" from-port="2" to-layer="774" to-port="1" />
		<edge from-layer="774" from-port="2" to-layer="794" to-port="0" />
		<edge from-layer="775" from-port="0" to-layer="778" to-port="1" />
		<edge from-layer="776" from-port="0" to-layer="778" to-port="2" />
		<edge from-layer="777" from-port="0" to-layer="778" to-port="3" />
		<edge from-layer="778" from-port="4" to-layer="781" to-port="0" />
		<edge from-layer="779" from-port="0" to-layer="780" to-port="0" />
		<edge from-layer="780" from-port="1" to-layer="781" to-port="1" />
		<edge from-layer="781" from-port="2" to-layer="793" to-port="0" />
		<edge from-layer="782" from-port="0" to-layer="785" to-port="1" />
		<edge from-layer="783" from-port="0" to-layer="785" to-port="2" />
		<edge from-layer="784" from-port="0" to-layer="785" to-port="3" />
		<edge from-layer="785" from-port="4" to-layer="792" to-port="0" />
		<edge from-layer="786" from-port="0" to-layer="787" to-port="0" />
		<edge from-layer="787" from-port="1" to-layer="789" to-port="0" />
		<edge from-layer="788" from-port="0" to-layer="789" to-port="1" />
		<edge from-layer="789" from-port="2" to-layer="791" to-port="0" />
		<edge from-layer="790" from-port="0" to-layer="791" to-port="1" />
		<edge from-layer="791" from-port="2" to-layer="792" to-port="1" />
		<edge from-layer="792" from-port="2" to-layer="793" to-port="1" />
		<edge from-layer="793" from-port="2" to-layer="794" to-port="1" />
		<edge from-layer="794" from-port="2" to-layer="796" to-port="0" />
		<edge from-layer="795" from-port="0" to-layer="796" to-port="1" />
		<edge from-layer="796" from-port="2" to-layer="798" to-port="0" />
		<edge from-layer="797" from-port="0" to-layer="798" to-port="1" />
		<edge from-layer="798" from-port="2" to-layer="799" to-port="1" />
		<edge from-layer="799" from-port="2" to-layer="801" to-port="0" />
		<edge from-layer="800" from-port="0" to-layer="801" to-port="1" />
		<edge from-layer="801" from-port="2" to-layer="802" to-port="1" />
		<edge from-layer="802" from-port="2" to-layer="804" to-port="0" />
		<edge from-layer="803" from-port="0" to-layer="804" to-port="1" />
		<edge from-layer="804" from-port="2" to-layer="805" to-port="1" />
		<edge from-layer="805" from-port="2" to-layer="807" to-port="0" />
		<edge from-layer="806" from-port="0" to-layer="807" to-port="1" />
		<edge from-layer="807" from-port="2" to-layer="808" to-port="1" />
		<edge from-layer="808" from-port="2" to-layer="810" to-port="0" />
		<edge from-layer="809" from-port="0" to-layer="810" to-port="1" />
		<edge from-layer="810" from-port="2" to-layer="811" to-port="1" />
		<edge from-layer="811" from-port="2" to-layer="813" to-port="0" />
		<edge from-layer="812" from-port="0" to-layer="813" to-port="1" />
		<edge from-layer="813" from-port="2" to-layer="814" to-port="1" />
		<edge from-layer="814" from-port="2" to-layer="816" to-port="0" />
		<edge from-layer="815" from-port="0" to-layer="816" to-port="1" />
		<edge from-layer="816" from-port="2" to-layer="817" to-port="1" />
		<edge from-layer="817" from-port="2" to-layer="819" to-port="0" />
		<edge from-layer="818" from-port="0" to-layer="819" to-port="1" />
		<edge from-layer="819" from-port="2" to-layer="824" to-port="0" />
		<edge from-layer="820" from-port="0" to-layer="823" to-port="1" />
		<edge from-layer="821" from-port="0" to-layer="823" to-port="2" />
		<edge from-layer="822" from-port="0" to-layer="823" to-port="3" />
		<edge from-layer="823" from-port="4" to-layer="824" to-port="1" />
		<edge from-layer="824" from-port="2" to-layer="825" to-port="1" />
		<edge from-layer="825" from-port="2" to-layer="909" to-port="0" />
		<edge from-layer="826" from-port="0" to-layer="827" to-port="0" />
		<edge from-layer="827" from-port="1" to-layer="901" to-port="0" />
		<edge from-layer="828" from-port="0" to-layer="829" to-port="0" />
		<edge from-layer="829" from-port="1" to-layer="898" to-port="0" />
		<edge from-layer="830" from-port="0" to-layer="831" to-port="0" />
		<edge from-layer="831" from-port="1" to-layer="895" to-port="0" />
		<edge from-layer="832" from-port="0" to-layer="833" to-port="0" />
		<edge from-layer="833" from-port="1" to-layer="892" to-port="0" />
		<edge from-layer="834" from-port="0" to-layer="835" to-port="0" />
		<edge from-layer="835" from-port="1" to-layer="889" to-port="0" />
		<edge from-layer="836" from-port="0" to-layer="837" to-port="0" />
		<edge from-layer="837" from-port="1" to-layer="886" to-port="0" />
		<edge from-layer="838" from-port="0" to-layer="839" to-port="0" />
		<edge from-layer="839" from-port="1" to-layer="883" to-port="0" />
		<edge from-layer="840" from-port="0" to-layer="843" to-port="1" />
		<edge from-layer="841" from-port="0" to-layer="843" to-port="2" />
		<edge from-layer="842" from-port="0" to-layer="843" to-port="3" />
		<edge from-layer="843" from-port="4" to-layer="846" to-port="0" />
		<edge from-layer="844" from-port="0" to-layer="845" to-port="0" />
		<edge from-layer="845" from-port="1" to-layer="846" to-port="1" />
		<edge from-layer="846" from-port="2" to-layer="858" to-port="0" />
		<edge from-layer="847" from-port="0" to-layer="850" to-port="1" />
		<edge from-layer="848" from-port="0" to-layer="850" to-port="2" />
		<edge from-layer="849" from-port="0" to-layer="850" to-port="3" />
		<edge from-layer="850" from-port="4" to-layer="857" to-port="0" />
		<edge from-layer="851" from-port="0" to-layer="852" to-port="0" />
		<edge from-layer="852" from-port="1" to-layer="854" to-port="0" />
		<edge from-layer="853" from-port="0" to-layer="854" to-port="1" />
		<edge from-layer="854" from-port="2" to-layer="856" to-port="0" />
		<edge from-layer="855" from-port="0" to-layer="856" to-port="1" />
		<edge from-layer="856" from-port="2" to-layer="857" to-port="1" />
		<edge from-layer="857" from-port="2" to-layer="858" to-port="1" />
		<edge from-layer="858" from-port="2" to-layer="878" to-port="0" />
		<edge from-layer="859" from-port="0" to-layer="862" to-port="1" />
		<edge from-layer="860" from-port="0" to-layer="862" to-port="2" />
		<edge from-layer="861" from-port="0" to-layer="862" to-port="3" />
		<edge from-layer="862" from-port="4" to-layer="865" to-port="0" />
		<edge from-layer="863" from-port="0" to-layer="864" to-port="0" />
		<edge from-layer="864" from-port="1" to-layer="865" to-port="1" />
		<edge from-layer="865" from-port="2" to-layer="877" to-port="0" />
		<edge from-layer="866" from-port="0" to-layer="869" to-port="1" />
		<edge from-layer="867" from-port="0" to-layer="869" to-port="2" />
		<edge from-layer="868" from-port="0" to-layer="869" to-port="3" />
		<edge from-layer="869" from-port="4" to-layer="876" to-port="0" />
		<edge from-layer="870" from-port="0" to-layer="871" to-port="0" />
		<edge from-layer="871" from-port="1" to-layer="873" to-port="0" />
		<edge from-layer="872" from-port="0" to-layer="873" to-port="1" />
		<edge from-layer="873" from-port="2" to-layer="875" to-port="0" />
		<edge from-layer="874" from-port="0" to-layer="875" to-port="1" />
		<edge from-layer="875" from-port="2" to-layer="876" to-port="1" />
		<edge from-layer="876" from-port="2" to-layer="877" to-port="1" />
		<edge from-layer="877" from-port="2" to-layer="878" to-port="1" />
		<edge from-layer="878" from-port="2" to-layer="880" to-port="0" />
		<edge from-layer="879" from-port="0" to-layer="880" to-port="1" />
		<edge from-layer="880" from-port="2" to-layer="882" to-port="0" />
		<edge from-layer="881" from-port="0" to-layer="882" to-port="1" />
		<edge from-layer="882" from-port="2" to-layer="883" to-port="1" />
		<edge from-layer="883" from-port="2" to-layer="885" to-port="0" />
		<edge from-layer="884" from-port="0" to-layer="885" to-port="1" />
		<edge from-layer="885" from-port="2" to-layer="886" to-port="1" />
		<edge from-layer="886" from-port="2" to-layer="888" to-port="0" />
		<edge from-layer="887" from-port="0" to-layer="888" to-port="1" />
		<edge from-layer="888" from-port="2" to-layer="889" to-port="1" />
		<edge from-layer="889" from-port="2" to-layer="891" to-port="0" />
		<edge from-layer="890" from-port="0" to-layer="891" to-port="1" />
		<edge from-layer="891" from-port="2" to-layer="892" to-port="1" />
		<edge from-layer="892" from-port="2" to-layer="894" to-port="0" />
		<edge from-layer="893" from-port="0" to-layer="894" to-port="1" />
		<edge from-layer="894" from-port="2" to-layer="895" to-port="1" />
		<edge from-layer="895" from-port="2" to-layer="897" to-port="0" />
		<edge from-layer="896" from-port="0" to-layer="897" to-port="1" />
		<edge from-layer="897" from-port="2" to-layer="898" to-port="1" />
		<edge from-layer="898" from-port="2" to-layer="900" to-port="0" />
		<edge from-layer="899" from-port="0" to-layer="900" to-port="1" />
		<edge from-layer="900" from-port="2" to-layer="901" to-port="1" />
		<edge from-layer="901" from-port="2" to-layer="903" to-port="0" />
		<edge from-layer="902" from-port="0" to-layer="903" to-port="1" />
		<edge from-layer="903" from-port="2" to-layer="908" to-port="0" />
		<edge from-layer="904" from-port="0" to-layer="907" to-port="1" />
		<edge from-layer="905" from-port="0" to-layer="907" to-port="2" />
		<edge from-layer="906" from-port="0" to-layer="907" to-port="3" />
		<edge from-layer="907" from-port="4" to-layer="908" to-port="1" />
		<edge from-layer="908" from-port="2" to-layer="909" to-port="1" />
		<edge from-layer="909" from-port="2" to-layer="910" to-port="0" />
	</edges>
	<rt_info>
		<MO_version value="2023.2.0-13089-cfd42bd2cb0-HEAD" />
		<Runtime_version value="2023.2.0-13089-cfd42bd2cb0-HEAD" />
		<conversion_parameters>
			<framework value="tf" />
			<is_python_api_used value="False" />
			<output_dir value="DIR" />
			<saved_model_dir value="DIR" />
		</conversion_parameters>
		<legacy_frontend value="False" />
	</rt_info>
</net>
