<?xml version="1.0"?>
<net name="TensorFlow_Frontend_IR" version="11">
	<layers>
		<layer id="1" name="args_0" type="Parameter" version="opset1">
			<data shape="1,3" element_type="f32" />
			<rt_info>
				<attribute name="old_api_map_element_type" version="0" value="f16" />
			</rt_info>
			<output>
				<port id="0" precision="FP32" names="args_0">
					<dim>1</dim>
					<dim>3</dim>
				</port>
			</output>
		</layer>
		<layer id="0" name="args_1" type="Parameter" version="opset1">
			<data shape="1,128,16,1" element_type="f32" />
			<rt_info>
				<attribute name="old_api_map_element_type" version="0" value="f16" />
			</rt_info>
			<output>
				<port id="0" precision="FP32" names="args_1">
					<dim>1</dim>
					<dim>128</dim>
					<dim>16</dim>
					<dim>1</dim>
				</port>
			</output>
		</layer>
		<layer id="2" name="model_1/ttl_10/sequential_10/tt_dense_10/t3f_matmul/t3f_transpose/transpose_compressed" type="Const" version="opset1">
			<data element_type="f16" shape="1, 4, 4, 16" offset="0" size="512" />
			<output>
				<port id="0" precision="FP16">
					<dim>1</dim>
					<dim>4</dim>
					<dim>4</dim>
					<dim>16</dim>
				</port>
			</output>
		</layer>
		<layer id="3" name="model_1/ttl_10/sequential_10/tt_dense_10/t3f_matmul/t3f_transpose/transpose" type="Convert" version="opset1">
			<data destination_type="f32" />
			<rt_info>
				<attribute name="decompression" version="0" />
			</rt_info>
			<input>
				<port id="0" precision="FP16">
					<dim>1</dim>
					<dim>4</dim>
					<dim>4</dim>
					<dim>16</dim>
				</port>
			</input>
			<output>
				<port id="1" precision="FP32">
					<dim>1</dim>
					<dim>4</dim>
					<dim>4</dim>
					<dim>16</dim>
				</port>
			</output>
		</layer>
		<layer id="4" name="model_1/ttl_10/sequential_10/tt_dense_10/t3f_matmul/t3f_transpose/transpose_1_compressed" type="Const" version="opset1">
			<data element_type="f16" shape="16, 4, 4, 16" offset="512" size="8192" />
			<output>
				<port id="0" precision="FP16">
					<dim>16</dim>
					<dim>4</dim>
					<dim>4</dim>
					<dim>16</dim>
				</port>
			</output>
		</layer>
		<layer id="5" name="model_1/ttl_10/sequential_10/tt_dense_10/t3f_matmul/t3f_transpose/transpose_1" type="Convert" version="opset1">
			<data destination_type="f32" />
			<rt_info>
				<attribute name="decompression" version="0" />
			</rt_info>
			<input>
				<port id="0" precision="FP16">
					<dim>16</dim>
					<dim>4</dim>
					<dim>4</dim>
					<dim>16</dim>
				</port>
			</input>
			<output>
				<port id="1" precision="FP32">
					<dim>16</dim>
					<dim>4</dim>
					<dim>4</dim>
					<dim>16</dim>
				</port>
			</output>
		</layer>
		<layer id="6" name="model_1/ttl_10/sequential_10/tt_dense_10/t3f_matmul/t3f_transpose/transpose_2_compressed" type="Const" version="opset1">
			<data element_type="f16" shape="16, 4, 2, 16" offset="8704" size="4096" />
			<output>
				<port id="0" precision="FP16">
					<dim>16</dim>
					<dim>4</dim>
					<dim>2</dim>
					<dim>16</dim>
				</port>
			</output>
		</layer>
		<layer id="7" name="model_1/ttl_10/sequential_10/tt_dense_10/t3f_matmul/t3f_transpose/transpose_2" type="Convert" version="opset1">
			<data destination_type="f32" />
			<rt_info>
				<attribute name="decompression" version="0" />
			</rt_info>
			<input>
				<port id="0" precision="FP16">
					<dim>16</dim>
					<dim>4</dim>
					<dim>2</dim>
					<dim>16</dim>
				</port>
			</input>
			<output>
				<port id="1" precision="FP32">
					<dim>16</dim>
					<dim>4</dim>
					<dim>2</dim>
					<dim>16</dim>
				</port>
			</output>
		</layer>
		<layer id="8" name="model_1/ttl_10/sequential_10/tt_dense_10/t3f_matmul/t3f_transpose/transpose_3_compressed" type="Const" version="opset1">
			<data element_type="f16" shape="16, 4, 2, 16" offset="12800" size="4096" />
			<output>
				<port id="0" precision="FP16">
					<dim>16</dim>
					<dim>4</dim>
					<dim>2</dim>
					<dim>16</dim>
				</port>
			</output>
		</layer>
		<layer id="9" name="model_1/ttl_10/sequential_10/tt_dense_10/t3f_matmul/t3f_transpose/transpose_3" type="Convert" version="opset1">
			<data destination_type="f32" />
			<rt_info>
				<attribute name="decompression" version="0" />
			</rt_info>
			<input>
				<port id="0" precision="FP16">
					<dim>16</dim>
					<dim>4</dim>
					<dim>2</dim>
					<dim>16</dim>
				</port>
			</input>
			<output>
				<port id="1" precision="FP32">
					<dim>16</dim>
					<dim>4</dim>
					<dim>2</dim>
					<dim>16</dim>
				</port>
			</output>
		</layer>
		<layer id="10" name="model_1/ttl_10/sequential_10/tt_dense_10/t3f_matmul/t3f_transpose/transpose_4_compressed" type="Const" version="opset1">
			<data element_type="f16" shape="16, 4, 2, 16" offset="16896" size="4096" />
			<output>
				<port id="0" precision="FP16">
					<dim>16</dim>
					<dim>4</dim>
					<dim>2</dim>
					<dim>16</dim>
				</port>
			</output>
		</layer>
		<layer id="11" name="model_1/ttl_10/sequential_10/tt_dense_10/t3f_matmul/t3f_transpose/transpose_4" type="Convert" version="opset1">
			<data destination_type="f32" />
			<rt_info>
				<attribute name="decompression" version="0" />
			</rt_info>
			<input>
				<port id="0" precision="FP16">
					<dim>16</dim>
					<dim>4</dim>
					<dim>2</dim>
					<dim>16</dim>
				</port>
			</input>
			<output>
				<port id="1" precision="FP32">
					<dim>16</dim>
					<dim>4</dim>
					<dim>2</dim>
					<dim>16</dim>
				</port>
			</output>
		</layer>
		<layer id="12" name="model_1/ttl_10/sequential_10/tt_dense_10/t3f_matmul/t3f_transpose/transpose_5_compressed" type="Const" version="opset1">
			<data element_type="f16" shape="16, 4, 2, 7" offset="20992" size="1792" />
			<output>
				<port id="0" precision="FP16">
					<dim>16</dim>
					<dim>4</dim>
					<dim>2</dim>
					<dim>7</dim>
				</port>
			</output>
		</layer>
		<layer id="13" name="model_1/ttl_10/sequential_10/tt_dense_10/t3f_matmul/t3f_transpose/transpose_5" type="Convert" version="opset1">
			<data destination_type="f32" />
			<rt_info>
				<attribute name="decompression" version="0" />
			</rt_info>
			<input>
				<port id="0" precision="FP16">
					<dim>16</dim>
					<dim>4</dim>
					<dim>2</dim>
					<dim>7</dim>
				</port>
			</input>
			<output>
				<port id="1" precision="FP32">
					<dim>16</dim>
					<dim>4</dim>
					<dim>2</dim>
					<dim>7</dim>
				</port>
			</output>
		</layer>
		<layer id="14" name="model_1/ttl_10/sequential_10/tt_dense_10/t3f_matmul/t3f_transpose/transpose_6_compressed" type="Const" version="opset1">
			<data element_type="f16" shape="7, 4, 2, 1" offset="22784" size="112" />
			<output>
				<port id="0" precision="FP16">
					<dim>7</dim>
					<dim>4</dim>
					<dim>2</dim>
					<dim>1</dim>
				</port>
			</output>
		</layer>
		<layer id="15" name="model_1/ttl_10/sequential_10/tt_dense_10/t3f_matmul/t3f_transpose/transpose_6" type="Convert" version="opset1">
			<data destination_type="f32" />
			<rt_info>
				<attribute name="decompression" version="0" />
			</rt_info>
			<input>
				<port id="0" precision="FP16">
					<dim>7</dim>
					<dim>4</dim>
					<dim>2</dim>
					<dim>1</dim>
				</port>
			</input>
			<output>
				<port id="1" precision="FP32">
					<dim>7</dim>
					<dim>4</dim>
					<dim>2</dim>
					<dim>1</dim>
				</port>
			</output>
		</layer>
		<layer id="16" name="Constant_3280" type="Const" version="opset1">
			<data element_type="i32" shape="1" offset="22896" size="4" />
			<output>
				<port id="0" precision="I32">
					<dim>1</dim>
				</port>
			</output>
		</layer>
		<layer id="17" name="model_1/ttl_10/sequential_10/Squeeze" type="Squeeze" version="opset1">
			<input>
				<port id="0" precision="FP32">
					<dim>1</dim>
					<dim>128</dim>
					<dim>16</dim>
					<dim>1</dim>
				</port>
				<port id="1" precision="I32">
					<dim>1</dim>
				</port>
			</input>
			<output>
				<port id="2" precision="FP32">
					<dim>1</dim>
					<dim>128</dim>
					<dim>16</dim>
				</port>
			</output>
		</layer>
		<layer id="18" name="model_1/ttl_10/sequential_10/einsum_ttl_10/strided_slice/stack" type="Const" version="opset1">
			<data element_type="i32" shape="3" offset="22900" size="12" />
			<rt_info>
				<attribute name="precise" version="0" />
			</rt_info>
			<output>
				<port id="0" precision="I32">
					<dim>3</dim>
				</port>
			</output>
		</layer>
		<layer id="19" name="model_1/ttl_10/sequential_10/einsum_ttl_10/strided_slice/stack_1" type="Const" version="opset1">
			<data element_type="i32" shape="3" offset="22912" size="12" />
			<rt_info>
				<attribute name="precise" version="0" />
			</rt_info>
			<output>
				<port id="0" precision="I32">
					<dim>3</dim>
				</port>
			</output>
		</layer>
		<layer id="20" name="model_1/ttl_10/sequential_10/einsum_ttl_10/strided_slice/stack_2" type="Const" version="opset1">
			<data element_type="i32" shape="3" offset="22924" size="12" />
			<rt_info>
				<attribute name="precise" version="0" />
			</rt_info>
			<output>
				<port id="0" precision="I32">
					<dim>3</dim>
				</port>
			</output>
		</layer>
		<layer id="21" name="model_1/ttl_10/sequential_10/einsum_ttl_10/strided_slice" type="StridedSlice" version="opset1">
			<data begin_mask="1, 1, 1" end_mask="1, 0, 0" new_axis_mask="0, 0, 0" shrink_axis_mask="0, 0, 0" ellipsis_mask="0, 0, 0" />
			<input>
				<port id="0" precision="FP32">
					<dim>1</dim>
					<dim>128</dim>
					<dim>16</dim>
				</port>
				<port id="1" precision="I32">
					<dim>3</dim>
				</port>
				<port id="2" precision="I32">
					<dim>3</dim>
				</port>
				<port id="3" precision="I32">
					<dim>3</dim>
				</port>
			</input>
			<output>
				<port id="4" precision="FP32">
					<dim>1</dim>
					<dim>64</dim>
					<dim>8</dim>
				</port>
			</output>
		</layer>
		<layer id="22" name="model_1/ttl_10/sequential_10/einsum_ttl_10/strided_slice_1_compressed" type="Const" version="opset1">
			<data element_type="f16" shape="8" offset="22936" size="16" />
			<output>
				<port id="0" precision="FP16">
					<dim>8</dim>
				</port>
			</output>
		</layer>
		<layer id="23" name="model_1/ttl_10/sequential_10/einsum_ttl_10/strided_slice_1" type="Convert" version="opset1">
			<data destination_type="f32" />
			<rt_info>
				<attribute name="decompression" version="0" />
			</rt_info>
			<input>
				<port id="0" precision="FP16">
					<dim>8</dim>
				</port>
			</input>
			<output>
				<port id="1" precision="FP32">
					<dim>8</dim>
				</port>
			</output>
		</layer>
		<layer id="24" name="model_1/ttl_10/sequential_10/einsum_ttl_10/einsum/Einsum" type="Einsum" version="opset7">
			<data equation="abc,c->ab" />
			<input>
				<port id="0" precision="FP32">
					<dim>1</dim>
					<dim>64</dim>
					<dim>8</dim>
				</port>
				<port id="1" precision="FP32">
					<dim>8</dim>
				</port>
			</input>
			<output>
				<port id="2" precision="FP32">
					<dim>1</dim>
					<dim>64</dim>
				</port>
			</output>
		</layer>
		<layer id="25" name="model_1/ttl_10/sequential_10/einsum_ttl_10/strided_slice_2/stack" type="Const" version="opset1">
			<data element_type="i32" shape="3" offset="22952" size="12" />
			<rt_info>
				<attribute name="precise" version="0" />
			</rt_info>
			<output>
				<port id="0" precision="I32">
					<dim>3</dim>
				</port>
			</output>
		</layer>
		<layer id="26" name="model_1/ttl_10/sequential_10/einsum_ttl_10/strided_slice_2/stack_1" type="Const" version="opset1">
			<data element_type="i32" shape="3" offset="22964" size="12" />
			<rt_info>
				<attribute name="precise" version="0" />
			</rt_info>
			<output>
				<port id="0" precision="I32">
					<dim>3</dim>
				</port>
			</output>
		</layer>
		<layer id="27" name="model_1/ttl_10/sequential_10/einsum_ttl_10/strided_slice_2/stack_2" type="Const" version="opset1">
			<data element_type="i32" shape="3" offset="22924" size="12" />
			<rt_info>
				<attribute name="precise" version="0" />
			</rt_info>
			<output>
				<port id="0" precision="I32">
					<dim>3</dim>
				</port>
			</output>
		</layer>
		<layer id="28" name="model_1/ttl_10/sequential_10/einsum_ttl_10/strided_slice_2" type="StridedSlice" version="opset1">
			<data begin_mask="1, 1" end_mask="1, 0" new_axis_mask="0, 0" shrink_axis_mask="0, 0" ellipsis_mask="0, 0" />
			<input>
				<port id="0" precision="FP32">
					<dim>1</dim>
					<dim>128</dim>
					<dim>16</dim>
				</port>
				<port id="1" precision="I32">
					<dim>3</dim>
				</port>
				<port id="2" precision="I32">
					<dim>3</dim>
				</port>
				<port id="3" precision="I32">
					<dim>3</dim>
				</port>
			</input>
			<output>
				<port id="4" precision="FP32">
					<dim>1</dim>
					<dim>64</dim>
					<dim>8</dim>
				</port>
			</output>
		</layer>
		<layer id="29" name="Unsqueeze_3504_compressed" type="Const" version="opset1">
			<data element_type="f16" shape="1, 8" offset="22976" size="16" />
			<output>
				<port id="0" precision="FP16">
					<dim>1</dim>
					<dim>8</dim>
				</port>
			</output>
		</layer>
		<layer id="30" name="Unsqueeze_3504" type="Convert" version="opset1">
			<data destination_type="f32" />
			<rt_info>
				<attribute name="decompression" version="0" />
			</rt_info>
			<input>
				<port id="0" precision="FP16">
					<dim>1</dim>
					<dim>8</dim>
				</port>
			</input>
			<output>
				<port id="1" precision="FP32">
					<dim>1</dim>
					<dim>8</dim>
				</port>
			</output>
		</layer>
		<layer id="31" name="Broadcast_3511" type="Const" version="opset1">
			<data element_type="i32" shape="1" offset="22992" size="4" />
			<output>
				<port id="0" precision="I32">
					<dim>1</dim>
				</port>
			</output>
		</layer>
		<layer id="32" name="ReverseSequence_3514" type="ReverseSequence" version="opset1">
			<data batch_axis="0" seq_axis="1" />
			<input>
				<port id="0" precision="FP32">
					<dim>1</dim>
					<dim>8</dim>
				</port>
				<port id="1" precision="I32">
					<dim>1</dim>
				</port>
			</input>
			<output>
				<port id="2" precision="FP32">
					<dim>1</dim>
					<dim>8</dim>
				</port>
			</output>
		</layer>
		<layer id="33" name="Constant_3515" type="Const" version="opset1">
			<data element_type="i32" shape="1" offset="22996" size="4" />
			<output>
				<port id="0" precision="I32">
					<dim>1</dim>
				</port>
			</output>
		</layer>
		<layer id="34" name="model_1/ttl_10/sequential_10/einsum_ttl_10/ReverseV2" type="Squeeze" version="opset1">
			<input>
				<port id="0" precision="FP32">
					<dim>1</dim>
					<dim>8</dim>
				</port>
				<port id="1" precision="I32">
					<dim>1</dim>
				</port>
			</input>
			<output>
				<port id="2" precision="FP32">
					<dim>8</dim>
				</port>
			</output>
		</layer>
		<layer id="35" name="model_1/ttl_10/sequential_10/einsum_ttl_10/einsum_1/Einsum" type="Einsum" version="opset7">
			<data equation="abc,c->ab" />
			<input>
				<port id="0" precision="FP32">
					<dim>1</dim>
					<dim>64</dim>
					<dim>8</dim>
				</port>
				<port id="1" precision="FP32">
					<dim>8</dim>
				</port>
			</input>
			<output>
				<port id="2" precision="FP32">
					<dim>1</dim>
					<dim>64</dim>
				</port>
			</output>
		</layer>
		<layer id="36" name="model_1/ttl_10/sequential_10/einsum_ttl_10/add" type="Add" version="opset1">
			<data auto_broadcast="numpy" />
			<input>
				<port id="0" precision="FP32">
					<dim>1</dim>
					<dim>64</dim>
				</port>
				<port id="1" precision="FP32">
					<dim>1</dim>
					<dim>64</dim>
				</port>
			</input>
			<output>
				<port id="2" precision="FP32">
					<dim>1</dim>
					<dim>64</dim>
				</port>
			</output>
		</layer>
		<layer id="37" name="model_1/ttl_10/sequential_10/einsum_ttl_10/strided_slice_4/stack" type="Const" version="opset1">
			<data element_type="i32" shape="3" offset="23000" size="12" />
			<rt_info>
				<attribute name="precise" version="0" />
			</rt_info>
			<output>
				<port id="0" precision="I32">
					<dim>3</dim>
				</port>
			</output>
		</layer>
		<layer id="38" name="model_1/ttl_10/sequential_10/einsum_ttl_10/strided_slice_4/stack_1" type="Const" version="opset1">
			<data element_type="i32" shape="3" offset="22952" size="12" />
			<rt_info>
				<attribute name="precise" version="0" />
			</rt_info>
			<output>
				<port id="0" precision="I32">
					<dim>3</dim>
				</port>
			</output>
		</layer>
		<layer id="39" name="model_1/ttl_10/sequential_10/einsum_ttl_10/strided_slice_4/stack_2" type="Const" version="opset1">
			<data element_type="i32" shape="3" offset="22924" size="12" />
			<rt_info>
				<attribute name="precise" version="0" />
			</rt_info>
			<output>
				<port id="0" precision="I32">
					<dim>3</dim>
				</port>
			</output>
		</layer>
		<layer id="40" name="model_1/ttl_10/sequential_10/einsum_ttl_10/strided_slice_4" type="StridedSlice" version="opset1">
			<data begin_mask="1, 0, 1" end_mask="1, 1, 0" new_axis_mask="0, 0, 0" shrink_axis_mask="0, 0, 0" ellipsis_mask="0, 0, 0" />
			<input>
				<port id="0" precision="FP32">
					<dim>1</dim>
					<dim>128</dim>
					<dim>16</dim>
				</port>
				<port id="1" precision="I32">
					<dim>3</dim>
				</port>
				<port id="2" precision="I32">
					<dim>3</dim>
				</port>
				<port id="3" precision="I32">
					<dim>3</dim>
				</port>
			</input>
			<output>
				<port id="4" precision="FP32">
					<dim>1</dim>
					<dim>64</dim>
					<dim>8</dim>
				</port>
			</output>
		</layer>
		<layer id="41" name="model_1/ttl_10/sequential_10/einsum_ttl_10/strided_slice_5_compressed" type="Const" version="opset1">
			<data element_type="f16" shape="8" offset="23012" size="16" />
			<output>
				<port id="0" precision="FP16">
					<dim>8</dim>
				</port>
			</output>
		</layer>
		<layer id="42" name="model_1/ttl_10/sequential_10/einsum_ttl_10/strided_slice_5" type="Convert" version="opset1">
			<data destination_type="f32" />
			<rt_info>
				<attribute name="decompression" version="0" />
			</rt_info>
			<input>
				<port id="0" precision="FP16">
					<dim>8</dim>
				</port>
			</input>
			<output>
				<port id="1" precision="FP32">
					<dim>8</dim>
				</port>
			</output>
		</layer>
		<layer id="43" name="model_1/ttl_10/sequential_10/einsum_ttl_10/einsum_2/Einsum" type="Einsum" version="opset7">
			<data equation="abc,c->ab" />
			<input>
				<port id="0" precision="FP32">
					<dim>1</dim>
					<dim>64</dim>
					<dim>8</dim>
				</port>
				<port id="1" precision="FP32">
					<dim>8</dim>
				</port>
			</input>
			<output>
				<port id="2" precision="FP32">
					<dim>1</dim>
					<dim>64</dim>
				</port>
			</output>
		</layer>
		<layer id="44" name="model_1/ttl_10/sequential_10/einsum_ttl_10/strided_slice_6/stack" type="Const" version="opset1">
			<data element_type="i32" shape="3" offset="22912" size="12" />
			<rt_info>
				<attribute name="precise" version="0" />
			</rt_info>
			<output>
				<port id="0" precision="I32">
					<dim>3</dim>
				</port>
			</output>
		</layer>
		<layer id="45" name="model_1/ttl_10/sequential_10/einsum_ttl_10/strided_slice_6/stack_1" type="Const" version="opset1">
			<data element_type="i32" shape="3" offset="23028" size="12" />
			<rt_info>
				<attribute name="precise" version="0" />
			</rt_info>
			<output>
				<port id="0" precision="I32">
					<dim>3</dim>
				</port>
			</output>
		</layer>
		<layer id="46" name="model_1/ttl_10/sequential_10/einsum_ttl_10/strided_slice_6/stack_2" type="Const" version="opset1">
			<data element_type="i32" shape="3" offset="22924" size="12" />
			<rt_info>
				<attribute name="precise" version="0" />
			</rt_info>
			<output>
				<port id="0" precision="I32">
					<dim>3</dim>
				</port>
			</output>
		</layer>
		<layer id="47" name="model_1/ttl_10/sequential_10/einsum_ttl_10/strided_slice_6" type="StridedSlice" version="opset1">
			<data begin_mask="1, 0" end_mask="1, 1" new_axis_mask="0, 0" shrink_axis_mask="0, 0" ellipsis_mask="0, 0" />
			<input>
				<port id="0" precision="FP32">
					<dim>1</dim>
					<dim>128</dim>
					<dim>16</dim>
				</port>
				<port id="1" precision="I32">
					<dim>3</dim>
				</port>
				<port id="2" precision="I32">
					<dim>3</dim>
				</port>
				<port id="3" precision="I32">
					<dim>3</dim>
				</port>
			</input>
			<output>
				<port id="4" precision="FP32">
					<dim>1</dim>
					<dim>64</dim>
					<dim>8</dim>
				</port>
			</output>
		</layer>
		<layer id="48" name="Unsqueeze_3470_compressed" type="Const" version="opset1">
			<data element_type="f16" shape="1, 8" offset="23040" size="16" />
			<output>
				<port id="0" precision="FP16">
					<dim>1</dim>
					<dim>8</dim>
				</port>
			</output>
		</layer>
		<layer id="49" name="Unsqueeze_3470" type="Convert" version="opset1">
			<data destination_type="f32" />
			<rt_info>
				<attribute name="decompression" version="0" />
			</rt_info>
			<input>
				<port id="0" precision="FP16">
					<dim>1</dim>
					<dim>8</dim>
				</port>
			</input>
			<output>
				<port id="1" precision="FP32">
					<dim>1</dim>
					<dim>8</dim>
				</port>
			</output>
		</layer>
		<layer id="50" name="Broadcast_3477" type="Const" version="opset1">
			<data element_type="i32" shape="1" offset="22992" size="4" />
			<output>
				<port id="0" precision="I32">
					<dim>1</dim>
				</port>
			</output>
		</layer>
		<layer id="51" name="ReverseSequence_3480" type="ReverseSequence" version="opset1">
			<data batch_axis="0" seq_axis="1" />
			<input>
				<port id="0" precision="FP32">
					<dim>1</dim>
					<dim>8</dim>
				</port>
				<port id="1" precision="I32">
					<dim>1</dim>
				</port>
			</input>
			<output>
				<port id="2" precision="FP32">
					<dim>1</dim>
					<dim>8</dim>
				</port>
			</output>
		</layer>
		<layer id="52" name="Constant_3481" type="Const" version="opset1">
			<data element_type="i32" shape="1" offset="22996" size="4" />
			<output>
				<port id="0" precision="I32">
					<dim>1</dim>
				</port>
			</output>
		</layer>
		<layer id="53" name="model_1/ttl_10/sequential_10/einsum_ttl_10/ReverseV2_1" type="Squeeze" version="opset1">
			<input>
				<port id="0" precision="FP32">
					<dim>1</dim>
					<dim>8</dim>
				</port>
				<port id="1" precision="I32">
					<dim>1</dim>
				</port>
			</input>
			<output>
				<port id="2" precision="FP32">
					<dim>8</dim>
				</port>
			</output>
		</layer>
		<layer id="54" name="model_1/ttl_10/sequential_10/einsum_ttl_10/einsum_3/Einsum" type="Einsum" version="opset7">
			<data equation="abc,c->ab" />
			<input>
				<port id="0" precision="FP32">
					<dim>1</dim>
					<dim>64</dim>
					<dim>8</dim>
				</port>
				<port id="1" precision="FP32">
					<dim>8</dim>
				</port>
			</input>
			<output>
				<port id="2" precision="FP32">
					<dim>1</dim>
					<dim>64</dim>
				</port>
			</output>
		</layer>
		<layer id="55" name="model_1/ttl_10/sequential_10/einsum_ttl_10/add_1" type="Add" version="opset1">
			<data auto_broadcast="numpy" />
			<input>
				<port id="0" precision="FP32">
					<dim>1</dim>
					<dim>64</dim>
				</port>
				<port id="1" precision="FP32">
					<dim>1</dim>
					<dim>64</dim>
				</port>
			</input>
			<output>
				<port id="2" precision="FP32">
					<dim>1</dim>
					<dim>64</dim>
				</port>
			</output>
		</layer>
		<layer id="56" name="model_1/ttl_10/sequential_10/einsum_ttl_10/strided_slice_8/stack" type="Const" version="opset1">
			<data element_type="i32" shape="3" offset="22900" size="12" />
			<rt_info>
				<attribute name="precise" version="0" />
			</rt_info>
			<output>
				<port id="0" precision="I32">
					<dim>3</dim>
				</port>
			</output>
		</layer>
		<layer id="57" name="model_1/ttl_10/sequential_10/einsum_ttl_10/strided_slice_8/stack_1" type="Const" version="opset1">
			<data element_type="i32" shape="3" offset="22912" size="12" />
			<rt_info>
				<attribute name="precise" version="0" />
			</rt_info>
			<output>
				<port id="0" precision="I32">
					<dim>3</dim>
				</port>
			</output>
		</layer>
		<layer id="58" name="model_1/ttl_10/sequential_10/einsum_ttl_10/strided_slice_8/stack_2" type="Const" version="opset1">
			<data element_type="i32" shape="3" offset="22924" size="12" />
			<rt_info>
				<attribute name="precise" version="0" />
			</rt_info>
			<output>
				<port id="0" precision="I32">
					<dim>3</dim>
				</port>
			</output>
		</layer>
		<layer id="59" name="model_1/ttl_10/sequential_10/einsum_ttl_10/strided_slice_8" type="StridedSlice" version="opset1">
			<data begin_mask="1, 1, 1" end_mask="1, 0, 0" new_axis_mask="0, 0, 0" shrink_axis_mask="0, 0, 0" ellipsis_mask="0, 0, 0" />
			<input>
				<port id="0" precision="FP32">
					<dim>1</dim>
					<dim>128</dim>
					<dim>16</dim>
				</port>
				<port id="1" precision="I32">
					<dim>3</dim>
				</port>
				<port id="2" precision="I32">
					<dim>3</dim>
				</port>
				<port id="3" precision="I32">
					<dim>3</dim>
				</port>
			</input>
			<output>
				<port id="4" precision="FP32">
					<dim>1</dim>
					<dim>64</dim>
					<dim>8</dim>
				</port>
			</output>
		</layer>
		<layer id="60" name="model_1/ttl_10/sequential_10/einsum_ttl_10/strided_slice_9_compressed" type="Const" version="opset1">
			<data element_type="f16" shape="8" offset="23056" size="16" />
			<output>
				<port id="0" precision="FP16">
					<dim>8</dim>
				</port>
			</output>
		</layer>
		<layer id="61" name="model_1/ttl_10/sequential_10/einsum_ttl_10/strided_slice_9" type="Convert" version="opset1">
			<data destination_type="f32" />
			<rt_info>
				<attribute name="decompression" version="0" />
			</rt_info>
			<input>
				<port id="0" precision="FP16">
					<dim>8</dim>
				</port>
			</input>
			<output>
				<port id="1" precision="FP32">
					<dim>8</dim>
				</port>
			</output>
		</layer>
		<layer id="62" name="model_1/ttl_10/sequential_10/einsum_ttl_10/einsum_4/Einsum" type="Einsum" version="opset7">
			<data equation="abc,c->ab" />
			<input>
				<port id="0" precision="FP32">
					<dim>1</dim>
					<dim>64</dim>
					<dim>8</dim>
				</port>
				<port id="1" precision="FP32">
					<dim>8</dim>
				</port>
			</input>
			<output>
				<port id="2" precision="FP32">
					<dim>1</dim>
					<dim>64</dim>
				</port>
			</output>
		</layer>
		<layer id="63" name="model_1/ttl_10/sequential_10/einsum_ttl_10/strided_slice_10/stack" type="Const" version="opset1">
			<data element_type="i32" shape="3" offset="22952" size="12" />
			<rt_info>
				<attribute name="precise" version="0" />
			</rt_info>
			<output>
				<port id="0" precision="I32">
					<dim>3</dim>
				</port>
			</output>
		</layer>
		<layer id="64" name="model_1/ttl_10/sequential_10/einsum_ttl_10/strided_slice_10/stack_1" type="Const" version="opset1">
			<data element_type="i32" shape="3" offset="22964" size="12" />
			<rt_info>
				<attribute name="precise" version="0" />
			</rt_info>
			<output>
				<port id="0" precision="I32">
					<dim>3</dim>
				</port>
			</output>
		</layer>
		<layer id="65" name="model_1/ttl_10/sequential_10/einsum_ttl_10/strided_slice_10/stack_2" type="Const" version="opset1">
			<data element_type="i32" shape="3" offset="22924" size="12" />
			<rt_info>
				<attribute name="precise" version="0" />
			</rt_info>
			<output>
				<port id="0" precision="I32">
					<dim>3</dim>
				</port>
			</output>
		</layer>
		<layer id="66" name="model_1/ttl_10/sequential_10/einsum_ttl_10/strided_slice_10" type="StridedSlice" version="opset1">
			<data begin_mask="1, 1" end_mask="1, 0" new_axis_mask="0, 0" shrink_axis_mask="0, 0" ellipsis_mask="0, 0" />
			<input>
				<port id="0" precision="FP32">
					<dim>1</dim>
					<dim>128</dim>
					<dim>16</dim>
				</port>
				<port id="1" precision="I32">
					<dim>3</dim>
				</port>
				<port id="2" precision="I32">
					<dim>3</dim>
				</port>
				<port id="3" precision="I32">
					<dim>3</dim>
				</port>
			</input>
			<output>
				<port id="4" precision="FP32">
					<dim>1</dim>
					<dim>64</dim>
					<dim>8</dim>
				</port>
			</output>
		</layer>
		<layer id="67" name="Unsqueeze_3436_compressed" type="Const" version="opset1">
			<data element_type="f16" shape="1, 8" offset="23072" size="16" />
			<output>
				<port id="0" precision="FP16">
					<dim>1</dim>
					<dim>8</dim>
				</port>
			</output>
		</layer>
		<layer id="68" name="Unsqueeze_3436" type="Convert" version="opset1">
			<data destination_type="f32" />
			<rt_info>
				<attribute name="decompression" version="0" />
			</rt_info>
			<input>
				<port id="0" precision="FP16">
					<dim>1</dim>
					<dim>8</dim>
				</port>
			</input>
			<output>
				<port id="1" precision="FP32">
					<dim>1</dim>
					<dim>8</dim>
				</port>
			</output>
		</layer>
		<layer id="69" name="Broadcast_3443" type="Const" version="opset1">
			<data element_type="i32" shape="1" offset="22992" size="4" />
			<output>
				<port id="0" precision="I32">
					<dim>1</dim>
				</port>
			</output>
		</layer>
		<layer id="70" name="ReverseSequence_3446" type="ReverseSequence" version="opset1">
			<data batch_axis="0" seq_axis="1" />
			<input>
				<port id="0" precision="FP32">
					<dim>1</dim>
					<dim>8</dim>
				</port>
				<port id="1" precision="I32">
					<dim>1</dim>
				</port>
			</input>
			<output>
				<port id="2" precision="FP32">
					<dim>1</dim>
					<dim>8</dim>
				</port>
			</output>
		</layer>
		<layer id="71" name="Constant_3447" type="Const" version="opset1">
			<data element_type="i32" shape="1" offset="22996" size="4" />
			<output>
				<port id="0" precision="I32">
					<dim>1</dim>
				</port>
			</output>
		</layer>
		<layer id="72" name="model_1/ttl_10/sequential_10/einsum_ttl_10/ReverseV2_2" type="Squeeze" version="opset1">
			<input>
				<port id="0" precision="FP32">
					<dim>1</dim>
					<dim>8</dim>
				</port>
				<port id="1" precision="I32">
					<dim>1</dim>
				</port>
			</input>
			<output>
				<port id="2" precision="FP32">
					<dim>8</dim>
				</port>
			</output>
		</layer>
		<layer id="73" name="model_1/ttl_10/sequential_10/einsum_ttl_10/einsum_5/Einsum" type="Einsum" version="opset7">
			<data equation="abc,c->ab" />
			<input>
				<port id="0" precision="FP32">
					<dim>1</dim>
					<dim>64</dim>
					<dim>8</dim>
				</port>
				<port id="1" precision="FP32">
					<dim>8</dim>
				</port>
			</input>
			<output>
				<port id="2" precision="FP32">
					<dim>1</dim>
					<dim>64</dim>
				</port>
			</output>
		</layer>
		<layer id="74" name="model_1/ttl_10/sequential_10/einsum_ttl_10/add_2" type="Add" version="opset1">
			<data auto_broadcast="numpy" />
			<input>
				<port id="0" precision="FP32">
					<dim>1</dim>
					<dim>64</dim>
				</port>
				<port id="1" precision="FP32">
					<dim>1</dim>
					<dim>64</dim>
				</port>
			</input>
			<output>
				<port id="2" precision="FP32">
					<dim>1</dim>
					<dim>64</dim>
				</port>
			</output>
		</layer>
		<layer id="75" name="model_1/ttl_10/sequential_10/einsum_ttl_10/strided_slice_12/stack" type="Const" version="opset1">
			<data element_type="i32" shape="3" offset="23000" size="12" />
			<rt_info>
				<attribute name="precise" version="0" />
			</rt_info>
			<output>
				<port id="0" precision="I32">
					<dim>3</dim>
				</port>
			</output>
		</layer>
		<layer id="76" name="model_1/ttl_10/sequential_10/einsum_ttl_10/strided_slice_12/stack_1" type="Const" version="opset1">
			<data element_type="i32" shape="3" offset="22952" size="12" />
			<rt_info>
				<attribute name="precise" version="0" />
			</rt_info>
			<output>
				<port id="0" precision="I32">
					<dim>3</dim>
				</port>
			</output>
		</layer>
		<layer id="77" name="model_1/ttl_10/sequential_10/einsum_ttl_10/strided_slice_12/stack_2" type="Const" version="opset1">
			<data element_type="i32" shape="3" offset="22924" size="12" />
			<rt_info>
				<attribute name="precise" version="0" />
			</rt_info>
			<output>
				<port id="0" precision="I32">
					<dim>3</dim>
				</port>
			</output>
		</layer>
		<layer id="78" name="model_1/ttl_10/sequential_10/einsum_ttl_10/strided_slice_12" type="StridedSlice" version="opset1">
			<data begin_mask="1, 0, 1" end_mask="1, 1, 0" new_axis_mask="0, 0, 0" shrink_axis_mask="0, 0, 0" ellipsis_mask="0, 0, 0" />
			<input>
				<port id="0" precision="FP32">
					<dim>1</dim>
					<dim>128</dim>
					<dim>16</dim>
				</port>
				<port id="1" precision="I32">
					<dim>3</dim>
				</port>
				<port id="2" precision="I32">
					<dim>3</dim>
				</port>
				<port id="3" precision="I32">
					<dim>3</dim>
				</port>
			</input>
			<output>
				<port id="4" precision="FP32">
					<dim>1</dim>
					<dim>64</dim>
					<dim>8</dim>
				</port>
			</output>
		</layer>
		<layer id="79" name="model_1/ttl_10/sequential_10/einsum_ttl_10/strided_slice_13_compressed" type="Const" version="opset1">
			<data element_type="f16" shape="8" offset="23088" size="16" />
			<output>
				<port id="0" precision="FP16">
					<dim>8</dim>
				</port>
			</output>
		</layer>
		<layer id="80" name="model_1/ttl_10/sequential_10/einsum_ttl_10/strided_slice_13" type="Convert" version="opset1">
			<data destination_type="f32" />
			<rt_info>
				<attribute name="decompression" version="0" />
			</rt_info>
			<input>
				<port id="0" precision="FP16">
					<dim>8</dim>
				</port>
			</input>
			<output>
				<port id="1" precision="FP32">
					<dim>8</dim>
				</port>
			</output>
		</layer>
		<layer id="81" name="model_1/ttl_10/sequential_10/einsum_ttl_10/einsum_6/Einsum" type="Einsum" version="opset7">
			<data equation="abc,c->ab" />
			<input>
				<port id="0" precision="FP32">
					<dim>1</dim>
					<dim>64</dim>
					<dim>8</dim>
				</port>
				<port id="1" precision="FP32">
					<dim>8</dim>
				</port>
			</input>
			<output>
				<port id="2" precision="FP32">
					<dim>1</dim>
					<dim>64</dim>
				</port>
			</output>
		</layer>
		<layer id="82" name="model_1/ttl_10/sequential_10/einsum_ttl_10/strided_slice_14/stack" type="Const" version="opset1">
			<data element_type="i32" shape="3" offset="22912" size="12" />
			<rt_info>
				<attribute name="precise" version="0" />
			</rt_info>
			<output>
				<port id="0" precision="I32">
					<dim>3</dim>
				</port>
			</output>
		</layer>
		<layer id="83" name="model_1/ttl_10/sequential_10/einsum_ttl_10/strided_slice_14/stack_1" type="Const" version="opset1">
			<data element_type="i32" shape="3" offset="23028" size="12" />
			<rt_info>
				<attribute name="precise" version="0" />
			</rt_info>
			<output>
				<port id="0" precision="I32">
					<dim>3</dim>
				</port>
			</output>
		</layer>
		<layer id="84" name="model_1/ttl_10/sequential_10/einsum_ttl_10/strided_slice_14/stack_2" type="Const" version="opset1">
			<data element_type="i32" shape="3" offset="22924" size="12" />
			<rt_info>
				<attribute name="precise" version="0" />
			</rt_info>
			<output>
				<port id="0" precision="I32">
					<dim>3</dim>
				</port>
			</output>
		</layer>
		<layer id="85" name="model_1/ttl_10/sequential_10/einsum_ttl_10/strided_slice_14" type="StridedSlice" version="opset1">
			<data begin_mask="1, 0" end_mask="1, 1" new_axis_mask="0, 0" shrink_axis_mask="0, 0" ellipsis_mask="0, 0" />
			<input>
				<port id="0" precision="FP32">
					<dim>1</dim>
					<dim>128</dim>
					<dim>16</dim>
				</port>
				<port id="1" precision="I32">
					<dim>3</dim>
				</port>
				<port id="2" precision="I32">
					<dim>3</dim>
				</port>
				<port id="3" precision="I32">
					<dim>3</dim>
				</port>
			</input>
			<output>
				<port id="4" precision="FP32">
					<dim>1</dim>
					<dim>64</dim>
					<dim>8</dim>
				</port>
			</output>
		</layer>
		<layer id="86" name="Unsqueeze_3402_compressed" type="Const" version="opset1">
			<data element_type="f16" shape="1, 8" offset="23104" size="16" />
			<output>
				<port id="0" precision="FP16">
					<dim>1</dim>
					<dim>8</dim>
				</port>
			</output>
		</layer>
		<layer id="87" name="Unsqueeze_3402" type="Convert" version="opset1">
			<data destination_type="f32" />
			<rt_info>
				<attribute name="decompression" version="0" />
			</rt_info>
			<input>
				<port id="0" precision="FP16">
					<dim>1</dim>
					<dim>8</dim>
				</port>
			</input>
			<output>
				<port id="1" precision="FP32">
					<dim>1</dim>
					<dim>8</dim>
				</port>
			</output>
		</layer>
		<layer id="88" name="Broadcast_3409" type="Const" version="opset1">
			<data element_type="i32" shape="1" offset="22992" size="4" />
			<output>
				<port id="0" precision="I32">
					<dim>1</dim>
				</port>
			</output>
		</layer>
		<layer id="89" name="ReverseSequence_3412" type="ReverseSequence" version="opset1">
			<data batch_axis="0" seq_axis="1" />
			<input>
				<port id="0" precision="FP32">
					<dim>1</dim>
					<dim>8</dim>
				</port>
				<port id="1" precision="I32">
					<dim>1</dim>
				</port>
			</input>
			<output>
				<port id="2" precision="FP32">
					<dim>1</dim>
					<dim>8</dim>
				</port>
			</output>
		</layer>
		<layer id="90" name="Constant_3413" type="Const" version="opset1">
			<data element_type="i32" shape="1" offset="22996" size="4" />
			<output>
				<port id="0" precision="I32">
					<dim>1</dim>
				</port>
			</output>
		</layer>
		<layer id="91" name="model_1/ttl_10/sequential_10/einsum_ttl_10/ReverseV2_3" type="Squeeze" version="opset1">
			<input>
				<port id="0" precision="FP32">
					<dim>1</dim>
					<dim>8</dim>
				</port>
				<port id="1" precision="I32">
					<dim>1</dim>
				</port>
			</input>
			<output>
				<port id="2" precision="FP32">
					<dim>8</dim>
				</port>
			</output>
		</layer>
		<layer id="92" name="model_1/ttl_10/sequential_10/einsum_ttl_10/einsum_7/Einsum" type="Einsum" version="opset7">
			<data equation="abc,c->ab" />
			<input>
				<port id="0" precision="FP32">
					<dim>1</dim>
					<dim>64</dim>
					<dim>8</dim>
				</port>
				<port id="1" precision="FP32">
					<dim>8</dim>
				</port>
			</input>
			<output>
				<port id="2" precision="FP32">
					<dim>1</dim>
					<dim>64</dim>
				</port>
			</output>
		</layer>
		<layer id="93" name="model_1/ttl_10/sequential_10/einsum_ttl_10/add_3" type="Add" version="opset1">
			<data auto_broadcast="numpy" />
			<input>
				<port id="0" precision="FP32">
					<dim>1</dim>
					<dim>64</dim>
				</port>
				<port id="1" precision="FP32">
					<dim>1</dim>
					<dim>64</dim>
				</port>
			</input>
			<output>
				<port id="2" precision="FP32">
					<dim>1</dim>
					<dim>64</dim>
				</port>
			</output>
		</layer>
		<layer id="94" name="model_1/ttl_10/sequential_10/einsum_ttl_10/strided_slice_16/stack" type="Const" version="opset1">
			<data element_type="i32" shape="3" offset="22900" size="12" />
			<rt_info>
				<attribute name="precise" version="0" />
			</rt_info>
			<output>
				<port id="0" precision="I32">
					<dim>3</dim>
				</port>
			</output>
		</layer>
		<layer id="95" name="model_1/ttl_10/sequential_10/einsum_ttl_10/strided_slice_16/stack_1" type="Const" version="opset1">
			<data element_type="i32" shape="3" offset="22912" size="12" />
			<rt_info>
				<attribute name="precise" version="0" />
			</rt_info>
			<output>
				<port id="0" precision="I32">
					<dim>3</dim>
				</port>
			</output>
		</layer>
		<layer id="96" name="model_1/ttl_10/sequential_10/einsum_ttl_10/strided_slice_16/stack_2" type="Const" version="opset1">
			<data element_type="i32" shape="3" offset="22924" size="12" />
			<rt_info>
				<attribute name="precise" version="0" />
			</rt_info>
			<output>
				<port id="0" precision="I32">
					<dim>3</dim>
				</port>
			</output>
		</layer>
		<layer id="97" name="model_1/ttl_10/sequential_10/einsum_ttl_10/strided_slice_16" type="StridedSlice" version="opset1">
			<data begin_mask="1, 1, 1" end_mask="1, 0, 0" new_axis_mask="0, 0, 0" shrink_axis_mask="0, 0, 0" ellipsis_mask="0, 0, 0" />
			<input>
				<port id="0" precision="FP32">
					<dim>1</dim>
					<dim>128</dim>
					<dim>16</dim>
				</port>
				<port id="1" precision="I32">
					<dim>3</dim>
				</port>
				<port id="2" precision="I32">
					<dim>3</dim>
				</port>
				<port id="3" precision="I32">
					<dim>3</dim>
				</port>
			</input>
			<output>
				<port id="4" precision="FP32">
					<dim>1</dim>
					<dim>64</dim>
					<dim>8</dim>
				</port>
			</output>
		</layer>
		<layer id="98" name="model_1/ttl_10/sequential_10/einsum_ttl_10/strided_slice_17_compressed" type="Const" version="opset1">
			<data element_type="f16" shape="8" offset="23120" size="16" />
			<output>
				<port id="0" precision="FP16">
					<dim>8</dim>
				</port>
			</output>
		</layer>
		<layer id="99" name="model_1/ttl_10/sequential_10/einsum_ttl_10/strided_slice_17" type="Convert" version="opset1">
			<data destination_type="f32" />
			<rt_info>
				<attribute name="decompression" version="0" />
			</rt_info>
			<input>
				<port id="0" precision="FP16">
					<dim>8</dim>
				</port>
			</input>
			<output>
				<port id="1" precision="FP32">
					<dim>8</dim>
				</port>
			</output>
		</layer>
		<layer id="100" name="model_1/ttl_10/sequential_10/einsum_ttl_10/einsum_8/Einsum" type="Einsum" version="opset7">
			<data equation="abc,c->ab" />
			<input>
				<port id="0" precision="FP32">
					<dim>1</dim>
					<dim>64</dim>
					<dim>8</dim>
				</port>
				<port id="1" precision="FP32">
					<dim>8</dim>
				</port>
			</input>
			<output>
				<port id="2" precision="FP32">
					<dim>1</dim>
					<dim>64</dim>
				</port>
			</output>
		</layer>
		<layer id="101" name="model_1/ttl_10/sequential_10/einsum_ttl_10/strided_slice_18/stack" type="Const" version="opset1">
			<data element_type="i32" shape="3" offset="22952" size="12" />
			<rt_info>
				<attribute name="precise" version="0" />
			</rt_info>
			<output>
				<port id="0" precision="I32">
					<dim>3</dim>
				</port>
			</output>
		</layer>
		<layer id="102" name="model_1/ttl_10/sequential_10/einsum_ttl_10/strided_slice_18/stack_1" type="Const" version="opset1">
			<data element_type="i32" shape="3" offset="22964" size="12" />
			<rt_info>
				<attribute name="precise" version="0" />
			</rt_info>
			<output>
				<port id="0" precision="I32">
					<dim>3</dim>
				</port>
			</output>
		</layer>
		<layer id="103" name="model_1/ttl_10/sequential_10/einsum_ttl_10/strided_slice_18/stack_2" type="Const" version="opset1">
			<data element_type="i32" shape="3" offset="22924" size="12" />
			<rt_info>
				<attribute name="precise" version="0" />
			</rt_info>
			<output>
				<port id="0" precision="I32">
					<dim>3</dim>
				</port>
			</output>
		</layer>
		<layer id="104" name="model_1/ttl_10/sequential_10/einsum_ttl_10/strided_slice_18" type="StridedSlice" version="opset1">
			<data begin_mask="1, 1" end_mask="1, 0" new_axis_mask="0, 0" shrink_axis_mask="0, 0" ellipsis_mask="0, 0" />
			<input>
				<port id="0" precision="FP32">
					<dim>1</dim>
					<dim>128</dim>
					<dim>16</dim>
				</port>
				<port id="1" precision="I32">
					<dim>3</dim>
				</port>
				<port id="2" precision="I32">
					<dim>3</dim>
				</port>
				<port id="3" precision="I32">
					<dim>3</dim>
				</port>
			</input>
			<output>
				<port id="4" precision="FP32">
					<dim>1</dim>
					<dim>64</dim>
					<dim>8</dim>
				</port>
			</output>
		</layer>
		<layer id="105" name="Unsqueeze_3368_compressed" type="Const" version="opset1">
			<data element_type="f16" shape="1, 8" offset="23136" size="16" />
			<output>
				<port id="0" precision="FP16">
					<dim>1</dim>
					<dim>8</dim>
				</port>
			</output>
		</layer>
		<layer id="106" name="Unsqueeze_3368" type="Convert" version="opset1">
			<data destination_type="f32" />
			<rt_info>
				<attribute name="decompression" version="0" />
			</rt_info>
			<input>
				<port id="0" precision="FP16">
					<dim>1</dim>
					<dim>8</dim>
				</port>
			</input>
			<output>
				<port id="1" precision="FP32">
					<dim>1</dim>
					<dim>8</dim>
				</port>
			</output>
		</layer>
		<layer id="107" name="Broadcast_3375" type="Const" version="opset1">
			<data element_type="i32" shape="1" offset="22992" size="4" />
			<output>
				<port id="0" precision="I32">
					<dim>1</dim>
				</port>
			</output>
		</layer>
		<layer id="108" name="ReverseSequence_3378" type="ReverseSequence" version="opset1">
			<data batch_axis="0" seq_axis="1" />
			<input>
				<port id="0" precision="FP32">
					<dim>1</dim>
					<dim>8</dim>
				</port>
				<port id="1" precision="I32">
					<dim>1</dim>
				</port>
			</input>
			<output>
				<port id="2" precision="FP32">
					<dim>1</dim>
					<dim>8</dim>
				</port>
			</output>
		</layer>
		<layer id="109" name="Constant_3379" type="Const" version="opset1">
			<data element_type="i32" shape="1" offset="22996" size="4" />
			<output>
				<port id="0" precision="I32">
					<dim>1</dim>
				</port>
			</output>
		</layer>
		<layer id="110" name="model_1/ttl_10/sequential_10/einsum_ttl_10/ReverseV2_4" type="Squeeze" version="opset1">
			<input>
				<port id="0" precision="FP32">
					<dim>1</dim>
					<dim>8</dim>
				</port>
				<port id="1" precision="I32">
					<dim>1</dim>
				</port>
			</input>
			<output>
				<port id="2" precision="FP32">
					<dim>8</dim>
				</port>
			</output>
		</layer>
		<layer id="111" name="model_1/ttl_10/sequential_10/einsum_ttl_10/einsum_9/Einsum" type="Einsum" version="opset7">
			<data equation="abc,c->ab" />
			<input>
				<port id="0" precision="FP32">
					<dim>1</dim>
					<dim>64</dim>
					<dim>8</dim>
				</port>
				<port id="1" precision="FP32">
					<dim>8</dim>
				</port>
			</input>
			<output>
				<port id="2" precision="FP32">
					<dim>1</dim>
					<dim>64</dim>
				</port>
			</output>
		</layer>
		<layer id="112" name="model_1/ttl_10/sequential_10/einsum_ttl_10/add_4" type="Add" version="opset1">
			<data auto_broadcast="numpy" />
			<input>
				<port id="0" precision="FP32">
					<dim>1</dim>
					<dim>64</dim>
				</port>
				<port id="1" precision="FP32">
					<dim>1</dim>
					<dim>64</dim>
				</port>
			</input>
			<output>
				<port id="2" precision="FP32">
					<dim>1</dim>
					<dim>64</dim>
				</port>
			</output>
		</layer>
		<layer id="113" name="model_1/ttl_10/sequential_10/einsum_ttl_10/strided_slice_20/stack" type="Const" version="opset1">
			<data element_type="i32" shape="3" offset="23000" size="12" />
			<rt_info>
				<attribute name="precise" version="0" />
			</rt_info>
			<output>
				<port id="0" precision="I32">
					<dim>3</dim>
				</port>
			</output>
		</layer>
		<layer id="114" name="model_1/ttl_10/sequential_10/einsum_ttl_10/strided_slice_20/stack_1" type="Const" version="opset1">
			<data element_type="i32" shape="3" offset="22952" size="12" />
			<rt_info>
				<attribute name="precise" version="0" />
			</rt_info>
			<output>
				<port id="0" precision="I32">
					<dim>3</dim>
				</port>
			</output>
		</layer>
		<layer id="115" name="model_1/ttl_10/sequential_10/einsum_ttl_10/strided_slice_20/stack_2" type="Const" version="opset1">
			<data element_type="i32" shape="3" offset="22924" size="12" />
			<rt_info>
				<attribute name="precise" version="0" />
			</rt_info>
			<output>
				<port id="0" precision="I32">
					<dim>3</dim>
				</port>
			</output>
		</layer>
		<layer id="116" name="model_1/ttl_10/sequential_10/einsum_ttl_10/strided_slice_20" type="StridedSlice" version="opset1">
			<data begin_mask="1, 0, 1" end_mask="1, 1, 0" new_axis_mask="0, 0, 0" shrink_axis_mask="0, 0, 0" ellipsis_mask="0, 0, 0" />
			<input>
				<port id="0" precision="FP32">
					<dim>1</dim>
					<dim>128</dim>
					<dim>16</dim>
				</port>
				<port id="1" precision="I32">
					<dim>3</dim>
				</port>
				<port id="2" precision="I32">
					<dim>3</dim>
				</port>
				<port id="3" precision="I32">
					<dim>3</dim>
				</port>
			</input>
			<output>
				<port id="4" precision="FP32">
					<dim>1</dim>
					<dim>64</dim>
					<dim>8</dim>
				</port>
			</output>
		</layer>
		<layer id="117" name="model_1/ttl_10/sequential_10/einsum_ttl_10/strided_slice_21_compressed" type="Const" version="opset1">
			<data element_type="f16" shape="8" offset="23152" size="16" />
			<output>
				<port id="0" precision="FP16">
					<dim>8</dim>
				</port>
			</output>
		</layer>
		<layer id="118" name="model_1/ttl_10/sequential_10/einsum_ttl_10/strided_slice_21" type="Convert" version="opset1">
			<data destination_type="f32" />
			<rt_info>
				<attribute name="decompression" version="0" />
			</rt_info>
			<input>
				<port id="0" precision="FP16">
					<dim>8</dim>
				</port>
			</input>
			<output>
				<port id="1" precision="FP32">
					<dim>8</dim>
				</port>
			</output>
		</layer>
		<layer id="119" name="model_1/ttl_10/sequential_10/einsum_ttl_10/einsum_10/Einsum" type="Einsum" version="opset7">
			<data equation="abc,c->ab" />
			<input>
				<port id="0" precision="FP32">
					<dim>1</dim>
					<dim>64</dim>
					<dim>8</dim>
				</port>
				<port id="1" precision="FP32">
					<dim>8</dim>
				</port>
			</input>
			<output>
				<port id="2" precision="FP32">
					<dim>1</dim>
					<dim>64</dim>
				</port>
			</output>
		</layer>
		<layer id="120" name="model_1/ttl_10/sequential_10/einsum_ttl_10/strided_slice_22/stack" type="Const" version="opset1">
			<data element_type="i32" shape="3" offset="22912" size="12" />
			<rt_info>
				<attribute name="precise" version="0" />
			</rt_info>
			<output>
				<port id="0" precision="I32">
					<dim>3</dim>
				</port>
			</output>
		</layer>
		<layer id="121" name="model_1/ttl_10/sequential_10/einsum_ttl_10/strided_slice_22/stack_1" type="Const" version="opset1">
			<data element_type="i32" shape="3" offset="23028" size="12" />
			<rt_info>
				<attribute name="precise" version="0" />
			</rt_info>
			<output>
				<port id="0" precision="I32">
					<dim>3</dim>
				</port>
			</output>
		</layer>
		<layer id="122" name="model_1/ttl_10/sequential_10/einsum_ttl_10/strided_slice_22/stack_2" type="Const" version="opset1">
			<data element_type="i32" shape="3" offset="22924" size="12" />
			<rt_info>
				<attribute name="precise" version="0" />
			</rt_info>
			<output>
				<port id="0" precision="I32">
					<dim>3</dim>
				</port>
			</output>
		</layer>
		<layer id="123" name="model_1/ttl_10/sequential_10/einsum_ttl_10/strided_slice_22" type="StridedSlice" version="opset1">
			<data begin_mask="1, 0" end_mask="1, 1" new_axis_mask="0, 0" shrink_axis_mask="0, 0" ellipsis_mask="0, 0" />
			<input>
				<port id="0" precision="FP32">
					<dim>1</dim>
					<dim>128</dim>
					<dim>16</dim>
				</port>
				<port id="1" precision="I32">
					<dim>3</dim>
				</port>
				<port id="2" precision="I32">
					<dim>3</dim>
				</port>
				<port id="3" precision="I32">
					<dim>3</dim>
				</port>
			</input>
			<output>
				<port id="4" precision="FP32">
					<dim>1</dim>
					<dim>64</dim>
					<dim>8</dim>
				</port>
			</output>
		</layer>
		<layer id="124" name="Unsqueeze_3334_compressed" type="Const" version="opset1">
			<data element_type="f16" shape="1, 8" offset="23168" size="16" />
			<output>
				<port id="0" precision="FP16">
					<dim>1</dim>
					<dim>8</dim>
				</port>
			</output>
		</layer>
		<layer id="125" name="Unsqueeze_3334" type="Convert" version="opset1">
			<data destination_type="f32" />
			<rt_info>
				<attribute name="decompression" version="0" />
			</rt_info>
			<input>
				<port id="0" precision="FP16">
					<dim>1</dim>
					<dim>8</dim>
				</port>
			</input>
			<output>
				<port id="1" precision="FP32">
					<dim>1</dim>
					<dim>8</dim>
				</port>
			</output>
		</layer>
		<layer id="126" name="Broadcast_3341" type="Const" version="opset1">
			<data element_type="i32" shape="1" offset="22992" size="4" />
			<output>
				<port id="0" precision="I32">
					<dim>1</dim>
				</port>
			</output>
		</layer>
		<layer id="127" name="ReverseSequence_3344" type="ReverseSequence" version="opset1">
			<data batch_axis="0" seq_axis="1" />
			<input>
				<port id="0" precision="FP32">
					<dim>1</dim>
					<dim>8</dim>
				</port>
				<port id="1" precision="I32">
					<dim>1</dim>
				</port>
			</input>
			<output>
				<port id="2" precision="FP32">
					<dim>1</dim>
					<dim>8</dim>
				</port>
			</output>
		</layer>
		<layer id="128" name="Constant_3345" type="Const" version="opset1">
			<data element_type="i32" shape="1" offset="22996" size="4" />
			<output>
				<port id="0" precision="I32">
					<dim>1</dim>
				</port>
			</output>
		</layer>
		<layer id="129" name="model_1/ttl_10/sequential_10/einsum_ttl_10/ReverseV2_5" type="Squeeze" version="opset1">
			<input>
				<port id="0" precision="FP32">
					<dim>1</dim>
					<dim>8</dim>
				</port>
				<port id="1" precision="I32">
					<dim>1</dim>
				</port>
			</input>
			<output>
				<port id="2" precision="FP32">
					<dim>8</dim>
				</port>
			</output>
		</layer>
		<layer id="130" name="model_1/ttl_10/sequential_10/einsum_ttl_10/einsum_11/Einsum" type="Einsum" version="opset7">
			<data equation="abc,c->ab" />
			<input>
				<port id="0" precision="FP32">
					<dim>1</dim>
					<dim>64</dim>
					<dim>8</dim>
				</port>
				<port id="1" precision="FP32">
					<dim>8</dim>
				</port>
			</input>
			<output>
				<port id="2" precision="FP32">
					<dim>1</dim>
					<dim>64</dim>
				</port>
			</output>
		</layer>
		<layer id="131" name="model_1/ttl_10/sequential_10/einsum_ttl_10/add_5" type="Add" version="opset1">
			<data auto_broadcast="numpy" />
			<input>
				<port id="0" precision="FP32">
					<dim>1</dim>
					<dim>64</dim>
				</port>
				<port id="1" precision="FP32">
					<dim>1</dim>
					<dim>64</dim>
				</port>
			</input>
			<output>
				<port id="2" precision="FP32">
					<dim>1</dim>
					<dim>64</dim>
				</port>
			</output>
		</layer>
		<layer id="132" name="model_1/ttl_10/sequential_10/einsum_ttl_10/strided_slice_24/stack" type="Const" version="opset1">
			<data element_type="i32" shape="3" offset="22900" size="12" />
			<rt_info>
				<attribute name="precise" version="0" />
			</rt_info>
			<output>
				<port id="0" precision="I32">
					<dim>3</dim>
				</port>
			</output>
		</layer>
		<layer id="133" name="model_1/ttl_10/sequential_10/einsum_ttl_10/strided_slice_24/stack_1" type="Const" version="opset1">
			<data element_type="i32" shape="3" offset="22912" size="12" />
			<rt_info>
				<attribute name="precise" version="0" />
			</rt_info>
			<output>
				<port id="0" precision="I32">
					<dim>3</dim>
				</port>
			</output>
		</layer>
		<layer id="134" name="model_1/ttl_10/sequential_10/einsum_ttl_10/strided_slice_24/stack_2" type="Const" version="opset1">
			<data element_type="i32" shape="3" offset="22924" size="12" />
			<rt_info>
				<attribute name="precise" version="0" />
			</rt_info>
			<output>
				<port id="0" precision="I32">
					<dim>3</dim>
				</port>
			</output>
		</layer>
		<layer id="135" name="model_1/ttl_10/sequential_10/einsum_ttl_10/strided_slice_24" type="StridedSlice" version="opset1">
			<data begin_mask="1, 1, 1" end_mask="1, 0, 0" new_axis_mask="0, 0, 0" shrink_axis_mask="0, 0, 0" ellipsis_mask="0, 0, 0" />
			<input>
				<port id="0" precision="FP32">
					<dim>1</dim>
					<dim>128</dim>
					<dim>16</dim>
				</port>
				<port id="1" precision="I32">
					<dim>3</dim>
				</port>
				<port id="2" precision="I32">
					<dim>3</dim>
				</port>
				<port id="3" precision="I32">
					<dim>3</dim>
				</port>
			</input>
			<output>
				<port id="4" precision="FP32">
					<dim>1</dim>
					<dim>64</dim>
					<dim>8</dim>
				</port>
			</output>
		</layer>
		<layer id="136" name="model_1/ttl_10/sequential_10/einsum_ttl_10/strided_slice_25_compressed" type="Const" version="opset1">
			<data element_type="f16" shape="8" offset="23184" size="16" />
			<output>
				<port id="0" precision="FP16">
					<dim>8</dim>
				</port>
			</output>
		</layer>
		<layer id="137" name="model_1/ttl_10/sequential_10/einsum_ttl_10/strided_slice_25" type="Convert" version="opset1">
			<data destination_type="f32" />
			<rt_info>
				<attribute name="decompression" version="0" />
			</rt_info>
			<input>
				<port id="0" precision="FP16">
					<dim>8</dim>
				</port>
			</input>
			<output>
				<port id="1" precision="FP32">
					<dim>8</dim>
				</port>
			</output>
		</layer>
		<layer id="138" name="model_1/ttl_10/sequential_10/einsum_ttl_10/einsum_12/Einsum" type="Einsum" version="opset7">
			<data equation="abc,c->ab" />
			<input>
				<port id="0" precision="FP32">
					<dim>1</dim>
					<dim>64</dim>
					<dim>8</dim>
				</port>
				<port id="1" precision="FP32">
					<dim>8</dim>
				</port>
			</input>
			<output>
				<port id="2" precision="FP32">
					<dim>1</dim>
					<dim>64</dim>
				</port>
			</output>
		</layer>
		<layer id="139" name="model_1/ttl_10/sequential_10/einsum_ttl_10/strided_slice_26/stack" type="Const" version="opset1">
			<data element_type="i32" shape="3" offset="22952" size="12" />
			<rt_info>
				<attribute name="precise" version="0" />
			</rt_info>
			<output>
				<port id="0" precision="I32">
					<dim>3</dim>
				</port>
			</output>
		</layer>
		<layer id="140" name="model_1/ttl_10/sequential_10/einsum_ttl_10/strided_slice_26/stack_1" type="Const" version="opset1">
			<data element_type="i32" shape="3" offset="22964" size="12" />
			<rt_info>
				<attribute name="precise" version="0" />
			</rt_info>
			<output>
				<port id="0" precision="I32">
					<dim>3</dim>
				</port>
			</output>
		</layer>
		<layer id="141" name="model_1/ttl_10/sequential_10/einsum_ttl_10/strided_slice_26/stack_2" type="Const" version="opset1">
			<data element_type="i32" shape="3" offset="22924" size="12" />
			<rt_info>
				<attribute name="precise" version="0" />
			</rt_info>
			<output>
				<port id="0" precision="I32">
					<dim>3</dim>
				</port>
			</output>
		</layer>
		<layer id="142" name="model_1/ttl_10/sequential_10/einsum_ttl_10/strided_slice_26" type="StridedSlice" version="opset1">
			<data begin_mask="1, 1" end_mask="1, 0" new_axis_mask="0, 0" shrink_axis_mask="0, 0" ellipsis_mask="0, 0" />
			<input>
				<port id="0" precision="FP32">
					<dim>1</dim>
					<dim>128</dim>
					<dim>16</dim>
				</port>
				<port id="1" precision="I32">
					<dim>3</dim>
				</port>
				<port id="2" precision="I32">
					<dim>3</dim>
				</port>
				<port id="3" precision="I32">
					<dim>3</dim>
				</port>
			</input>
			<output>
				<port id="4" precision="FP32">
					<dim>1</dim>
					<dim>64</dim>
					<dim>8</dim>
				</port>
			</output>
		</layer>
		<layer id="143" name="Unsqueeze_3300_compressed" type="Const" version="opset1">
			<data element_type="f16" shape="1, 8" offset="23200" size="16" />
			<output>
				<port id="0" precision="FP16">
					<dim>1</dim>
					<dim>8</dim>
				</port>
			</output>
		</layer>
		<layer id="144" name="Unsqueeze_3300" type="Convert" version="opset1">
			<data destination_type="f32" />
			<rt_info>
				<attribute name="decompression" version="0" />
			</rt_info>
			<input>
				<port id="0" precision="FP16">
					<dim>1</dim>
					<dim>8</dim>
				</port>
			</input>
			<output>
				<port id="1" precision="FP32">
					<dim>1</dim>
					<dim>8</dim>
				</port>
			</output>
		</layer>
		<layer id="145" name="Broadcast_3307" type="Const" version="opset1">
			<data element_type="i32" shape="1" offset="22992" size="4" />
			<output>
				<port id="0" precision="I32">
					<dim>1</dim>
				</port>
			</output>
		</layer>
		<layer id="146" name="ReverseSequence_3310" type="ReverseSequence" version="opset1">
			<data batch_axis="0" seq_axis="1" />
			<input>
				<port id="0" precision="FP32">
					<dim>1</dim>
					<dim>8</dim>
				</port>
				<port id="1" precision="I32">
					<dim>1</dim>
				</port>
			</input>
			<output>
				<port id="2" precision="FP32">
					<dim>1</dim>
					<dim>8</dim>
				</port>
			</output>
		</layer>
		<layer id="147" name="Constant_3311" type="Const" version="opset1">
			<data element_type="i32" shape="1" offset="22996" size="4" />
			<output>
				<port id="0" precision="I32">
					<dim>1</dim>
				</port>
			</output>
		</layer>
		<layer id="148" name="model_1/ttl_10/sequential_10/einsum_ttl_10/ReverseV2_6" type="Squeeze" version="opset1">
			<input>
				<port id="0" precision="FP32">
					<dim>1</dim>
					<dim>8</dim>
				</port>
				<port id="1" precision="I32">
					<dim>1</dim>
				</port>
			</input>
			<output>
				<port id="2" precision="FP32">
					<dim>8</dim>
				</port>
			</output>
		</layer>
		<layer id="149" name="model_1/ttl_10/sequential_10/einsum_ttl_10/einsum_13/Einsum" type="Einsum" version="opset7">
			<data equation="abc,c->ab" />
			<input>
				<port id="0" precision="FP32">
					<dim>1</dim>
					<dim>64</dim>
					<dim>8</dim>
				</port>
				<port id="1" precision="FP32">
					<dim>8</dim>
				</port>
			</input>
			<output>
				<port id="2" precision="FP32">
					<dim>1</dim>
					<dim>64</dim>
				</port>
			</output>
		</layer>
		<layer id="150" name="model_1/ttl_10/sequential_10/einsum_ttl_10/add_6" type="Add" version="opset1">
			<data auto_broadcast="numpy" />
			<input>
				<port id="0" precision="FP32">
					<dim>1</dim>
					<dim>64</dim>
				</port>
				<port id="1" precision="FP32">
					<dim>1</dim>
					<dim>64</dim>
				</port>
			</input>
			<output>
				<port id="2" precision="FP32">
					<dim>1</dim>
					<dim>64</dim>
				</port>
			</output>
		</layer>
		<layer id="151" name="model_1/ttl_10/sequential_10/einsum_ttl_10/strided_slice_28/stack" type="Const" version="opset1">
			<data element_type="i32" shape="3" offset="23000" size="12" />
			<rt_info>
				<attribute name="precise" version="0" />
			</rt_info>
			<output>
				<port id="0" precision="I32">
					<dim>3</dim>
				</port>
			</output>
		</layer>
		<layer id="152" name="model_1/ttl_10/sequential_10/einsum_ttl_10/strided_slice_28/stack_1" type="Const" version="opset1">
			<data element_type="i32" shape="3" offset="22952" size="12" />
			<rt_info>
				<attribute name="precise" version="0" />
			</rt_info>
			<output>
				<port id="0" precision="I32">
					<dim>3</dim>
				</port>
			</output>
		</layer>
		<layer id="153" name="model_1/ttl_10/sequential_10/einsum_ttl_10/strided_slice_28/stack_2" type="Const" version="opset1">
			<data element_type="i32" shape="3" offset="22924" size="12" />
			<rt_info>
				<attribute name="precise" version="0" />
			</rt_info>
			<output>
				<port id="0" precision="I32">
					<dim>3</dim>
				</port>
			</output>
		</layer>
		<layer id="154" name="model_1/ttl_10/sequential_10/einsum_ttl_10/strided_slice_28" type="StridedSlice" version="opset1">
			<data begin_mask="1, 0, 1" end_mask="1, 1, 0" new_axis_mask="0, 0, 0" shrink_axis_mask="0, 0, 0" ellipsis_mask="0, 0, 0" />
			<input>
				<port id="0" precision="FP32">
					<dim>1</dim>
					<dim>128</dim>
					<dim>16</dim>
				</port>
				<port id="1" precision="I32">
					<dim>3</dim>
				</port>
				<port id="2" precision="I32">
					<dim>3</dim>
				</port>
				<port id="3" precision="I32">
					<dim>3</dim>
				</port>
			</input>
			<output>
				<port id="4" precision="FP32">
					<dim>1</dim>
					<dim>64</dim>
					<dim>8</dim>
				</port>
			</output>
		</layer>
		<layer id="155" name="model_1/ttl_10/sequential_10/einsum_ttl_10/strided_slice_29_compressed" type="Const" version="opset1">
			<data element_type="f16" shape="8" offset="23216" size="16" />
			<output>
				<port id="0" precision="FP16">
					<dim>8</dim>
				</port>
			</output>
		</layer>
		<layer id="156" name="model_1/ttl_10/sequential_10/einsum_ttl_10/strided_slice_29" type="Convert" version="opset1">
			<data destination_type="f32" />
			<rt_info>
				<attribute name="decompression" version="0" />
			</rt_info>
			<input>
				<port id="0" precision="FP16">
					<dim>8</dim>
				</port>
			</input>
			<output>
				<port id="1" precision="FP32">
					<dim>8</dim>
				</port>
			</output>
		</layer>
		<layer id="157" name="model_1/ttl_10/sequential_10/einsum_ttl_10/einsum_14/Einsum" type="Einsum" version="opset7">
			<data equation="abc,c->ab" />
			<input>
				<port id="0" precision="FP32">
					<dim>1</dim>
					<dim>64</dim>
					<dim>8</dim>
				</port>
				<port id="1" precision="FP32">
					<dim>8</dim>
				</port>
			</input>
			<output>
				<port id="2" precision="FP32">
					<dim>1</dim>
					<dim>64</dim>
				</port>
			</output>
		</layer>
		<layer id="158" name="model_1/ttl_10/sequential_10/einsum_ttl_10/strided_slice_30/stack" type="Const" version="opset1">
			<data element_type="i32" shape="3" offset="22912" size="12" />
			<rt_info>
				<attribute name="precise" version="0" />
			</rt_info>
			<output>
				<port id="0" precision="I32">
					<dim>3</dim>
				</port>
			</output>
		</layer>
		<layer id="159" name="model_1/ttl_10/sequential_10/einsum_ttl_10/strided_slice_30/stack_1" type="Const" version="opset1">
			<data element_type="i32" shape="3" offset="23028" size="12" />
			<rt_info>
				<attribute name="precise" version="0" />
			</rt_info>
			<output>
				<port id="0" precision="I32">
					<dim>3</dim>
				</port>
			</output>
		</layer>
		<layer id="160" name="model_1/ttl_10/sequential_10/einsum_ttl_10/strided_slice_30/stack_2" type="Const" version="opset1">
			<data element_type="i32" shape="3" offset="22924" size="12" />
			<rt_info>
				<attribute name="precise" version="0" />
			</rt_info>
			<output>
				<port id="0" precision="I32">
					<dim>3</dim>
				</port>
			</output>
		</layer>
		<layer id="161" name="model_1/ttl_10/sequential_10/einsum_ttl_10/strided_slice_30" type="StridedSlice" version="opset1">
			<data begin_mask="1, 0" end_mask="1, 1" new_axis_mask="0, 0" shrink_axis_mask="0, 0" ellipsis_mask="0, 0" />
			<input>
				<port id="0" precision="FP32">
					<dim>1</dim>
					<dim>128</dim>
					<dim>16</dim>
				</port>
				<port id="1" precision="I32">
					<dim>3</dim>
				</port>
				<port id="2" precision="I32">
					<dim>3</dim>
				</port>
				<port id="3" precision="I32">
					<dim>3</dim>
				</port>
			</input>
			<output>
				<port id="4" precision="FP32">
					<dim>1</dim>
					<dim>64</dim>
					<dim>8</dim>
				</port>
			</output>
		</layer>
		<layer id="162" name="Unsqueeze_3264_compressed" type="Const" version="opset1">
			<data element_type="f16" shape="1, 8" offset="23232" size="16" />
			<output>
				<port id="0" precision="FP16">
					<dim>1</dim>
					<dim>8</dim>
				</port>
			</output>
		</layer>
		<layer id="163" name="Unsqueeze_3264" type="Convert" version="opset1">
			<data destination_type="f32" />
			<rt_info>
				<attribute name="decompression" version="0" />
			</rt_info>
			<input>
				<port id="0" precision="FP16">
					<dim>1</dim>
					<dim>8</dim>
				</port>
			</input>
			<output>
				<port id="1" precision="FP32">
					<dim>1</dim>
					<dim>8</dim>
				</port>
			</output>
		</layer>
		<layer id="164" name="Broadcast_3271" type="Const" version="opset1">
			<data element_type="i32" shape="1" offset="22992" size="4" />
			<output>
				<port id="0" precision="I32">
					<dim>1</dim>
				</port>
			</output>
		</layer>
		<layer id="165" name="ReverseSequence_3274" type="ReverseSequence" version="opset1">
			<data batch_axis="0" seq_axis="1" />
			<input>
				<port id="0" precision="FP32">
					<dim>1</dim>
					<dim>8</dim>
				</port>
				<port id="1" precision="I32">
					<dim>1</dim>
				</port>
			</input>
			<output>
				<port id="2" precision="FP32">
					<dim>1</dim>
					<dim>8</dim>
				</port>
			</output>
		</layer>
		<layer id="166" name="Constant_3275" type="Const" version="opset1">
			<data element_type="i32" shape="1" offset="22996" size="4" />
			<output>
				<port id="0" precision="I32">
					<dim>1</dim>
				</port>
			</output>
		</layer>
		<layer id="167" name="model_1/ttl_10/sequential_10/einsum_ttl_10/ReverseV2_7" type="Squeeze" version="opset1">
			<input>
				<port id="0" precision="FP32">
					<dim>1</dim>
					<dim>8</dim>
				</port>
				<port id="1" precision="I32">
					<dim>1</dim>
				</port>
			</input>
			<output>
				<port id="2" precision="FP32">
					<dim>8</dim>
				</port>
			</output>
		</layer>
		<layer id="168" name="model_1/ttl_10/sequential_10/einsum_ttl_10/einsum_15/Einsum" type="Einsum" version="opset7">
			<data equation="abc,c->ab" />
			<input>
				<port id="0" precision="FP32">
					<dim>1</dim>
					<dim>64</dim>
					<dim>8</dim>
				</port>
				<port id="1" precision="FP32">
					<dim>8</dim>
				</port>
			</input>
			<output>
				<port id="2" precision="FP32">
					<dim>1</dim>
					<dim>64</dim>
				</port>
			</output>
		</layer>
		<layer id="169" name="model_1/ttl_10/sequential_10/einsum_ttl_10/add_7" type="Add" version="opset1">
			<data auto_broadcast="numpy" />
			<input>
				<port id="0" precision="FP32">
					<dim>1</dim>
					<dim>64</dim>
				</port>
				<port id="1" precision="FP32">
					<dim>1</dim>
					<dim>64</dim>
				</port>
			</input>
			<output>
				<port id="2" precision="FP32">
					<dim>1</dim>
					<dim>64</dim>
				</port>
			</output>
		</layer>
		<layer id="170" name="model_1/ttl_10/sequential_10/einsum_ttl_10/concat" type="Concat" version="opset1">
			<data axis="1" />
			<input>
				<port id="0" precision="FP32">
					<dim>1</dim>
					<dim>64</dim>
				</port>
				<port id="1" precision="FP32">
					<dim>1</dim>
					<dim>64</dim>
				</port>
				<port id="2" precision="FP32">
					<dim>1</dim>
					<dim>64</dim>
				</port>
				<port id="3" precision="FP32">
					<dim>1</dim>
					<dim>64</dim>
				</port>
				<port id="4" precision="FP32">
					<dim>1</dim>
					<dim>64</dim>
				</port>
				<port id="5" precision="FP32">
					<dim>1</dim>
					<dim>64</dim>
				</port>
				<port id="6" precision="FP32">
					<dim>1</dim>
					<dim>64</dim>
				</port>
				<port id="7" precision="FP32">
					<dim>1</dim>
					<dim>64</dim>
				</port>
			</input>
			<output>
				<port id="8" precision="FP32">
					<dim>1</dim>
					<dim>512</dim>
				</port>
			</output>
		</layer>
		<layer id="171" name="model_1/ttl_10/sequential_10/flatten_10/Const" type="Const" version="opset1">
			<data element_type="i32" shape="2" offset="23248" size="8" />
			<rt_info>
				<attribute name="precise" version="0" />
			</rt_info>
			<output>
				<port id="0" precision="I32">
					<dim>2</dim>
				</port>
			</output>
		</layer>
		<layer id="172" name="model_1/ttl_10/sequential_10/flatten_10/Reshape" type="Reshape" version="opset1">
			<data special_zero="false" />
			<input>
				<port id="0" precision="FP32">
					<dim>1</dim>
					<dim>512</dim>
				</port>
				<port id="1" precision="I32">
					<dim>2</dim>
				</port>
			</input>
			<output>
				<port id="2" precision="FP32">
					<dim>1</dim>
					<dim>512</dim>
				</port>
			</output>
		</layer>
		<layer id="173" name="model_1/ttl_10/sequential_10/tt_dense_10/t3f_matmul/Reshape/shape" type="Const" version="opset1">
			<data element_type="i32" shape="3" offset="23256" size="12" />
			<rt_info>
				<attribute name="precise" version="0" />
			</rt_info>
			<output>
				<port id="0" precision="I32">
					<dim>3</dim>
				</port>
			</output>
		</layer>
		<layer id="174" name="model_1/ttl_10/sequential_10/tt_dense_10/t3f_matmul/Reshape" type="Reshape" version="opset1">
			<data special_zero="false" />
			<input>
				<port id="0" precision="FP32">
					<dim>1</dim>
					<dim>512</dim>
				</port>
				<port id="1" precision="I32">
					<dim>3</dim>
				</port>
			</input>
			<output>
				<port id="2" precision="FP32">
					<dim>256</dim>
					<dim>2</dim>
					<dim>1</dim>
				</port>
			</output>
		</layer>
		<layer id="175" name="model_1/ttl_10/sequential_10/tt_dense_10/t3f_matmul/einsum/Einsum" type="Einsum" version="opset7">
			<data equation="aijb,rjb->ira" />
			<input>
				<port id="0" precision="FP32">
					<dim>7</dim>
					<dim>4</dim>
					<dim>2</dim>
					<dim>1</dim>
				</port>
				<port id="1" precision="FP32">
					<dim>256</dim>
					<dim>2</dim>
					<dim>1</dim>
				</port>
			</input>
			<output>
				<port id="2" precision="FP32">
					<dim>4</dim>
					<dim>256</dim>
					<dim>7</dim>
				</port>
			</output>
		</layer>
		<layer id="176" name="model_1/ttl_10/sequential_10/tt_dense_10/t3f_matmul/Reshape_1/shape" type="Const" version="opset1">
			<data element_type="i32" shape="3" offset="23268" size="12" />
			<rt_info>
				<attribute name="precise" version="0" />
			</rt_info>
			<output>
				<port id="0" precision="I32">
					<dim>3</dim>
				</port>
			</output>
		</layer>
		<layer id="177" name="model_1/ttl_10/sequential_10/tt_dense_10/t3f_matmul/Reshape_1" type="Reshape" version="opset1">
			<data special_zero="false" />
			<input>
				<port id="0" precision="FP32">
					<dim>4</dim>
					<dim>256</dim>
					<dim>7</dim>
				</port>
				<port id="1" precision="I32">
					<dim>3</dim>
				</port>
			</input>
			<output>
				<port id="2" precision="FP32">
					<dim>512</dim>
					<dim>2</dim>
					<dim>7</dim>
				</port>
			</output>
		</layer>
		<layer id="178" name="model_1/ttl_10/sequential_10/tt_dense_10/t3f_matmul/einsum_1/Einsum" type="Einsum" version="opset7">
			<data equation="aijb,rjb->ira" />
			<input>
				<port id="0" precision="FP32">
					<dim>16</dim>
					<dim>4</dim>
					<dim>2</dim>
					<dim>7</dim>
				</port>
				<port id="1" precision="FP32">
					<dim>512</dim>
					<dim>2</dim>
					<dim>7</dim>
				</port>
			</input>
			<output>
				<port id="2" precision="FP32">
					<dim>4</dim>
					<dim>512</dim>
					<dim>16</dim>
				</port>
			</output>
		</layer>
		<layer id="179" name="model_1/ttl_10/sequential_10/tt_dense_10/t3f_matmul/Reshape_2/shape" type="Const" version="opset1">
			<data element_type="i32" shape="3" offset="23280" size="12" />
			<rt_info>
				<attribute name="precise" version="0" />
			</rt_info>
			<output>
				<port id="0" precision="I32">
					<dim>3</dim>
				</port>
			</output>
		</layer>
		<layer id="180" name="model_1/ttl_10/sequential_10/tt_dense_10/t3f_matmul/Reshape_2" type="Reshape" version="opset1">
			<data special_zero="false" />
			<input>
				<port id="0" precision="FP32">
					<dim>4</dim>
					<dim>512</dim>
					<dim>16</dim>
				</port>
				<port id="1" precision="I32">
					<dim>3</dim>
				</port>
			</input>
			<output>
				<port id="2" precision="FP32">
					<dim>1024</dim>
					<dim>2</dim>
					<dim>16</dim>
				</port>
			</output>
		</layer>
		<layer id="181" name="model_1/ttl_10/sequential_10/tt_dense_10/t3f_matmul/einsum_2/Einsum" type="Einsum" version="opset7">
			<data equation="aijb,rjb->ira" />
			<input>
				<port id="0" precision="FP32">
					<dim>16</dim>
					<dim>4</dim>
					<dim>2</dim>
					<dim>16</dim>
				</port>
				<port id="1" precision="FP32">
					<dim>1024</dim>
					<dim>2</dim>
					<dim>16</dim>
				</port>
			</input>
			<output>
				<port id="2" precision="FP32">
					<dim>4</dim>
					<dim>1024</dim>
					<dim>16</dim>
				</port>
			</output>
		</layer>
		<layer id="182" name="model_1/ttl_10/sequential_10/tt_dense_10/t3f_matmul/Reshape_3/shape" type="Const" version="opset1">
			<data element_type="i32" shape="3" offset="23280" size="12" />
			<rt_info>
				<attribute name="precise" version="0" />
			</rt_info>
			<output>
				<port id="0" precision="I32">
					<dim>3</dim>
				</port>
			</output>
		</layer>
		<layer id="183" name="model_1/ttl_10/sequential_10/tt_dense_10/t3f_matmul/Reshape_3" type="Reshape" version="opset1">
			<data special_zero="false" />
			<input>
				<port id="0" precision="FP32">
					<dim>4</dim>
					<dim>1024</dim>
					<dim>16</dim>
				</port>
				<port id="1" precision="I32">
					<dim>3</dim>
				</port>
			</input>
			<output>
				<port id="2" precision="FP32">
					<dim>2048</dim>
					<dim>2</dim>
					<dim>16</dim>
				</port>
			</output>
		</layer>
		<layer id="184" name="model_1/ttl_10/sequential_10/tt_dense_10/t3f_matmul/einsum_3/Einsum" type="Einsum" version="opset7">
			<data equation="aijb,rjb->ira" />
			<input>
				<port id="0" precision="FP32">
					<dim>16</dim>
					<dim>4</dim>
					<dim>2</dim>
					<dim>16</dim>
				</port>
				<port id="1" precision="FP32">
					<dim>2048</dim>
					<dim>2</dim>
					<dim>16</dim>
				</port>
			</input>
			<output>
				<port id="2" precision="FP32">
					<dim>4</dim>
					<dim>2048</dim>
					<dim>16</dim>
				</port>
			</output>
		</layer>
		<layer id="185" name="model_1/ttl_10/sequential_10/tt_dense_10/t3f_matmul/Reshape_4/shape" type="Const" version="opset1">
			<data element_type="i32" shape="3" offset="23280" size="12" />
			<rt_info>
				<attribute name="precise" version="0" />
			</rt_info>
			<output>
				<port id="0" precision="I32">
					<dim>3</dim>
				</port>
			</output>
		</layer>
		<layer id="186" name="model_1/ttl_10/sequential_10/tt_dense_10/t3f_matmul/Reshape_4" type="Reshape" version="opset1">
			<data special_zero="false" />
			<input>
				<port id="0" precision="FP32">
					<dim>4</dim>
					<dim>2048</dim>
					<dim>16</dim>
				</port>
				<port id="1" precision="I32">
					<dim>3</dim>
				</port>
			</input>
			<output>
				<port id="2" precision="FP32">
					<dim>4096</dim>
					<dim>2</dim>
					<dim>16</dim>
				</port>
			</output>
		</layer>
		<layer id="187" name="model_1/ttl_10/sequential_10/tt_dense_10/t3f_matmul/einsum_4/Einsum" type="Einsum" version="opset7">
			<data equation="aijb,rjb->ira" />
			<input>
				<port id="0" precision="FP32">
					<dim>16</dim>
					<dim>4</dim>
					<dim>2</dim>
					<dim>16</dim>
				</port>
				<port id="1" precision="FP32">
					<dim>4096</dim>
					<dim>2</dim>
					<dim>16</dim>
				</port>
			</input>
			<output>
				<port id="2" precision="FP32">
					<dim>4</dim>
					<dim>4096</dim>
					<dim>16</dim>
				</port>
			</output>
		</layer>
		<layer id="188" name="model_1/ttl_10/sequential_10/tt_dense_10/t3f_matmul/Reshape_5/shape" type="Const" version="opset1">
			<data element_type="i32" shape="3" offset="23292" size="12" />
			<rt_info>
				<attribute name="precise" version="0" />
			</rt_info>
			<output>
				<port id="0" precision="I32">
					<dim>3</dim>
				</port>
			</output>
		</layer>
		<layer id="189" name="model_1/ttl_10/sequential_10/tt_dense_10/t3f_matmul/Reshape_5" type="Reshape" version="opset1">
			<data special_zero="false" />
			<input>
				<port id="0" precision="FP32">
					<dim>4</dim>
					<dim>4096</dim>
					<dim>16</dim>
				</port>
				<port id="1" precision="I32">
					<dim>3</dim>
				</port>
			</input>
			<output>
				<port id="2" precision="FP32">
					<dim>4096</dim>
					<dim>4</dim>
					<dim>16</dim>
				</port>
			</output>
		</layer>
		<layer id="190" name="model_1/ttl_10/sequential_10/tt_dense_10/t3f_matmul/einsum_5/Einsum" type="Einsum" version="opset7">
			<data equation="aijb,rjb->ira" />
			<input>
				<port id="0" precision="FP32">
					<dim>16</dim>
					<dim>4</dim>
					<dim>4</dim>
					<dim>16</dim>
				</port>
				<port id="1" precision="FP32">
					<dim>4096</dim>
					<dim>4</dim>
					<dim>16</dim>
				</port>
			</input>
			<output>
				<port id="2" precision="FP32">
					<dim>4</dim>
					<dim>4096</dim>
					<dim>16</dim>
				</port>
			</output>
		</layer>
		<layer id="191" name="model_1/ttl_10/sequential_10/tt_dense_10/t3f_matmul/Reshape_6/shape" type="Const" version="opset1">
			<data element_type="i32" shape="3" offset="23292" size="12" />
			<rt_info>
				<attribute name="precise" version="0" />
			</rt_info>
			<output>
				<port id="0" precision="I32">
					<dim>3</dim>
				</port>
			</output>
		</layer>
		<layer id="192" name="model_1/ttl_10/sequential_10/tt_dense_10/t3f_matmul/Reshape_6" type="Reshape" version="opset1">
			<data special_zero="false" />
			<input>
				<port id="0" precision="FP32">
					<dim>4</dim>
					<dim>4096</dim>
					<dim>16</dim>
				</port>
				<port id="1" precision="I32">
					<dim>3</dim>
				</port>
			</input>
			<output>
				<port id="2" precision="FP32">
					<dim>4096</dim>
					<dim>4</dim>
					<dim>16</dim>
				</port>
			</output>
		</layer>
		<layer id="193" name="model_1/ttl_10/sequential_10/tt_dense_10/t3f_matmul/einsum_6/Einsum" type="Einsum" version="opset7">
			<data equation="aijb,rjb->ira" />
			<input>
				<port id="0" precision="FP32">
					<dim>1</dim>
					<dim>4</dim>
					<dim>4</dim>
					<dim>16</dim>
				</port>
				<port id="1" precision="FP32">
					<dim>4096</dim>
					<dim>4</dim>
					<dim>16</dim>
				</port>
			</input>
			<output>
				<port id="2" precision="FP32">
					<dim>4</dim>
					<dim>4096</dim>
					<dim>1</dim>
				</port>
			</output>
		</layer>
		<layer id="194" name="model_1/ttl_10/sequential_10/reshape_10/Reshape/shape" type="Const" version="opset1">
			<data element_type="i32" shape="3" offset="23304" size="12" />
			<rt_info>
				<attribute name="precise" version="0" />
			</rt_info>
			<output>
				<port id="0" precision="I32">
					<dim>3</dim>
				</port>
			</output>
		</layer>
		<layer id="195" name="model_1/ttl_10/sequential_10/reshape_10/Reshape" type="Reshape" version="opset1">
			<data special_zero="false" />
			<input>
				<port id="0" precision="FP32">
					<dim>4</dim>
					<dim>4096</dim>
					<dim>1</dim>
				</port>
				<port id="1" precision="I32">
					<dim>3</dim>
				</port>
			</input>
			<output>
				<port id="2" precision="FP32">
					<dim>1</dim>
					<dim>256</dim>
					<dim>64</dim>
				</port>
			</output>
		</layer>
		<layer id="196" name="Transpose_22923_compressed" type="Const" version="opset1">
			<data element_type="f16" shape="30, 3" offset="23316" size="180" />
			<output>
				<port id="0" precision="FP16">
					<dim>30</dim>
					<dim>3</dim>
				</port>
			</output>
		</layer>
		<layer id="197" name="Transpose_22923" type="Convert" version="opset1">
			<data destination_type="f32" />
			<rt_info>
				<attribute name="decompression" version="0" />
			</rt_info>
			<input>
				<port id="0" precision="FP16">
					<dim>30</dim>
					<dim>3</dim>
				</port>
			</input>
			<output>
				<port id="1" precision="FP32">
					<dim>30</dim>
					<dim>3</dim>
				</port>
			</output>
		</layer>
		<layer id="198" name="model_1/softmax_embedding_layer_1/dense/MatMul" type="MatMul" version="opset1">
			<data transpose_a="false" transpose_b="true" />
			<input>
				<port id="0" precision="FP32">
					<dim>1</dim>
					<dim>3</dim>
				</port>
				<port id="1" precision="FP32">
					<dim>30</dim>
					<dim>3</dim>
				</port>
			</input>
			<output>
				<port id="2" precision="FP32">
					<dim>1</dim>
					<dim>30</dim>
				</port>
			</output>
		</layer>
		<layer id="199" name="Constant_23937_compressed" type="Const" version="opset1">
			<data element_type="f16" shape="1, 30" offset="23496" size="60" />
			<output>
				<port id="0" precision="FP16">
					<dim>1</dim>
					<dim>30</dim>
				</port>
			</output>
		</layer>
		<layer id="200" name="Constant_23937" type="Convert" version="opset1">
			<data destination_type="f32" />
			<rt_info>
				<attribute name="decompression" version="0" />
			</rt_info>
			<input>
				<port id="0" precision="FP16">
					<dim>1</dim>
					<dim>30</dim>
				</port>
			</input>
			<output>
				<port id="1" precision="FP32">
					<dim>1</dim>
					<dim>30</dim>
				</port>
			</output>
		</layer>
		<layer id="201" name="model_1/softmax_embedding_layer_1/dense/BiasAdd" type="Add" version="opset1">
			<data auto_broadcast="numpy" />
			<input>
				<port id="0" precision="FP32">
					<dim>1</dim>
					<dim>30</dim>
				</port>
				<port id="1" precision="FP32">
					<dim>1</dim>
					<dim>30</dim>
				</port>
			</input>
			<output>
				<port id="2" precision="FP32">
					<dim>1</dim>
					<dim>30</dim>
				</port>
			</output>
		</layer>
		<layer id="202" name="model_1/softmax_embedding_layer_1/dense/Relu" type="ReLU" version="opset1">
			<input>
				<port id="0" precision="FP32">
					<dim>1</dim>
					<dim>30</dim>
				</port>
			</input>
			<output>
				<port id="1" precision="FP32">
					<dim>1</dim>
					<dim>30</dim>
				</port>
			</output>
		</layer>
		<layer id="203" name="Transpose_22926_compressed" type="Const" version="opset1">
			<data element_type="f16" shape="30, 30" offset="23556" size="1800" />
			<output>
				<port id="0" precision="FP16">
					<dim>30</dim>
					<dim>30</dim>
				</port>
			</output>
		</layer>
		<layer id="204" name="Transpose_22926" type="Convert" version="opset1">
			<data destination_type="f32" />
			<rt_info>
				<attribute name="decompression" version="0" />
			</rt_info>
			<input>
				<port id="0" precision="FP16">
					<dim>30</dim>
					<dim>30</dim>
				</port>
			</input>
			<output>
				<port id="1" precision="FP32">
					<dim>30</dim>
					<dim>30</dim>
				</port>
			</output>
		</layer>
		<layer id="205" name="model_1/softmax_embedding_layer_1/dense_1/MatMul" type="MatMul" version="opset1">
			<data transpose_a="false" transpose_b="true" />
			<input>
				<port id="0" precision="FP32">
					<dim>1</dim>
					<dim>30</dim>
				</port>
				<port id="1" precision="FP32">
					<dim>30</dim>
					<dim>30</dim>
				</port>
			</input>
			<output>
				<port id="2" precision="FP32">
					<dim>1</dim>
					<dim>30</dim>
				</port>
			</output>
		</layer>
		<layer id="206" name="Constant_23938_compressed" type="Const" version="opset1">
			<data element_type="f16" shape="1, 30" offset="25356" size="60" />
			<output>
				<port id="0" precision="FP16">
					<dim>1</dim>
					<dim>30</dim>
				</port>
			</output>
		</layer>
		<layer id="207" name="Constant_23938" type="Convert" version="opset1">
			<data destination_type="f32" />
			<rt_info>
				<attribute name="decompression" version="0" />
			</rt_info>
			<input>
				<port id="0" precision="FP16">
					<dim>1</dim>
					<dim>30</dim>
				</port>
			</input>
			<output>
				<port id="1" precision="FP32">
					<dim>1</dim>
					<dim>30</dim>
				</port>
			</output>
		</layer>
		<layer id="208" name="model_1/softmax_embedding_layer_1/dense_1/BiasAdd" type="Add" version="opset1">
			<data auto_broadcast="numpy" />
			<input>
				<port id="0" precision="FP32">
					<dim>1</dim>
					<dim>30</dim>
				</port>
				<port id="1" precision="FP32">
					<dim>1</dim>
					<dim>30</dim>
				</port>
			</input>
			<output>
				<port id="2" precision="FP32">
					<dim>1</dim>
					<dim>30</dim>
				</port>
			</output>
		</layer>
		<layer id="209" name="model_1/softmax_embedding_layer_1/dense_1/Relu" type="ReLU" version="opset1">
			<input>
				<port id="0" precision="FP32">
					<dim>1</dim>
					<dim>30</dim>
				</port>
			</input>
			<output>
				<port id="1" precision="FP32">
					<dim>1</dim>
					<dim>30</dim>
				</port>
			</output>
		</layer>
		<layer id="210" name="Transpose_22929_compressed" type="Const" version="opset1">
			<data element_type="f16" shape="30, 30" offset="25416" size="1800" />
			<output>
				<port id="0" precision="FP16">
					<dim>30</dim>
					<dim>30</dim>
				</port>
			</output>
		</layer>
		<layer id="211" name="Transpose_22929" type="Convert" version="opset1">
			<data destination_type="f32" />
			<rt_info>
				<attribute name="decompression" version="0" />
			</rt_info>
			<input>
				<port id="0" precision="FP16">
					<dim>30</dim>
					<dim>30</dim>
				</port>
			</input>
			<output>
				<port id="1" precision="FP32">
					<dim>30</dim>
					<dim>30</dim>
				</port>
			</output>
		</layer>
		<layer id="212" name="model_1/softmax_embedding_layer_1/dense_2/MatMul" type="MatMul" version="opset1">
			<data transpose_a="false" transpose_b="true" />
			<input>
				<port id="0" precision="FP32">
					<dim>1</dim>
					<dim>30</dim>
				</port>
				<port id="1" precision="FP32">
					<dim>30</dim>
					<dim>30</dim>
				</port>
			</input>
			<output>
				<port id="2" precision="FP32">
					<dim>1</dim>
					<dim>30</dim>
				</port>
			</output>
		</layer>
		<layer id="213" name="Constant_23939_compressed" type="Const" version="opset1">
			<data element_type="f16" shape="1, 30" offset="27216" size="60" />
			<output>
				<port id="0" precision="FP16">
					<dim>1</dim>
					<dim>30</dim>
				</port>
			</output>
		</layer>
		<layer id="214" name="Constant_23939" type="Convert" version="opset1">
			<data destination_type="f32" />
			<rt_info>
				<attribute name="decompression" version="0" />
			</rt_info>
			<input>
				<port id="0" precision="FP16">
					<dim>1</dim>
					<dim>30</dim>
				</port>
			</input>
			<output>
				<port id="1" precision="FP32">
					<dim>1</dim>
					<dim>30</dim>
				</port>
			</output>
		</layer>
		<layer id="215" name="model_1/softmax_embedding_layer_1/dense_2/BiasAdd" type="Add" version="opset1">
			<data auto_broadcast="numpy" />
			<input>
				<port id="0" precision="FP32">
					<dim>1</dim>
					<dim>30</dim>
				</port>
				<port id="1" precision="FP32">
					<dim>1</dim>
					<dim>30</dim>
				</port>
			</input>
			<output>
				<port id="2" precision="FP32">
					<dim>1</dim>
					<dim>30</dim>
				</port>
			</output>
		</layer>
		<layer id="216" name="model_1/softmax_embedding_layer_1/dense_2/Relu" type="ReLU" version="opset1">
			<input>
				<port id="0" precision="FP32">
					<dim>1</dim>
					<dim>30</dim>
				</port>
			</input>
			<output>
				<port id="1" precision="FP32">
					<dim>1</dim>
					<dim>30</dim>
				</port>
			</output>
		</layer>
		<layer id="217" name="Transpose_22932_compressed" type="Const" version="opset1">
			<data element_type="f16" shape="30, 30" offset="27276" size="1800" />
			<output>
				<port id="0" precision="FP16">
					<dim>30</dim>
					<dim>30</dim>
				</port>
			</output>
		</layer>
		<layer id="218" name="Transpose_22932" type="Convert" version="opset1">
			<data destination_type="f32" />
			<rt_info>
				<attribute name="decompression" version="0" />
			</rt_info>
			<input>
				<port id="0" precision="FP16">
					<dim>30</dim>
					<dim>30</dim>
				</port>
			</input>
			<output>
				<port id="1" precision="FP32">
					<dim>30</dim>
					<dim>30</dim>
				</port>
			</output>
		</layer>
		<layer id="219" name="model_1/softmax_embedding_layer_1/dense_3/MatMul" type="MatMul" version="opset1">
			<data transpose_a="false" transpose_b="true" />
			<input>
				<port id="0" precision="FP32">
					<dim>1</dim>
					<dim>30</dim>
				</port>
				<port id="1" precision="FP32">
					<dim>30</dim>
					<dim>30</dim>
				</port>
			</input>
			<output>
				<port id="2" precision="FP32">
					<dim>1</dim>
					<dim>30</dim>
				</port>
			</output>
		</layer>
		<layer id="220" name="Constant_23940_compressed" type="Const" version="opset1">
			<data element_type="f16" shape="1, 30" offset="29076" size="60" />
			<output>
				<port id="0" precision="FP16">
					<dim>1</dim>
					<dim>30</dim>
				</port>
			</output>
		</layer>
		<layer id="221" name="Constant_23940" type="Convert" version="opset1">
			<data destination_type="f32" />
			<rt_info>
				<attribute name="decompression" version="0" />
			</rt_info>
			<input>
				<port id="0" precision="FP16">
					<dim>1</dim>
					<dim>30</dim>
				</port>
			</input>
			<output>
				<port id="1" precision="FP32">
					<dim>1</dim>
					<dim>30</dim>
				</port>
			</output>
		</layer>
		<layer id="222" name="model_1/softmax_embedding_layer_1/dense_3/BiasAdd" type="Add" version="opset1">
			<data auto_broadcast="numpy" />
			<input>
				<port id="0" precision="FP32">
					<dim>1</dim>
					<dim>30</dim>
				</port>
				<port id="1" precision="FP32">
					<dim>1</dim>
					<dim>30</dim>
				</port>
			</input>
			<output>
				<port id="2" precision="FP32">
					<dim>1</dim>
					<dim>30</dim>
				</port>
			</output>
		</layer>
		<layer id="223" name="model_1/softmax_embedding_layer_1/dense_3/Relu" type="ReLU" version="opset1">
			<input>
				<port id="0" precision="FP32">
					<dim>1</dim>
					<dim>30</dim>
				</port>
			</input>
			<output>
				<port id="1" precision="FP32">
					<dim>1</dim>
					<dim>30</dim>
				</port>
			</output>
		</layer>
		<layer id="224" name="Transpose_22935_compressed" type="Const" version="opset1">
			<data element_type="f16" shape="30, 30" offset="29136" size="1800" />
			<output>
				<port id="0" precision="FP16">
					<dim>30</dim>
					<dim>30</dim>
				</port>
			</output>
		</layer>
		<layer id="225" name="Transpose_22935" type="Convert" version="opset1">
			<data destination_type="f32" />
			<rt_info>
				<attribute name="decompression" version="0" />
			</rt_info>
			<input>
				<port id="0" precision="FP16">
					<dim>30</dim>
					<dim>30</dim>
				</port>
			</input>
			<output>
				<port id="1" precision="FP32">
					<dim>30</dim>
					<dim>30</dim>
				</port>
			</output>
		</layer>
		<layer id="226" name="model_1/softmax_embedding_layer_1/dense_4/MatMul" type="MatMul" version="opset1">
			<data transpose_a="false" transpose_b="true" />
			<input>
				<port id="0" precision="FP32">
					<dim>1</dim>
					<dim>30</dim>
				</port>
				<port id="1" precision="FP32">
					<dim>30</dim>
					<dim>30</dim>
				</port>
			</input>
			<output>
				<port id="2" precision="FP32">
					<dim>1</dim>
					<dim>30</dim>
				</port>
			</output>
		</layer>
		<layer id="227" name="Constant_23941_compressed" type="Const" version="opset1">
			<data element_type="f16" shape="1, 30" offset="30936" size="60" />
			<output>
				<port id="0" precision="FP16">
					<dim>1</dim>
					<dim>30</dim>
				</port>
			</output>
		</layer>
		<layer id="228" name="Constant_23941" type="Convert" version="opset1">
			<data destination_type="f32" />
			<rt_info>
				<attribute name="decompression" version="0" />
			</rt_info>
			<input>
				<port id="0" precision="FP16">
					<dim>1</dim>
					<dim>30</dim>
				</port>
			</input>
			<output>
				<port id="1" precision="FP32">
					<dim>1</dim>
					<dim>30</dim>
				</port>
			</output>
		</layer>
		<layer id="229" name="model_1/softmax_embedding_layer_1/dense_4/BiasAdd" type="Add" version="opset1">
			<data auto_broadcast="numpy" />
			<input>
				<port id="0" precision="FP32">
					<dim>1</dim>
					<dim>30</dim>
				</port>
				<port id="1" precision="FP32">
					<dim>1</dim>
					<dim>30</dim>
				</port>
			</input>
			<output>
				<port id="2" precision="FP32">
					<dim>1</dim>
					<dim>30</dim>
				</port>
			</output>
		</layer>
		<layer id="230" name="model_1/softmax_embedding_layer_1/dense_4/Relu" type="ReLU" version="opset1">
			<input>
				<port id="0" precision="FP32">
					<dim>1</dim>
					<dim>30</dim>
				</port>
			</input>
			<output>
				<port id="1" precision="FP32">
					<dim>1</dim>
					<dim>30</dim>
				</port>
			</output>
		</layer>
		<layer id="231" name="Transpose_22938_compressed" type="Const" version="opset1">
			<data element_type="f16" shape="30, 30" offset="30996" size="1800" />
			<output>
				<port id="0" precision="FP16">
					<dim>30</dim>
					<dim>30</dim>
				</port>
			</output>
		</layer>
		<layer id="232" name="Transpose_22938" type="Convert" version="opset1">
			<data destination_type="f32" />
			<rt_info>
				<attribute name="decompression" version="0" />
			</rt_info>
			<input>
				<port id="0" precision="FP16">
					<dim>30</dim>
					<dim>30</dim>
				</port>
			</input>
			<output>
				<port id="1" precision="FP32">
					<dim>30</dim>
					<dim>30</dim>
				</port>
			</output>
		</layer>
		<layer id="233" name="model_1/softmax_embedding_layer_1/dense_5/MatMul" type="MatMul" version="opset1">
			<data transpose_a="false" transpose_b="true" />
			<input>
				<port id="0" precision="FP32">
					<dim>1</dim>
					<dim>30</dim>
				</port>
				<port id="1" precision="FP32">
					<dim>30</dim>
					<dim>30</dim>
				</port>
			</input>
			<output>
				<port id="2" precision="FP32">
					<dim>1</dim>
					<dim>30</dim>
				</port>
			</output>
		</layer>
		<layer id="234" name="Constant_23942_compressed" type="Const" version="opset1">
			<data element_type="f16" shape="1, 30" offset="32796" size="60" />
			<output>
				<port id="0" precision="FP16">
					<dim>1</dim>
					<dim>30</dim>
				</port>
			</output>
		</layer>
		<layer id="235" name="Constant_23942" type="Convert" version="opset1">
			<data destination_type="f32" />
			<rt_info>
				<attribute name="decompression" version="0" />
			</rt_info>
			<input>
				<port id="0" precision="FP16">
					<dim>1</dim>
					<dim>30</dim>
				</port>
			</input>
			<output>
				<port id="1" precision="FP32">
					<dim>1</dim>
					<dim>30</dim>
				</port>
			</output>
		</layer>
		<layer id="236" name="model_1/softmax_embedding_layer_1/dense_5/BiasAdd" type="Add" version="opset1">
			<data auto_broadcast="numpy" />
			<input>
				<port id="0" precision="FP32">
					<dim>1</dim>
					<dim>30</dim>
				</port>
				<port id="1" precision="FP32">
					<dim>1</dim>
					<dim>30</dim>
				</port>
			</input>
			<output>
				<port id="2" precision="FP32">
					<dim>1</dim>
					<dim>30</dim>
				</port>
			</output>
		</layer>
		<layer id="237" name="model_1/softmax_embedding_layer_1/dense_5/Relu" type="ReLU" version="opset1">
			<input>
				<port id="0" precision="FP32">
					<dim>1</dim>
					<dim>30</dim>
				</port>
			</input>
			<output>
				<port id="1" precision="FP32">
					<dim>1</dim>
					<dim>30</dim>
				</port>
			</output>
		</layer>
		<layer id="238" name="Transpose_22941_compressed" type="Const" version="opset1">
			<data element_type="f16" shape="30, 30" offset="32856" size="1800" />
			<output>
				<port id="0" precision="FP16">
					<dim>30</dim>
					<dim>30</dim>
				</port>
			</output>
		</layer>
		<layer id="239" name="Transpose_22941" type="Convert" version="opset1">
			<data destination_type="f32" />
			<rt_info>
				<attribute name="decompression" version="0" />
			</rt_info>
			<input>
				<port id="0" precision="FP16">
					<dim>30</dim>
					<dim>30</dim>
				</port>
			</input>
			<output>
				<port id="1" precision="FP32">
					<dim>30</dim>
					<dim>30</dim>
				</port>
			</output>
		</layer>
		<layer id="240" name="model_1/softmax_embedding_layer_1/dense_6/MatMul" type="MatMul" version="opset1">
			<data transpose_a="false" transpose_b="true" />
			<input>
				<port id="0" precision="FP32">
					<dim>1</dim>
					<dim>30</dim>
				</port>
				<port id="1" precision="FP32">
					<dim>30</dim>
					<dim>30</dim>
				</port>
			</input>
			<output>
				<port id="2" precision="FP32">
					<dim>1</dim>
					<dim>30</dim>
				</port>
			</output>
		</layer>
		<layer id="241" name="Constant_23943_compressed" type="Const" version="opset1">
			<data element_type="f16" shape="1, 30" offset="34656" size="60" />
			<output>
				<port id="0" precision="FP16">
					<dim>1</dim>
					<dim>30</dim>
				</port>
			</output>
		</layer>
		<layer id="242" name="Constant_23943" type="Convert" version="opset1">
			<data destination_type="f32" />
			<rt_info>
				<attribute name="decompression" version="0" />
			</rt_info>
			<input>
				<port id="0" precision="FP16">
					<dim>1</dim>
					<dim>30</dim>
				</port>
			</input>
			<output>
				<port id="1" precision="FP32">
					<dim>1</dim>
					<dim>30</dim>
				</port>
			</output>
		</layer>
		<layer id="243" name="model_1/softmax_embedding_layer_1/dense_6/BiasAdd" type="Add" version="opset1">
			<data auto_broadcast="numpy" />
			<input>
				<port id="0" precision="FP32">
					<dim>1</dim>
					<dim>30</dim>
				</port>
				<port id="1" precision="FP32">
					<dim>1</dim>
					<dim>30</dim>
				</port>
			</input>
			<output>
				<port id="2" precision="FP32">
					<dim>1</dim>
					<dim>30</dim>
				</port>
			</output>
		</layer>
		<layer id="244" name="model_1/softmax_embedding_layer_1/dense_6/Relu" type="ReLU" version="opset1">
			<input>
				<port id="0" precision="FP32">
					<dim>1</dim>
					<dim>30</dim>
				</port>
			</input>
			<output>
				<port id="1" precision="FP32">
					<dim>1</dim>
					<dim>30</dim>
				</port>
			</output>
		</layer>
		<layer id="245" name="Transpose_22944_compressed" type="Const" version="opset1">
			<data element_type="f16" shape="30, 30" offset="34716" size="1800" />
			<output>
				<port id="0" precision="FP16">
					<dim>30</dim>
					<dim>30</dim>
				</port>
			</output>
		</layer>
		<layer id="246" name="Transpose_22944" type="Convert" version="opset1">
			<data destination_type="f32" />
			<rt_info>
				<attribute name="decompression" version="0" />
			</rt_info>
			<input>
				<port id="0" precision="FP16">
					<dim>30</dim>
					<dim>30</dim>
				</port>
			</input>
			<output>
				<port id="1" precision="FP32">
					<dim>30</dim>
					<dim>30</dim>
				</port>
			</output>
		</layer>
		<layer id="247" name="model_1/softmax_embedding_layer_1/dense_7/MatMul" type="MatMul" version="opset1">
			<data transpose_a="false" transpose_b="true" />
			<input>
				<port id="0" precision="FP32">
					<dim>1</dim>
					<dim>30</dim>
				</port>
				<port id="1" precision="FP32">
					<dim>30</dim>
					<dim>30</dim>
				</port>
			</input>
			<output>
				<port id="2" precision="FP32">
					<dim>1</dim>
					<dim>30</dim>
				</port>
			</output>
		</layer>
		<layer id="248" name="Constant_23944_compressed" type="Const" version="opset1">
			<data element_type="f16" shape="1, 30" offset="36516" size="60" />
			<output>
				<port id="0" precision="FP16">
					<dim>1</dim>
					<dim>30</dim>
				</port>
			</output>
		</layer>
		<layer id="249" name="Constant_23944" type="Convert" version="opset1">
			<data destination_type="f32" />
			<rt_info>
				<attribute name="decompression" version="0" />
			</rt_info>
			<input>
				<port id="0" precision="FP16">
					<dim>1</dim>
					<dim>30</dim>
				</port>
			</input>
			<output>
				<port id="1" precision="FP32">
					<dim>1</dim>
					<dim>30</dim>
				</port>
			</output>
		</layer>
		<layer id="250" name="model_1/softmax_embedding_layer_1/dense_7/BiasAdd" type="Add" version="opset1">
			<data auto_broadcast="numpy" />
			<input>
				<port id="0" precision="FP32">
					<dim>1</dim>
					<dim>30</dim>
				</port>
				<port id="1" precision="FP32">
					<dim>1</dim>
					<dim>30</dim>
				</port>
			</input>
			<output>
				<port id="2" precision="FP32">
					<dim>1</dim>
					<dim>30</dim>
				</port>
			</output>
		</layer>
		<layer id="251" name="model_1/softmax_embedding_layer_1/dense_7/Relu" type="ReLU" version="opset1">
			<input>
				<port id="0" precision="FP32">
					<dim>1</dim>
					<dim>30</dim>
				</port>
			</input>
			<output>
				<port id="1" precision="FP32">
					<dim>1</dim>
					<dim>30</dim>
				</port>
			</output>
		</layer>
		<layer id="252" name="Transpose_22947_compressed" type="Const" version="opset1">
			<data element_type="f16" shape="30, 30" offset="36576" size="1800" />
			<output>
				<port id="0" precision="FP16">
					<dim>30</dim>
					<dim>30</dim>
				</port>
			</output>
		</layer>
		<layer id="253" name="Transpose_22947" type="Convert" version="opset1">
			<data destination_type="f32" />
			<rt_info>
				<attribute name="decompression" version="0" />
			</rt_info>
			<input>
				<port id="0" precision="FP16">
					<dim>30</dim>
					<dim>30</dim>
				</port>
			</input>
			<output>
				<port id="1" precision="FP32">
					<dim>30</dim>
					<dim>30</dim>
				</port>
			</output>
		</layer>
		<layer id="254" name="model_1/softmax_embedding_layer_1/dense_8/MatMul" type="MatMul" version="opset1">
			<data transpose_a="false" transpose_b="true" />
			<input>
				<port id="0" precision="FP32">
					<dim>1</dim>
					<dim>30</dim>
				</port>
				<port id="1" precision="FP32">
					<dim>30</dim>
					<dim>30</dim>
				</port>
			</input>
			<output>
				<port id="2" precision="FP32">
					<dim>1</dim>
					<dim>30</dim>
				</port>
			</output>
		</layer>
		<layer id="255" name="Constant_23945_compressed" type="Const" version="opset1">
			<data element_type="f16" shape="1, 30" offset="38376" size="60" />
			<output>
				<port id="0" precision="FP16">
					<dim>1</dim>
					<dim>30</dim>
				</port>
			</output>
		</layer>
		<layer id="256" name="Constant_23945" type="Convert" version="opset1">
			<data destination_type="f32" />
			<rt_info>
				<attribute name="decompression" version="0" />
			</rt_info>
			<input>
				<port id="0" precision="FP16">
					<dim>1</dim>
					<dim>30</dim>
				</port>
			</input>
			<output>
				<port id="1" precision="FP32">
					<dim>1</dim>
					<dim>30</dim>
				</port>
			</output>
		</layer>
		<layer id="257" name="model_1/softmax_embedding_layer_1/dense_8/BiasAdd" type="Add" version="opset1">
			<data auto_broadcast="numpy" />
			<input>
				<port id="0" precision="FP32">
					<dim>1</dim>
					<dim>30</dim>
				</port>
				<port id="1" precision="FP32">
					<dim>1</dim>
					<dim>30</dim>
				</port>
			</input>
			<output>
				<port id="2" precision="FP32">
					<dim>1</dim>
					<dim>30</dim>
				</port>
			</output>
		</layer>
		<layer id="258" name="model_1/softmax_embedding_layer_1/dense_8/Relu" type="ReLU" version="opset1">
			<input>
				<port id="0" precision="FP32">
					<dim>1</dim>
					<dim>30</dim>
				</port>
			</input>
			<output>
				<port id="1" precision="FP32">
					<dim>1</dim>
					<dim>30</dim>
				</port>
			</output>
		</layer>
		<layer id="259" name="Transpose_22950_compressed" type="Const" version="opset1">
			<data element_type="f16" shape="30, 30" offset="38436" size="1800" />
			<output>
				<port id="0" precision="FP16">
					<dim>30</dim>
					<dim>30</dim>
				</port>
			</output>
		</layer>
		<layer id="260" name="Transpose_22950" type="Convert" version="opset1">
			<data destination_type="f32" />
			<rt_info>
				<attribute name="decompression" version="0" />
			</rt_info>
			<input>
				<port id="0" precision="FP16">
					<dim>30</dim>
					<dim>30</dim>
				</port>
			</input>
			<output>
				<port id="1" precision="FP32">
					<dim>30</dim>
					<dim>30</dim>
				</port>
			</output>
		</layer>
		<layer id="261" name="model_1/softmax_embedding_layer_1/dense_9/MatMul" type="MatMul" version="opset1">
			<data transpose_a="false" transpose_b="true" />
			<input>
				<port id="0" precision="FP32">
					<dim>1</dim>
					<dim>30</dim>
				</port>
				<port id="1" precision="FP32">
					<dim>30</dim>
					<dim>30</dim>
				</port>
			</input>
			<output>
				<port id="2" precision="FP32">
					<dim>1</dim>
					<dim>30</dim>
				</port>
			</output>
		</layer>
		<layer id="262" name="Constant_23946_compressed" type="Const" version="opset1">
			<data element_type="f16" shape="1, 30" offset="40236" size="60" />
			<output>
				<port id="0" precision="FP16">
					<dim>1</dim>
					<dim>30</dim>
				</port>
			</output>
		</layer>
		<layer id="263" name="Constant_23946" type="Convert" version="opset1">
			<data destination_type="f32" />
			<rt_info>
				<attribute name="decompression" version="0" />
			</rt_info>
			<input>
				<port id="0" precision="FP16">
					<dim>1</dim>
					<dim>30</dim>
				</port>
			</input>
			<output>
				<port id="1" precision="FP32">
					<dim>1</dim>
					<dim>30</dim>
				</port>
			</output>
		</layer>
		<layer id="264" name="model_1/softmax_embedding_layer_1/dense_9/BiasAdd" type="Add" version="opset1">
			<data auto_broadcast="numpy" />
			<input>
				<port id="0" precision="FP32">
					<dim>1</dim>
					<dim>30</dim>
				</port>
				<port id="1" precision="FP32">
					<dim>1</dim>
					<dim>30</dim>
				</port>
			</input>
			<output>
				<port id="2" precision="FP32">
					<dim>1</dim>
					<dim>30</dim>
				</port>
			</output>
		</layer>
		<layer id="265" name="model_1/softmax_embedding_layer_1/dense_9/Relu" type="ReLU" version="opset1">
			<input>
				<port id="0" precision="FP32">
					<dim>1</dim>
					<dim>30</dim>
				</port>
			</input>
			<output>
				<port id="1" precision="FP32">
					<dim>1</dim>
					<dim>30</dim>
				</port>
			</output>
		</layer>
		<layer id="266" name="Transpose_22953_compressed" type="Const" version="opset1">
			<data element_type="f16" shape="10, 30" offset="40296" size="600" />
			<output>
				<port id="0" precision="FP16">
					<dim>10</dim>
					<dim>30</dim>
				</port>
			</output>
		</layer>
		<layer id="267" name="Transpose_22953" type="Convert" version="opset1">
			<data destination_type="f32" />
			<rt_info>
				<attribute name="decompression" version="0" />
			</rt_info>
			<input>
				<port id="0" precision="FP16">
					<dim>10</dim>
					<dim>30</dim>
				</port>
			</input>
			<output>
				<port id="1" precision="FP32">
					<dim>10</dim>
					<dim>30</dim>
				</port>
			</output>
		</layer>
		<layer id="268" name="model_1/softmax_embedding_layer_1/dense_10/MatMul" type="MatMul" version="opset1">
			<data transpose_a="false" transpose_b="true" />
			<input>
				<port id="0" precision="FP32">
					<dim>1</dim>
					<dim>30</dim>
				</port>
				<port id="1" precision="FP32">
					<dim>10</dim>
					<dim>30</dim>
				</port>
			</input>
			<output>
				<port id="2" precision="FP32">
					<dim>1</dim>
					<dim>10</dim>
				</port>
			</output>
		</layer>
		<layer id="269" name="Constant_23947_compressed" type="Const" version="opset1">
			<data element_type="f16" shape="1, 10" offset="40896" size="20" />
			<output>
				<port id="0" precision="FP16">
					<dim>1</dim>
					<dim>10</dim>
				</port>
			</output>
		</layer>
		<layer id="270" name="Constant_23947" type="Convert" version="opset1">
			<data destination_type="f32" />
			<rt_info>
				<attribute name="decompression" version="0" />
			</rt_info>
			<input>
				<port id="0" precision="FP16">
					<dim>1</dim>
					<dim>10</dim>
				</port>
			</input>
			<output>
				<port id="1" precision="FP32">
					<dim>1</dim>
					<dim>10</dim>
				</port>
			</output>
		</layer>
		<layer id="271" name="model_1/softmax_embedding_layer_1/dense_10/BiasAdd" type="Add" version="opset1">
			<data auto_broadcast="numpy" />
			<input>
				<port id="0" precision="FP32">
					<dim>1</dim>
					<dim>10</dim>
				</port>
				<port id="1" precision="FP32">
					<dim>1</dim>
					<dim>10</dim>
				</port>
			</input>
			<output>
				<port id="2" precision="FP32">
					<dim>1</dim>
					<dim>10</dim>
				</port>
			</output>
		</layer>
		<layer id="272" name="model_1/softmax_embedding_layer_1/Softmax" type="SoftMax" version="opset8">
			<data axis="-1" />
			<input>
				<port id="0" precision="FP32">
					<dim>1</dim>
					<dim>10</dim>
				</port>
			</input>
			<output>
				<port id="1" precision="FP32">
					<dim>1</dim>
					<dim>10</dim>
				</port>
			</output>
		</layer>
		<layer id="273" name="model_1/tf.__operators__.getitem_11/strided_slice/stack" type="Const" version="opset1">
			<data element_type="i32" shape="4" offset="40916" size="16" />
			<rt_info>
				<attribute name="precise" version="0" />
			</rt_info>
			<output>
				<port id="0" precision="I32">
					<dim>4</dim>
				</port>
			</output>
		</layer>
		<layer id="274" name="model_1/tf.__operators__.getitem_11/strided_slice/stack_1" type="Const" version="opset1">
			<data element_type="i32" shape="4" offset="40916" size="16" />
			<rt_info>
				<attribute name="precise" version="0" />
			</rt_info>
			<output>
				<port id="0" precision="I32">
					<dim>4</dim>
				</port>
			</output>
		</layer>
		<layer id="275" name="model_1/tf.__operators__.getitem_11/strided_slice/stack_2" type="Const" version="opset1">
			<data element_type="i32" shape="4" offset="40932" size="16" />
			<rt_info>
				<attribute name="precise" version="0" />
			</rt_info>
			<output>
				<port id="0" precision="I32">
					<dim>4</dim>
				</port>
			</output>
		</layer>
		<layer id="276" name="model_1/tf.__operators__.getitem_11/strided_slice" type="StridedSlice" version="opset1">
			<data begin_mask="1, 0, 0, 1" end_mask="1, 0, 0, 1" new_axis_mask="0, 1, 1, 0" shrink_axis_mask="0, 0, 0, 0" ellipsis_mask="0, 0, 0, 0" />
			<input>
				<port id="0" precision="FP32">
					<dim>1</dim>
					<dim>10</dim>
				</port>
				<port id="1" precision="I32">
					<dim>4</dim>
				</port>
				<port id="2" precision="I32">
					<dim>4</dim>
				</port>
				<port id="3" precision="I32">
					<dim>4</dim>
				</port>
			</input>
			<output>
				<port id="4" precision="FP32">
					<dim>1</dim>
					<dim>1</dim>
					<dim>1</dim>
					<dim>10</dim>
				</port>
			</output>
		</layer>
		<layer id="277" name="model_1/tf.__operators__.getitem_12/strided_slice/stack" type="Const" version="opset1">
			<data element_type="i32" shape="2" offset="40948" size="8" />
			<rt_info>
				<attribute name="precise" version="0" />
			</rt_info>
			<output>
				<port id="0" precision="I32">
					<dim>2</dim>
				</port>
			</output>
		</layer>
		<layer id="278" name="model_1/tf.__operators__.getitem_12/strided_slice/stack_1" type="Const" version="opset1">
			<data element_type="i32" shape="2" offset="40956" size="8" />
			<rt_info>
				<attribute name="precise" version="0" />
			</rt_info>
			<output>
				<port id="0" precision="I32">
					<dim>2</dim>
				</port>
			</output>
		</layer>
		<layer id="279" name="model_1/tf.__operators__.getitem_12/strided_slice/stack_2" type="Const" version="opset1">
			<data element_type="i32" shape="2" offset="40964" size="8" />
			<rt_info>
				<attribute name="precise" version="0" />
			</rt_info>
			<output>
				<port id="0" precision="I32">
					<dim>2</dim>
				</port>
			</output>
		</layer>
		<layer id="280" name="model_1/tf.__operators__.getitem_12/strided_slice" type="StridedSlice" version="opset1">
			<data begin_mask="0, 0" end_mask="0, 0" new_axis_mask="0, 0" shrink_axis_mask="0, 1" ellipsis_mask="1, 0" />
			<input>
				<port id="0" precision="FP32">
					<dim>1</dim>
					<dim>1</dim>
					<dim>1</dim>
					<dim>10</dim>
				</port>
				<port id="1" precision="I32">
					<dim>2</dim>
				</port>
				<port id="2" precision="I32">
					<dim>2</dim>
				</port>
				<port id="3" precision="I32">
					<dim>2</dim>
				</port>
			</input>
			<output>
				<port id="4" precision="FP32">
					<dim>1</dim>
					<dim>1</dim>
					<dim>1</dim>
				</port>
			</output>
		</layer>
		<layer id="281" name="model_1/multiply_10/mul" type="Multiply" version="opset1">
			<data auto_broadcast="numpy" />
			<input>
				<port id="0" precision="FP32">
					<dim>1</dim>
					<dim>256</dim>
					<dim>64</dim>
				</port>
				<port id="1" precision="FP32">
					<dim>1</dim>
					<dim>1</dim>
					<dim>1</dim>
				</port>
			</input>
			<output>
				<port id="2" precision="FP32">
					<dim>1</dim>
					<dim>256</dim>
					<dim>64</dim>
				</port>
			</output>
		</layer>
		<layer id="282" name="model_1/ttl_11/sequential_11/tt_dense_11/t3f_matmul/t3f_transpose/transpose_compressed" type="Const" version="opset1">
			<data element_type="f16" shape="1, 4, 4, 16" offset="40972" size="512" />
			<output>
				<port id="0" precision="FP16">
					<dim>1</dim>
					<dim>4</dim>
					<dim>4</dim>
					<dim>16</dim>
				</port>
			</output>
		</layer>
		<layer id="283" name="model_1/ttl_11/sequential_11/tt_dense_11/t3f_matmul/t3f_transpose/transpose" type="Convert" version="opset1">
			<data destination_type="f32" />
			<rt_info>
				<attribute name="decompression" version="0" />
			</rt_info>
			<input>
				<port id="0" precision="FP16">
					<dim>1</dim>
					<dim>4</dim>
					<dim>4</dim>
					<dim>16</dim>
				</port>
			</input>
			<output>
				<port id="1" precision="FP32">
					<dim>1</dim>
					<dim>4</dim>
					<dim>4</dim>
					<dim>16</dim>
				</port>
			</output>
		</layer>
		<layer id="284" name="model_1/ttl_11/sequential_11/tt_dense_11/t3f_matmul/t3f_transpose/transpose_1_compressed" type="Const" version="opset1">
			<data element_type="f16" shape="16, 4, 4, 16" offset="41484" size="8192" />
			<output>
				<port id="0" precision="FP16">
					<dim>16</dim>
					<dim>4</dim>
					<dim>4</dim>
					<dim>16</dim>
				</port>
			</output>
		</layer>
		<layer id="285" name="model_1/ttl_11/sequential_11/tt_dense_11/t3f_matmul/t3f_transpose/transpose_1" type="Convert" version="opset1">
			<data destination_type="f32" />
			<rt_info>
				<attribute name="decompression" version="0" />
			</rt_info>
			<input>
				<port id="0" precision="FP16">
					<dim>16</dim>
					<dim>4</dim>
					<dim>4</dim>
					<dim>16</dim>
				</port>
			</input>
			<output>
				<port id="1" precision="FP32">
					<dim>16</dim>
					<dim>4</dim>
					<dim>4</dim>
					<dim>16</dim>
				</port>
			</output>
		</layer>
		<layer id="286" name="model_1/ttl_11/sequential_11/tt_dense_11/t3f_matmul/t3f_transpose/transpose_2_compressed" type="Const" version="opset1">
			<data element_type="f16" shape="16, 4, 2, 16" offset="49676" size="4096" />
			<output>
				<port id="0" precision="FP16">
					<dim>16</dim>
					<dim>4</dim>
					<dim>2</dim>
					<dim>16</dim>
				</port>
			</output>
		</layer>
		<layer id="287" name="model_1/ttl_11/sequential_11/tt_dense_11/t3f_matmul/t3f_transpose/transpose_2" type="Convert" version="opset1">
			<data destination_type="f32" />
			<rt_info>
				<attribute name="decompression" version="0" />
			</rt_info>
			<input>
				<port id="0" precision="FP16">
					<dim>16</dim>
					<dim>4</dim>
					<dim>2</dim>
					<dim>16</dim>
				</port>
			</input>
			<output>
				<port id="1" precision="FP32">
					<dim>16</dim>
					<dim>4</dim>
					<dim>2</dim>
					<dim>16</dim>
				</port>
			</output>
		</layer>
		<layer id="288" name="model_1/ttl_11/sequential_11/tt_dense_11/t3f_matmul/t3f_transpose/transpose_3_compressed" type="Const" version="opset1">
			<data element_type="f16" shape="16, 4, 2, 16" offset="53772" size="4096" />
			<output>
				<port id="0" precision="FP16">
					<dim>16</dim>
					<dim>4</dim>
					<dim>2</dim>
					<dim>16</dim>
				</port>
			</output>
		</layer>
		<layer id="289" name="model_1/ttl_11/sequential_11/tt_dense_11/t3f_matmul/t3f_transpose/transpose_3" type="Convert" version="opset1">
			<data destination_type="f32" />
			<rt_info>
				<attribute name="decompression" version="0" />
			</rt_info>
			<input>
				<port id="0" precision="FP16">
					<dim>16</dim>
					<dim>4</dim>
					<dim>2</dim>
					<dim>16</dim>
				</port>
			</input>
			<output>
				<port id="1" precision="FP32">
					<dim>16</dim>
					<dim>4</dim>
					<dim>2</dim>
					<dim>16</dim>
				</port>
			</output>
		</layer>
		<layer id="290" name="model_1/ttl_11/sequential_11/tt_dense_11/t3f_matmul/t3f_transpose/transpose_4_compressed" type="Const" version="opset1">
			<data element_type="f16" shape="16, 4, 2, 16" offset="57868" size="4096" />
			<output>
				<port id="0" precision="FP16">
					<dim>16</dim>
					<dim>4</dim>
					<dim>2</dim>
					<dim>16</dim>
				</port>
			</output>
		</layer>
		<layer id="291" name="model_1/ttl_11/sequential_11/tt_dense_11/t3f_matmul/t3f_transpose/transpose_4" type="Convert" version="opset1">
			<data destination_type="f32" />
			<rt_info>
				<attribute name="decompression" version="0" />
			</rt_info>
			<input>
				<port id="0" precision="FP16">
					<dim>16</dim>
					<dim>4</dim>
					<dim>2</dim>
					<dim>16</dim>
				</port>
			</input>
			<output>
				<port id="1" precision="FP32">
					<dim>16</dim>
					<dim>4</dim>
					<dim>2</dim>
					<dim>16</dim>
				</port>
			</output>
		</layer>
		<layer id="292" name="model_1/ttl_11/sequential_11/tt_dense_11/t3f_matmul/t3f_transpose/transpose_5_compressed" type="Const" version="opset1">
			<data element_type="f16" shape="16, 4, 2, 7" offset="61964" size="1792" />
			<output>
				<port id="0" precision="FP16">
					<dim>16</dim>
					<dim>4</dim>
					<dim>2</dim>
					<dim>7</dim>
				</port>
			</output>
		</layer>
		<layer id="293" name="model_1/ttl_11/sequential_11/tt_dense_11/t3f_matmul/t3f_transpose/transpose_5" type="Convert" version="opset1">
			<data destination_type="f32" />
			<rt_info>
				<attribute name="decompression" version="0" />
			</rt_info>
			<input>
				<port id="0" precision="FP16">
					<dim>16</dim>
					<dim>4</dim>
					<dim>2</dim>
					<dim>7</dim>
				</port>
			</input>
			<output>
				<port id="1" precision="FP32">
					<dim>16</dim>
					<dim>4</dim>
					<dim>2</dim>
					<dim>7</dim>
				</port>
			</output>
		</layer>
		<layer id="294" name="model_1/ttl_11/sequential_11/tt_dense_11/t3f_matmul/t3f_transpose/transpose_6_compressed" type="Const" version="opset1">
			<data element_type="f16" shape="7, 4, 2, 1" offset="63756" size="112" />
			<output>
				<port id="0" precision="FP16">
					<dim>7</dim>
					<dim>4</dim>
					<dim>2</dim>
					<dim>1</dim>
				</port>
			</output>
		</layer>
		<layer id="295" name="model_1/ttl_11/sequential_11/tt_dense_11/t3f_matmul/t3f_transpose/transpose_6" type="Convert" version="opset1">
			<data destination_type="f32" />
			<rt_info>
				<attribute name="decompression" version="0" />
			</rt_info>
			<input>
				<port id="0" precision="FP16">
					<dim>7</dim>
					<dim>4</dim>
					<dim>2</dim>
					<dim>1</dim>
				</port>
			</input>
			<output>
				<port id="1" precision="FP32">
					<dim>7</dim>
					<dim>4</dim>
					<dim>2</dim>
					<dim>1</dim>
				</port>
			</output>
		</layer>
		<layer id="296" name="model_1/ttl_11/sequential_11/einsum_ttl_11/strided_slice/stack" type="Const" version="opset1">
			<data element_type="i32" shape="3" offset="22900" size="12" />
			<rt_info>
				<attribute name="precise" version="0" />
			</rt_info>
			<output>
				<port id="0" precision="I32">
					<dim>3</dim>
				</port>
			</output>
		</layer>
		<layer id="297" name="model_1/ttl_11/sequential_11/einsum_ttl_11/strided_slice/stack_1" type="Const" version="opset1">
			<data element_type="i32" shape="3" offset="22912" size="12" />
			<rt_info>
				<attribute name="precise" version="0" />
			</rt_info>
			<output>
				<port id="0" precision="I32">
					<dim>3</dim>
				</port>
			</output>
		</layer>
		<layer id="298" name="model_1/ttl_11/sequential_11/einsum_ttl_11/strided_slice/stack_2" type="Const" version="opset1">
			<data element_type="i32" shape="3" offset="22924" size="12" />
			<rt_info>
				<attribute name="precise" version="0" />
			</rt_info>
			<output>
				<port id="0" precision="I32">
					<dim>3</dim>
				</port>
			</output>
		</layer>
		<layer id="299" name="model_1/ttl_11/sequential_11/einsum_ttl_11/strided_slice" type="StridedSlice" version="opset1">
			<data begin_mask="1, 1, 1" end_mask="1, 0, 0" new_axis_mask="0, 0, 0" shrink_axis_mask="0, 0, 0" ellipsis_mask="0, 0, 0" />
			<input>
				<port id="0" precision="FP32">
					<dim>1</dim>
					<dim>128</dim>
					<dim>16</dim>
				</port>
				<port id="1" precision="I32">
					<dim>3</dim>
				</port>
				<port id="2" precision="I32">
					<dim>3</dim>
				</port>
				<port id="3" precision="I32">
					<dim>3</dim>
				</port>
			</input>
			<output>
				<port id="4" precision="FP32">
					<dim>1</dim>
					<dim>64</dim>
					<dim>8</dim>
				</port>
			</output>
		</layer>
		<layer id="300" name="model_1/ttl_11/sequential_11/einsum_ttl_11/strided_slice_1_compressed" type="Const" version="opset1">
			<data element_type="f16" shape="8" offset="63868" size="16" />
			<output>
				<port id="0" precision="FP16">
					<dim>8</dim>
				</port>
			</output>
		</layer>
		<layer id="301" name="model_1/ttl_11/sequential_11/einsum_ttl_11/strided_slice_1" type="Convert" version="opset1">
			<data destination_type="f32" />
			<rt_info>
				<attribute name="decompression" version="0" />
			</rt_info>
			<input>
				<port id="0" precision="FP16">
					<dim>8</dim>
				</port>
			</input>
			<output>
				<port id="1" precision="FP32">
					<dim>8</dim>
				</port>
			</output>
		</layer>
		<layer id="302" name="model_1/ttl_11/sequential_11/einsum_ttl_11/einsum/Einsum" type="Einsum" version="opset7">
			<data equation="abc,c->ab" />
			<input>
				<port id="0" precision="FP32">
					<dim>1</dim>
					<dim>64</dim>
					<dim>8</dim>
				</port>
				<port id="1" precision="FP32">
					<dim>8</dim>
				</port>
			</input>
			<output>
				<port id="2" precision="FP32">
					<dim>1</dim>
					<dim>64</dim>
				</port>
			</output>
		</layer>
		<layer id="303" name="model_1/ttl_11/sequential_11/einsum_ttl_11/strided_slice_2/stack" type="Const" version="opset1">
			<data element_type="i32" shape="3" offset="22952" size="12" />
			<rt_info>
				<attribute name="precise" version="0" />
			</rt_info>
			<output>
				<port id="0" precision="I32">
					<dim>3</dim>
				</port>
			</output>
		</layer>
		<layer id="304" name="model_1/ttl_11/sequential_11/einsum_ttl_11/strided_slice_2/stack_1" type="Const" version="opset1">
			<data element_type="i32" shape="3" offset="22964" size="12" />
			<rt_info>
				<attribute name="precise" version="0" />
			</rt_info>
			<output>
				<port id="0" precision="I32">
					<dim>3</dim>
				</port>
			</output>
		</layer>
		<layer id="305" name="model_1/ttl_11/sequential_11/einsum_ttl_11/strided_slice_2/stack_2" type="Const" version="opset1">
			<data element_type="i32" shape="3" offset="22924" size="12" />
			<rt_info>
				<attribute name="precise" version="0" />
			</rt_info>
			<output>
				<port id="0" precision="I32">
					<dim>3</dim>
				</port>
			</output>
		</layer>
		<layer id="306" name="model_1/ttl_11/sequential_11/einsum_ttl_11/strided_slice_2" type="StridedSlice" version="opset1">
			<data begin_mask="1, 1" end_mask="1, 0" new_axis_mask="0, 0" shrink_axis_mask="0, 0" ellipsis_mask="0, 0" />
			<input>
				<port id="0" precision="FP32">
					<dim>1</dim>
					<dim>128</dim>
					<dim>16</dim>
				</port>
				<port id="1" precision="I32">
					<dim>3</dim>
				</port>
				<port id="2" precision="I32">
					<dim>3</dim>
				</port>
				<port id="3" precision="I32">
					<dim>3</dim>
				</port>
			</input>
			<output>
				<port id="4" precision="FP32">
					<dim>1</dim>
					<dim>64</dim>
					<dim>8</dim>
				</port>
			</output>
		</layer>
		<layer id="307" name="Unsqueeze_3165_compressed" type="Const" version="opset1">
			<data element_type="f16" shape="1, 8" offset="63884" size="16" />
			<output>
				<port id="0" precision="FP16">
					<dim>1</dim>
					<dim>8</dim>
				</port>
			</output>
		</layer>
		<layer id="308" name="Unsqueeze_3165" type="Convert" version="opset1">
			<data destination_type="f32" />
			<rt_info>
				<attribute name="decompression" version="0" />
			</rt_info>
			<input>
				<port id="0" precision="FP16">
					<dim>1</dim>
					<dim>8</dim>
				</port>
			</input>
			<output>
				<port id="1" precision="FP32">
					<dim>1</dim>
					<dim>8</dim>
				</port>
			</output>
		</layer>
		<layer id="309" name="Broadcast_3172" type="Const" version="opset1">
			<data element_type="i32" shape="1" offset="22992" size="4" />
			<output>
				<port id="0" precision="I32">
					<dim>1</dim>
				</port>
			</output>
		</layer>
		<layer id="310" name="ReverseSequence_3175" type="ReverseSequence" version="opset1">
			<data batch_axis="0" seq_axis="1" />
			<input>
				<port id="0" precision="FP32">
					<dim>1</dim>
					<dim>8</dim>
				</port>
				<port id="1" precision="I32">
					<dim>1</dim>
				</port>
			</input>
			<output>
				<port id="2" precision="FP32">
					<dim>1</dim>
					<dim>8</dim>
				</port>
			</output>
		</layer>
		<layer id="311" name="Constant_3176" type="Const" version="opset1">
			<data element_type="i32" shape="1" offset="22996" size="4" />
			<output>
				<port id="0" precision="I32">
					<dim>1</dim>
				</port>
			</output>
		</layer>
		<layer id="312" name="model_1/ttl_11/sequential_11/einsum_ttl_11/ReverseV2" type="Squeeze" version="opset1">
			<input>
				<port id="0" precision="FP32">
					<dim>1</dim>
					<dim>8</dim>
				</port>
				<port id="1" precision="I32">
					<dim>1</dim>
				</port>
			</input>
			<output>
				<port id="2" precision="FP32">
					<dim>8</dim>
				</port>
			</output>
		</layer>
		<layer id="313" name="model_1/ttl_11/sequential_11/einsum_ttl_11/einsum_1/Einsum" type="Einsum" version="opset7">
			<data equation="abc,c->ab" />
			<input>
				<port id="0" precision="FP32">
					<dim>1</dim>
					<dim>64</dim>
					<dim>8</dim>
				</port>
				<port id="1" precision="FP32">
					<dim>8</dim>
				</port>
			</input>
			<output>
				<port id="2" precision="FP32">
					<dim>1</dim>
					<dim>64</dim>
				</port>
			</output>
		</layer>
		<layer id="314" name="model_1/ttl_11/sequential_11/einsum_ttl_11/add" type="Add" version="opset1">
			<data auto_broadcast="numpy" />
			<input>
				<port id="0" precision="FP32">
					<dim>1</dim>
					<dim>64</dim>
				</port>
				<port id="1" precision="FP32">
					<dim>1</dim>
					<dim>64</dim>
				</port>
			</input>
			<output>
				<port id="2" precision="FP32">
					<dim>1</dim>
					<dim>64</dim>
				</port>
			</output>
		</layer>
		<layer id="315" name="model_1/ttl_11/sequential_11/einsum_ttl_11/strided_slice_4/stack" type="Const" version="opset1">
			<data element_type="i32" shape="3" offset="23000" size="12" />
			<rt_info>
				<attribute name="precise" version="0" />
			</rt_info>
			<output>
				<port id="0" precision="I32">
					<dim>3</dim>
				</port>
			</output>
		</layer>
		<layer id="316" name="model_1/ttl_11/sequential_11/einsum_ttl_11/strided_slice_4/stack_1" type="Const" version="opset1">
			<data element_type="i32" shape="3" offset="22952" size="12" />
			<rt_info>
				<attribute name="precise" version="0" />
			</rt_info>
			<output>
				<port id="0" precision="I32">
					<dim>3</dim>
				</port>
			</output>
		</layer>
		<layer id="317" name="model_1/ttl_11/sequential_11/einsum_ttl_11/strided_slice_4/stack_2" type="Const" version="opset1">
			<data element_type="i32" shape="3" offset="22924" size="12" />
			<rt_info>
				<attribute name="precise" version="0" />
			</rt_info>
			<output>
				<port id="0" precision="I32">
					<dim>3</dim>
				</port>
			</output>
		</layer>
		<layer id="318" name="model_1/ttl_11/sequential_11/einsum_ttl_11/strided_slice_4" type="StridedSlice" version="opset1">
			<data begin_mask="1, 0, 1" end_mask="1, 1, 0" new_axis_mask="0, 0, 0" shrink_axis_mask="0, 0, 0" ellipsis_mask="0, 0, 0" />
			<input>
				<port id="0" precision="FP32">
					<dim>1</dim>
					<dim>128</dim>
					<dim>16</dim>
				</port>
				<port id="1" precision="I32">
					<dim>3</dim>
				</port>
				<port id="2" precision="I32">
					<dim>3</dim>
				</port>
				<port id="3" precision="I32">
					<dim>3</dim>
				</port>
			</input>
			<output>
				<port id="4" precision="FP32">
					<dim>1</dim>
					<dim>64</dim>
					<dim>8</dim>
				</port>
			</output>
		</layer>
		<layer id="319" name="model_1/ttl_11/sequential_11/einsum_ttl_11/strided_slice_5_compressed" type="Const" version="opset1">
			<data element_type="f16" shape="8" offset="63900" size="16" />
			<output>
				<port id="0" precision="FP16">
					<dim>8</dim>
				</port>
			</output>
		</layer>
		<layer id="320" name="model_1/ttl_11/sequential_11/einsum_ttl_11/strided_slice_5" type="Convert" version="opset1">
			<data destination_type="f32" />
			<rt_info>
				<attribute name="decompression" version="0" />
			</rt_info>
			<input>
				<port id="0" precision="FP16">
					<dim>8</dim>
				</port>
			</input>
			<output>
				<port id="1" precision="FP32">
					<dim>8</dim>
				</port>
			</output>
		</layer>
		<layer id="321" name="model_1/ttl_11/sequential_11/einsum_ttl_11/einsum_2/Einsum" type="Einsum" version="opset7">
			<data equation="abc,c->ab" />
			<input>
				<port id="0" precision="FP32">
					<dim>1</dim>
					<dim>64</dim>
					<dim>8</dim>
				</port>
				<port id="1" precision="FP32">
					<dim>8</dim>
				</port>
			</input>
			<output>
				<port id="2" precision="FP32">
					<dim>1</dim>
					<dim>64</dim>
				</port>
			</output>
		</layer>
		<layer id="322" name="model_1/ttl_11/sequential_11/einsum_ttl_11/strided_slice_6/stack" type="Const" version="opset1">
			<data element_type="i32" shape="3" offset="22912" size="12" />
			<rt_info>
				<attribute name="precise" version="0" />
			</rt_info>
			<output>
				<port id="0" precision="I32">
					<dim>3</dim>
				</port>
			</output>
		</layer>
		<layer id="323" name="model_1/ttl_11/sequential_11/einsum_ttl_11/strided_slice_6/stack_1" type="Const" version="opset1">
			<data element_type="i32" shape="3" offset="23028" size="12" />
			<rt_info>
				<attribute name="precise" version="0" />
			</rt_info>
			<output>
				<port id="0" precision="I32">
					<dim>3</dim>
				</port>
			</output>
		</layer>
		<layer id="324" name="model_1/ttl_11/sequential_11/einsum_ttl_11/strided_slice_6/stack_2" type="Const" version="opset1">
			<data element_type="i32" shape="3" offset="22924" size="12" />
			<rt_info>
				<attribute name="precise" version="0" />
			</rt_info>
			<output>
				<port id="0" precision="I32">
					<dim>3</dim>
				</port>
			</output>
		</layer>
		<layer id="325" name="model_1/ttl_11/sequential_11/einsum_ttl_11/strided_slice_6" type="StridedSlice" version="opset1">
			<data begin_mask="1, 0" end_mask="1, 1" new_axis_mask="0, 0" shrink_axis_mask="0, 0" ellipsis_mask="0, 0" />
			<input>
				<port id="0" precision="FP32">
					<dim>1</dim>
					<dim>128</dim>
					<dim>16</dim>
				</port>
				<port id="1" precision="I32">
					<dim>3</dim>
				</port>
				<port id="2" precision="I32">
					<dim>3</dim>
				</port>
				<port id="3" precision="I32">
					<dim>3</dim>
				</port>
			</input>
			<output>
				<port id="4" precision="FP32">
					<dim>1</dim>
					<dim>64</dim>
					<dim>8</dim>
				</port>
			</output>
		</layer>
		<layer id="326" name="Unsqueeze_3131_compressed" type="Const" version="opset1">
			<data element_type="f16" shape="1, 8" offset="63916" size="16" />
			<output>
				<port id="0" precision="FP16">
					<dim>1</dim>
					<dim>8</dim>
				</port>
			</output>
		</layer>
		<layer id="327" name="Unsqueeze_3131" type="Convert" version="opset1">
			<data destination_type="f32" />
			<rt_info>
				<attribute name="decompression" version="0" />
			</rt_info>
			<input>
				<port id="0" precision="FP16">
					<dim>1</dim>
					<dim>8</dim>
				</port>
			</input>
			<output>
				<port id="1" precision="FP32">
					<dim>1</dim>
					<dim>8</dim>
				</port>
			</output>
		</layer>
		<layer id="328" name="Broadcast_3138" type="Const" version="opset1">
			<data element_type="i32" shape="1" offset="22992" size="4" />
			<output>
				<port id="0" precision="I32">
					<dim>1</dim>
				</port>
			</output>
		</layer>
		<layer id="329" name="ReverseSequence_3141" type="ReverseSequence" version="opset1">
			<data batch_axis="0" seq_axis="1" />
			<input>
				<port id="0" precision="FP32">
					<dim>1</dim>
					<dim>8</dim>
				</port>
				<port id="1" precision="I32">
					<dim>1</dim>
				</port>
			</input>
			<output>
				<port id="2" precision="FP32">
					<dim>1</dim>
					<dim>8</dim>
				</port>
			</output>
		</layer>
		<layer id="330" name="Constant_3142" type="Const" version="opset1">
			<data element_type="i32" shape="1" offset="22996" size="4" />
			<output>
				<port id="0" precision="I32">
					<dim>1</dim>
				</port>
			</output>
		</layer>
		<layer id="331" name="model_1/ttl_11/sequential_11/einsum_ttl_11/ReverseV2_1" type="Squeeze" version="opset1">
			<input>
				<port id="0" precision="FP32">
					<dim>1</dim>
					<dim>8</dim>
				</port>
				<port id="1" precision="I32">
					<dim>1</dim>
				</port>
			</input>
			<output>
				<port id="2" precision="FP32">
					<dim>8</dim>
				</port>
			</output>
		</layer>
		<layer id="332" name="model_1/ttl_11/sequential_11/einsum_ttl_11/einsum_3/Einsum" type="Einsum" version="opset7">
			<data equation="abc,c->ab" />
			<input>
				<port id="0" precision="FP32">
					<dim>1</dim>
					<dim>64</dim>
					<dim>8</dim>
				</port>
				<port id="1" precision="FP32">
					<dim>8</dim>
				</port>
			</input>
			<output>
				<port id="2" precision="FP32">
					<dim>1</dim>
					<dim>64</dim>
				</port>
			</output>
		</layer>
		<layer id="333" name="model_1/ttl_11/sequential_11/einsum_ttl_11/add_1" type="Add" version="opset1">
			<data auto_broadcast="numpy" />
			<input>
				<port id="0" precision="FP32">
					<dim>1</dim>
					<dim>64</dim>
				</port>
				<port id="1" precision="FP32">
					<dim>1</dim>
					<dim>64</dim>
				</port>
			</input>
			<output>
				<port id="2" precision="FP32">
					<dim>1</dim>
					<dim>64</dim>
				</port>
			</output>
		</layer>
		<layer id="334" name="model_1/ttl_11/sequential_11/einsum_ttl_11/strided_slice_8/stack" type="Const" version="opset1">
			<data element_type="i32" shape="3" offset="22900" size="12" />
			<rt_info>
				<attribute name="precise" version="0" />
			</rt_info>
			<output>
				<port id="0" precision="I32">
					<dim>3</dim>
				</port>
			</output>
		</layer>
		<layer id="335" name="model_1/ttl_11/sequential_11/einsum_ttl_11/strided_slice_8/stack_1" type="Const" version="opset1">
			<data element_type="i32" shape="3" offset="22912" size="12" />
			<rt_info>
				<attribute name="precise" version="0" />
			</rt_info>
			<output>
				<port id="0" precision="I32">
					<dim>3</dim>
				</port>
			</output>
		</layer>
		<layer id="336" name="model_1/ttl_11/sequential_11/einsum_ttl_11/strided_slice_8/stack_2" type="Const" version="opset1">
			<data element_type="i32" shape="3" offset="22924" size="12" />
			<rt_info>
				<attribute name="precise" version="0" />
			</rt_info>
			<output>
				<port id="0" precision="I32">
					<dim>3</dim>
				</port>
			</output>
		</layer>
		<layer id="337" name="model_1/ttl_11/sequential_11/einsum_ttl_11/strided_slice_8" type="StridedSlice" version="opset1">
			<data begin_mask="1, 1, 1" end_mask="1, 0, 0" new_axis_mask="0, 0, 0" shrink_axis_mask="0, 0, 0" ellipsis_mask="0, 0, 0" />
			<input>
				<port id="0" precision="FP32">
					<dim>1</dim>
					<dim>128</dim>
					<dim>16</dim>
				</port>
				<port id="1" precision="I32">
					<dim>3</dim>
				</port>
				<port id="2" precision="I32">
					<dim>3</dim>
				</port>
				<port id="3" precision="I32">
					<dim>3</dim>
				</port>
			</input>
			<output>
				<port id="4" precision="FP32">
					<dim>1</dim>
					<dim>64</dim>
					<dim>8</dim>
				</port>
			</output>
		</layer>
		<layer id="338" name="model_1/ttl_11/sequential_11/einsum_ttl_11/strided_slice_9_compressed" type="Const" version="opset1">
			<data element_type="f16" shape="8" offset="63932" size="16" />
			<output>
				<port id="0" precision="FP16">
					<dim>8</dim>
				</port>
			</output>
		</layer>
		<layer id="339" name="model_1/ttl_11/sequential_11/einsum_ttl_11/strided_slice_9" type="Convert" version="opset1">
			<data destination_type="f32" />
			<rt_info>
				<attribute name="decompression" version="0" />
			</rt_info>
			<input>
				<port id="0" precision="FP16">
					<dim>8</dim>
				</port>
			</input>
			<output>
				<port id="1" precision="FP32">
					<dim>8</dim>
				</port>
			</output>
		</layer>
		<layer id="340" name="model_1/ttl_11/sequential_11/einsum_ttl_11/einsum_4/Einsum" type="Einsum" version="opset7">
			<data equation="abc,c->ab" />
			<input>
				<port id="0" precision="FP32">
					<dim>1</dim>
					<dim>64</dim>
					<dim>8</dim>
				</port>
				<port id="1" precision="FP32">
					<dim>8</dim>
				</port>
			</input>
			<output>
				<port id="2" precision="FP32">
					<dim>1</dim>
					<dim>64</dim>
				</port>
			</output>
		</layer>
		<layer id="341" name="model_1/ttl_11/sequential_11/einsum_ttl_11/strided_slice_10/stack" type="Const" version="opset1">
			<data element_type="i32" shape="3" offset="22952" size="12" />
			<rt_info>
				<attribute name="precise" version="0" />
			</rt_info>
			<output>
				<port id="0" precision="I32">
					<dim>3</dim>
				</port>
			</output>
		</layer>
		<layer id="342" name="model_1/ttl_11/sequential_11/einsum_ttl_11/strided_slice_10/stack_1" type="Const" version="opset1">
			<data element_type="i32" shape="3" offset="22964" size="12" />
			<rt_info>
				<attribute name="precise" version="0" />
			</rt_info>
			<output>
				<port id="0" precision="I32">
					<dim>3</dim>
				</port>
			</output>
		</layer>
		<layer id="343" name="model_1/ttl_11/sequential_11/einsum_ttl_11/strided_slice_10/stack_2" type="Const" version="opset1">
			<data element_type="i32" shape="3" offset="22924" size="12" />
			<rt_info>
				<attribute name="precise" version="0" />
			</rt_info>
			<output>
				<port id="0" precision="I32">
					<dim>3</dim>
				</port>
			</output>
		</layer>
		<layer id="344" name="model_1/ttl_11/sequential_11/einsum_ttl_11/strided_slice_10" type="StridedSlice" version="opset1">
			<data begin_mask="1, 1" end_mask="1, 0" new_axis_mask="0, 0" shrink_axis_mask="0, 0" ellipsis_mask="0, 0" />
			<input>
				<port id="0" precision="FP32">
					<dim>1</dim>
					<dim>128</dim>
					<dim>16</dim>
				</port>
				<port id="1" precision="I32">
					<dim>3</dim>
				</port>
				<port id="2" precision="I32">
					<dim>3</dim>
				</port>
				<port id="3" precision="I32">
					<dim>3</dim>
				</port>
			</input>
			<output>
				<port id="4" precision="FP32">
					<dim>1</dim>
					<dim>64</dim>
					<dim>8</dim>
				</port>
			</output>
		</layer>
		<layer id="345" name="Unsqueeze_3097_compressed" type="Const" version="opset1">
			<data element_type="f16" shape="1, 8" offset="63948" size="16" />
			<output>
				<port id="0" precision="FP16">
					<dim>1</dim>
					<dim>8</dim>
				</port>
			</output>
		</layer>
		<layer id="346" name="Unsqueeze_3097" type="Convert" version="opset1">
			<data destination_type="f32" />
			<rt_info>
				<attribute name="decompression" version="0" />
			</rt_info>
			<input>
				<port id="0" precision="FP16">
					<dim>1</dim>
					<dim>8</dim>
				</port>
			</input>
			<output>
				<port id="1" precision="FP32">
					<dim>1</dim>
					<dim>8</dim>
				</port>
			</output>
		</layer>
		<layer id="347" name="Broadcast_3104" type="Const" version="opset1">
			<data element_type="i32" shape="1" offset="22992" size="4" />
			<output>
				<port id="0" precision="I32">
					<dim>1</dim>
				</port>
			</output>
		</layer>
		<layer id="348" name="ReverseSequence_3107" type="ReverseSequence" version="opset1">
			<data batch_axis="0" seq_axis="1" />
			<input>
				<port id="0" precision="FP32">
					<dim>1</dim>
					<dim>8</dim>
				</port>
				<port id="1" precision="I32">
					<dim>1</dim>
				</port>
			</input>
			<output>
				<port id="2" precision="FP32">
					<dim>1</dim>
					<dim>8</dim>
				</port>
			</output>
		</layer>
		<layer id="349" name="Constant_3108" type="Const" version="opset1">
			<data element_type="i32" shape="1" offset="22996" size="4" />
			<output>
				<port id="0" precision="I32">
					<dim>1</dim>
				</port>
			</output>
		</layer>
		<layer id="350" name="model_1/ttl_11/sequential_11/einsum_ttl_11/ReverseV2_2" type="Squeeze" version="opset1">
			<input>
				<port id="0" precision="FP32">
					<dim>1</dim>
					<dim>8</dim>
				</port>
				<port id="1" precision="I32">
					<dim>1</dim>
				</port>
			</input>
			<output>
				<port id="2" precision="FP32">
					<dim>8</dim>
				</port>
			</output>
		</layer>
		<layer id="351" name="model_1/ttl_11/sequential_11/einsum_ttl_11/einsum_5/Einsum" type="Einsum" version="opset7">
			<data equation="abc,c->ab" />
			<input>
				<port id="0" precision="FP32">
					<dim>1</dim>
					<dim>64</dim>
					<dim>8</dim>
				</port>
				<port id="1" precision="FP32">
					<dim>8</dim>
				</port>
			</input>
			<output>
				<port id="2" precision="FP32">
					<dim>1</dim>
					<dim>64</dim>
				</port>
			</output>
		</layer>
		<layer id="352" name="model_1/ttl_11/sequential_11/einsum_ttl_11/add_2" type="Add" version="opset1">
			<data auto_broadcast="numpy" />
			<input>
				<port id="0" precision="FP32">
					<dim>1</dim>
					<dim>64</dim>
				</port>
				<port id="1" precision="FP32">
					<dim>1</dim>
					<dim>64</dim>
				</port>
			</input>
			<output>
				<port id="2" precision="FP32">
					<dim>1</dim>
					<dim>64</dim>
				</port>
			</output>
		</layer>
		<layer id="353" name="model_1/ttl_11/sequential_11/einsum_ttl_11/strided_slice_12/stack" type="Const" version="opset1">
			<data element_type="i32" shape="3" offset="23000" size="12" />
			<rt_info>
				<attribute name="precise" version="0" />
			</rt_info>
			<output>
				<port id="0" precision="I32">
					<dim>3</dim>
				</port>
			</output>
		</layer>
		<layer id="354" name="model_1/ttl_11/sequential_11/einsum_ttl_11/strided_slice_12/stack_1" type="Const" version="opset1">
			<data element_type="i32" shape="3" offset="22952" size="12" />
			<rt_info>
				<attribute name="precise" version="0" />
			</rt_info>
			<output>
				<port id="0" precision="I32">
					<dim>3</dim>
				</port>
			</output>
		</layer>
		<layer id="355" name="model_1/ttl_11/sequential_11/einsum_ttl_11/strided_slice_12/stack_2" type="Const" version="opset1">
			<data element_type="i32" shape="3" offset="22924" size="12" />
			<rt_info>
				<attribute name="precise" version="0" />
			</rt_info>
			<output>
				<port id="0" precision="I32">
					<dim>3</dim>
				</port>
			</output>
		</layer>
		<layer id="356" name="model_1/ttl_11/sequential_11/einsum_ttl_11/strided_slice_12" type="StridedSlice" version="opset1">
			<data begin_mask="1, 0, 1" end_mask="1, 1, 0" new_axis_mask="0, 0, 0" shrink_axis_mask="0, 0, 0" ellipsis_mask="0, 0, 0" />
			<input>
				<port id="0" precision="FP32">
					<dim>1</dim>
					<dim>128</dim>
					<dim>16</dim>
				</port>
				<port id="1" precision="I32">
					<dim>3</dim>
				</port>
…
		<edge from-layer="1372" from-port="4" to-layer="1379" to-port="0" />
		<edge from-layer="1373" from-port="0" to-layer="1374" to-port="0" />
		<edge from-layer="1374" from-port="1" to-layer="1376" to-port="0" />
		<edge from-layer="1375" from-port="0" to-layer="1376" to-port="1" />
		<edge from-layer="1376" from-port="2" to-layer="1378" to-port="0" />
		<edge from-layer="1377" from-port="0" to-layer="1378" to-port="1" />
		<edge from-layer="1378" from-port="2" to-layer="1379" to-port="1" />
		<edge from-layer="1379" from-port="2" to-layer="1380" to-port="1" />
		<edge from-layer="1380" from-port="2" to-layer="1438" to-port="4" />
		<edge from-layer="1381" from-port="0" to-layer="1384" to-port="1" />
		<edge from-layer="1382" from-port="0" to-layer="1384" to-port="2" />
		<edge from-layer="1383" from-port="0" to-layer="1384" to-port="3" />
		<edge from-layer="1384" from-port="4" to-layer="1387" to-port="0" />
		<edge from-layer="1385" from-port="0" to-layer="1386" to-port="0" />
		<edge from-layer="1386" from-port="1" to-layer="1387" to-port="1" />
		<edge from-layer="1387" from-port="2" to-layer="1399" to-port="0" />
		<edge from-layer="1388" from-port="0" to-layer="1391" to-port="1" />
		<edge from-layer="1389" from-port="0" to-layer="1391" to-port="2" />
		<edge from-layer="1390" from-port="0" to-layer="1391" to-port="3" />
		<edge from-layer="1391" from-port="4" to-layer="1398" to-port="0" />
		<edge from-layer="1392" from-port="0" to-layer="1393" to-port="0" />
		<edge from-layer="1393" from-port="1" to-layer="1395" to-port="0" />
		<edge from-layer="1394" from-port="0" to-layer="1395" to-port="1" />
		<edge from-layer="1395" from-port="2" to-layer="1397" to-port="0" />
		<edge from-layer="1396" from-port="0" to-layer="1397" to-port="1" />
		<edge from-layer="1397" from-port="2" to-layer="1398" to-port="1" />
		<edge from-layer="1398" from-port="2" to-layer="1399" to-port="1" />
		<edge from-layer="1399" from-port="2" to-layer="1438" to-port="5" />
		<edge from-layer="1400" from-port="0" to-layer="1403" to-port="1" />
		<edge from-layer="1401" from-port="0" to-layer="1403" to-port="2" />
		<edge from-layer="1402" from-port="0" to-layer="1403" to-port="3" />
		<edge from-layer="1403" from-port="4" to-layer="1406" to-port="0" />
		<edge from-layer="1404" from-port="0" to-layer="1405" to-port="0" />
		<edge from-layer="1405" from-port="1" to-layer="1406" to-port="1" />
		<edge from-layer="1406" from-port="2" to-layer="1418" to-port="0" />
		<edge from-layer="1407" from-port="0" to-layer="1410" to-port="1" />
		<edge from-layer="1408" from-port="0" to-layer="1410" to-port="2" />
		<edge from-layer="1409" from-port="0" to-layer="1410" to-port="3" />
		<edge from-layer="1410" from-port="4" to-layer="1417" to-port="0" />
		<edge from-layer="1411" from-port="0" to-layer="1412" to-port="0" />
		<edge from-layer="1412" from-port="1" to-layer="1414" to-port="0" />
		<edge from-layer="1413" from-port="0" to-layer="1414" to-port="1" />
		<edge from-layer="1414" from-port="2" to-layer="1416" to-port="0" />
		<edge from-layer="1415" from-port="0" to-layer="1416" to-port="1" />
		<edge from-layer="1416" from-port="2" to-layer="1417" to-port="1" />
		<edge from-layer="1417" from-port="2" to-layer="1418" to-port="1" />
		<edge from-layer="1418" from-port="2" to-layer="1438" to-port="6" />
		<edge from-layer="1419" from-port="0" to-layer="1422" to-port="1" />
		<edge from-layer="1420" from-port="0" to-layer="1422" to-port="2" />
		<edge from-layer="1421" from-port="0" to-layer="1422" to-port="3" />
		<edge from-layer="1422" from-port="4" to-layer="1425" to-port="0" />
		<edge from-layer="1423" from-port="0" to-layer="1424" to-port="0" />
		<edge from-layer="1424" from-port="1" to-layer="1425" to-port="1" />
		<edge from-layer="1425" from-port="2" to-layer="1437" to-port="0" />
		<edge from-layer="1426" from-port="0" to-layer="1429" to-port="1" />
		<edge from-layer="1427" from-port="0" to-layer="1429" to-port="2" />
		<edge from-layer="1428" from-port="0" to-layer="1429" to-port="3" />
		<edge from-layer="1429" from-port="4" to-layer="1436" to-port="0" />
		<edge from-layer="1430" from-port="0" to-layer="1431" to-port="0" />
		<edge from-layer="1431" from-port="1" to-layer="1433" to-port="0" />
		<edge from-layer="1432" from-port="0" to-layer="1433" to-port="1" />
		<edge from-layer="1433" from-port="2" to-layer="1435" to-port="0" />
		<edge from-layer="1434" from-port="0" to-layer="1435" to-port="1" />
		<edge from-layer="1435" from-port="2" to-layer="1436" to-port="1" />
		<edge from-layer="1436" from-port="2" to-layer="1437" to-port="1" />
		<edge from-layer="1437" from-port="2" to-layer="1438" to-port="7" />
		<edge from-layer="1438" from-port="8" to-layer="1440" to-port="0" />
		<edge from-layer="1439" from-port="0" to-layer="1440" to-port="1" />
		<edge from-layer="1440" from-port="2" to-layer="1442" to-port="0" />
		<edge from-layer="1441" from-port="0" to-layer="1442" to-port="1" />
		<edge from-layer="1442" from-port="2" to-layer="1443" to-port="1" />
		<edge from-layer="1443" from-port="2" to-layer="1445" to-port="0" />
		<edge from-layer="1444" from-port="0" to-layer="1445" to-port="1" />
		<edge from-layer="1445" from-port="2" to-layer="1446" to-port="1" />
		<edge from-layer="1446" from-port="2" to-layer="1448" to-port="0" />
		<edge from-layer="1447" from-port="0" to-layer="1448" to-port="1" />
		<edge from-layer="1448" from-port="2" to-layer="1449" to-port="1" />
		<edge from-layer="1449" from-port="2" to-layer="1451" to-port="0" />
		<edge from-layer="1450" from-port="0" to-layer="1451" to-port="1" />
		<edge from-layer="1451" from-port="2" to-layer="1452" to-port="1" />
		<edge from-layer="1452" from-port="2" to-layer="1454" to-port="0" />
		<edge from-layer="1453" from-port="0" to-layer="1454" to-port="1" />
		<edge from-layer="1454" from-port="2" to-layer="1455" to-port="1" />
		<edge from-layer="1455" from-port="2" to-layer="1457" to-port="0" />
		<edge from-layer="1456" from-port="0" to-layer="1457" to-port="1" />
		<edge from-layer="1457" from-port="2" to-layer="1458" to-port="1" />
		<edge from-layer="1458" from-port="2" to-layer="1460" to-port="0" />
		<edge from-layer="1459" from-port="0" to-layer="1460" to-port="1" />
		<edge from-layer="1460" from-port="2" to-layer="1461" to-port="1" />
		<edge from-layer="1461" from-port="2" to-layer="1463" to-port="0" />
		<edge from-layer="1462" from-port="0" to-layer="1463" to-port="1" />
		<edge from-layer="1463" from-port="2" to-layer="1468" to-port="0" />
		<edge from-layer="1464" from-port="0" to-layer="1467" to-port="1" />
		<edge from-layer="1465" from-port="0" to-layer="1467" to-port="2" />
		<edge from-layer="1466" from-port="0" to-layer="1467" to-port="3" />
		<edge from-layer="1467" from-port="4" to-layer="1468" to-port="1" />
		<edge from-layer="1468" from-port="2" to-layer="1469" to-port="1" />
		<edge from-layer="1469" from-port="2" to-layer="1667" to-port="0" />
		<edge from-layer="1470" from-port="0" to-layer="1471" to-port="0" />
		<edge from-layer="1471" from-port="1" to-layer="1659" to-port="0" />
		<edge from-layer="1472" from-port="0" to-layer="1473" to-port="0" />
		<edge from-layer="1473" from-port="1" to-layer="1656" to-port="0" />
		<edge from-layer="1474" from-port="0" to-layer="1475" to-port="0" />
		<edge from-layer="1475" from-port="1" to-layer="1653" to-port="0" />
		<edge from-layer="1476" from-port="0" to-layer="1477" to-port="0" />
		<edge from-layer="1477" from-port="1" to-layer="1650" to-port="0" />
		<edge from-layer="1478" from-port="0" to-layer="1479" to-port="0" />
		<edge from-layer="1479" from-port="1" to-layer="1647" to-port="0" />
		<edge from-layer="1480" from-port="0" to-layer="1481" to-port="0" />
		<edge from-layer="1481" from-port="1" to-layer="1644" to-port="0" />
		<edge from-layer="1482" from-port="0" to-layer="1483" to-port="0" />
		<edge from-layer="1483" from-port="1" to-layer="1641" to-port="0" />
		<edge from-layer="1484" from-port="0" to-layer="1487" to-port="1" />
		<edge from-layer="1485" from-port="0" to-layer="1487" to-port="2" />
		<edge from-layer="1486" from-port="0" to-layer="1487" to-port="3" />
		<edge from-layer="1487" from-port="4" to-layer="1490" to-port="0" />
		<edge from-layer="1488" from-port="0" to-layer="1489" to-port="0" />
		<edge from-layer="1489" from-port="1" to-layer="1490" to-port="1" />
		<edge from-layer="1490" from-port="2" to-layer="1502" to-port="0" />
		<edge from-layer="1491" from-port="0" to-layer="1494" to-port="1" />
		<edge from-layer="1492" from-port="0" to-layer="1494" to-port="2" />
		<edge from-layer="1493" from-port="0" to-layer="1494" to-port="3" />
		<edge from-layer="1494" from-port="4" to-layer="1501" to-port="0" />
		<edge from-layer="1495" from-port="0" to-layer="1496" to-port="0" />
		<edge from-layer="1496" from-port="1" to-layer="1498" to-port="0" />
		<edge from-layer="1497" from-port="0" to-layer="1498" to-port="1" />
		<edge from-layer="1498" from-port="2" to-layer="1500" to-port="0" />
		<edge from-layer="1499" from-port="0" to-layer="1500" to-port="1" />
		<edge from-layer="1500" from-port="2" to-layer="1501" to-port="1" />
		<edge from-layer="1501" from-port="2" to-layer="1502" to-port="1" />
		<edge from-layer="1502" from-port="2" to-layer="1636" to-port="0" />
		<edge from-layer="1503" from-port="0" to-layer="1506" to-port="1" />
		<edge from-layer="1504" from-port="0" to-layer="1506" to-port="2" />
		<edge from-layer="1505" from-port="0" to-layer="1506" to-port="3" />
		<edge from-layer="1506" from-port="4" to-layer="1509" to-port="0" />
		<edge from-layer="1507" from-port="0" to-layer="1508" to-port="0" />
		<edge from-layer="1508" from-port="1" to-layer="1509" to-port="1" />
		<edge from-layer="1509" from-port="2" to-layer="1521" to-port="0" />
		<edge from-layer="1510" from-port="0" to-layer="1513" to-port="1" />
		<edge from-layer="1511" from-port="0" to-layer="1513" to-port="2" />
		<edge from-layer="1512" from-port="0" to-layer="1513" to-port="3" />
		<edge from-layer="1513" from-port="4" to-layer="1520" to-port="0" />
		<edge from-layer="1514" from-port="0" to-layer="1515" to-port="0" />
		<edge from-layer="1515" from-port="1" to-layer="1517" to-port="0" />
		<edge from-layer="1516" from-port="0" to-layer="1517" to-port="1" />
		<edge from-layer="1517" from-port="2" to-layer="1519" to-port="0" />
		<edge from-layer="1518" from-port="0" to-layer="1519" to-port="1" />
		<edge from-layer="1519" from-port="2" to-layer="1520" to-port="1" />
		<edge from-layer="1520" from-port="2" to-layer="1521" to-port="1" />
		<edge from-layer="1521" from-port="2" to-layer="1636" to-port="1" />
		<edge from-layer="1522" from-port="0" to-layer="1525" to-port="1" />
		<edge from-layer="1523" from-port="0" to-layer="1525" to-port="2" />
		<edge from-layer="1524" from-port="0" to-layer="1525" to-port="3" />
		<edge from-layer="1525" from-port="4" to-layer="1528" to-port="0" />
		<edge from-layer="1526" from-port="0" to-layer="1527" to-port="0" />
		<edge from-layer="1527" from-port="1" to-layer="1528" to-port="1" />
		<edge from-layer="1528" from-port="2" to-layer="1540" to-port="0" />
		<edge from-layer="1529" from-port="0" to-layer="1532" to-port="1" />
		<edge from-layer="1530" from-port="0" to-layer="1532" to-port="2" />
		<edge from-layer="1531" from-port="0" to-layer="1532" to-port="3" />
		<edge from-layer="1532" from-port="4" to-layer="1539" to-port="0" />
		<edge from-layer="1533" from-port="0" to-layer="1534" to-port="0" />
		<edge from-layer="1534" from-port="1" to-layer="1536" to-port="0" />
		<edge from-layer="1535" from-port="0" to-layer="1536" to-port="1" />
		<edge from-layer="1536" from-port="2" to-layer="1538" to-port="0" />
		<edge from-layer="1537" from-port="0" to-layer="1538" to-port="1" />
		<edge from-layer="1538" from-port="2" to-layer="1539" to-port="1" />
		<edge from-layer="1539" from-port="2" to-layer="1540" to-port="1" />
		<edge from-layer="1540" from-port="2" to-layer="1636" to-port="2" />
		<edge from-layer="1541" from-port="0" to-layer="1544" to-port="1" />
		<edge from-layer="1542" from-port="0" to-layer="1544" to-port="2" />
		<edge from-layer="1543" from-port="0" to-layer="1544" to-port="3" />
		<edge from-layer="1544" from-port="4" to-layer="1547" to-port="0" />
		<edge from-layer="1545" from-port="0" to-layer="1546" to-port="0" />
		<edge from-layer="1546" from-port="1" to-layer="1547" to-port="1" />
		<edge from-layer="1547" from-port="2" to-layer="1559" to-port="0" />
		<edge from-layer="1548" from-port="0" to-layer="1551" to-port="1" />
		<edge from-layer="1549" from-port="0" to-layer="1551" to-port="2" />
		<edge from-layer="1550" from-port="0" to-layer="1551" to-port="3" />
		<edge from-layer="1551" from-port="4" to-layer="1558" to-port="0" />
		<edge from-layer="1552" from-port="0" to-layer="1553" to-port="0" />
		<edge from-layer="1553" from-port="1" to-layer="1555" to-port="0" />
		<edge from-layer="1554" from-port="0" to-layer="1555" to-port="1" />
		<edge from-layer="1555" from-port="2" to-layer="1557" to-port="0" />
		<edge from-layer="1556" from-port="0" to-layer="1557" to-port="1" />
		<edge from-layer="1557" from-port="2" to-layer="1558" to-port="1" />
		<edge from-layer="1558" from-port="2" to-layer="1559" to-port="1" />
		<edge from-layer="1559" from-port="2" to-layer="1636" to-port="3" />
		<edge from-layer="1560" from-port="0" to-layer="1563" to-port="1" />
		<edge from-layer="1561" from-port="0" to-layer="1563" to-port="2" />
		<edge from-layer="1562" from-port="0" to-layer="1563" to-port="3" />
		<edge from-layer="1563" from-port="4" to-layer="1566" to-port="0" />
		<edge from-layer="1564" from-port="0" to-layer="1565" to-port="0" />
		<edge from-layer="1565" from-port="1" to-layer="1566" to-port="1" />
		<edge from-layer="1566" from-port="2" to-layer="1578" to-port="0" />
		<edge from-layer="1567" from-port="0" to-layer="1570" to-port="1" />
		<edge from-layer="1568" from-port="0" to-layer="1570" to-port="2" />
		<edge from-layer="1569" from-port="0" to-layer="1570" to-port="3" />
		<edge from-layer="1570" from-port="4" to-layer="1577" to-port="0" />
		<edge from-layer="1571" from-port="0" to-layer="1572" to-port="0" />
		<edge from-layer="1572" from-port="1" to-layer="1574" to-port="0" />
		<edge from-layer="1573" from-port="0" to-layer="1574" to-port="1" />
		<edge from-layer="1574" from-port="2" to-layer="1576" to-port="0" />
		<edge from-layer="1575" from-port="0" to-layer="1576" to-port="1" />
		<edge from-layer="1576" from-port="2" to-layer="1577" to-port="1" />
		<edge from-layer="1577" from-port="2" to-layer="1578" to-port="1" />
		<edge from-layer="1578" from-port="2" to-layer="1636" to-port="4" />
		<edge from-layer="1579" from-port="0" to-layer="1582" to-port="1" />
		<edge from-layer="1580" from-port="0" to-layer="1582" to-port="2" />
		<edge from-layer="1581" from-port="0" to-layer="1582" to-port="3" />
		<edge from-layer="1582" from-port="4" to-layer="1585" to-port="0" />
		<edge from-layer="1583" from-port="0" to-layer="1584" to-port="0" />
		<edge from-layer="1584" from-port="1" to-layer="1585" to-port="1" />
		<edge from-layer="1585" from-port="2" to-layer="1597" to-port="0" />
		<edge from-layer="1586" from-port="0" to-layer="1589" to-port="1" />
		<edge from-layer="1587" from-port="0" to-layer="1589" to-port="2" />
		<edge from-layer="1588" from-port="0" to-layer="1589" to-port="3" />
		<edge from-layer="1589" from-port="4" to-layer="1596" to-port="0" />
		<edge from-layer="1590" from-port="0" to-layer="1591" to-port="0" />
		<edge from-layer="1591" from-port="1" to-layer="1593" to-port="0" />
		<edge from-layer="1592" from-port="0" to-layer="1593" to-port="1" />
		<edge from-layer="1593" from-port="2" to-layer="1595" to-port="0" />
		<edge from-layer="1594" from-port="0" to-layer="1595" to-port="1" />
		<edge from-layer="1595" from-port="2" to-layer="1596" to-port="1" />
		<edge from-layer="1596" from-port="2" to-layer="1597" to-port="1" />
		<edge from-layer="1597" from-port="2" to-layer="1636" to-port="5" />
		<edge from-layer="1598" from-port="0" to-layer="1601" to-port="1" />
		<edge from-layer="1599" from-port="0" to-layer="1601" to-port="2" />
		<edge from-layer="1600" from-port="0" to-layer="1601" to-port="3" />
		<edge from-layer="1601" from-port="4" to-layer="1604" to-port="0" />
		<edge from-layer="1602" from-port="0" to-layer="1603" to-port="0" />
		<edge from-layer="1603" from-port="1" to-layer="1604" to-port="1" />
		<edge from-layer="1604" from-port="2" to-layer="1616" to-port="0" />
		<edge from-layer="1605" from-port="0" to-layer="1608" to-port="1" />
		<edge from-layer="1606" from-port="0" to-layer="1608" to-port="2" />
		<edge from-layer="1607" from-port="0" to-layer="1608" to-port="3" />
		<edge from-layer="1608" from-port="4" to-layer="1615" to-port="0" />
		<edge from-layer="1609" from-port="0" to-layer="1610" to-port="0" />
		<edge from-layer="1610" from-port="1" to-layer="1612" to-port="0" />
		<edge from-layer="1611" from-port="0" to-layer="1612" to-port="1" />
		<edge from-layer="1612" from-port="2" to-layer="1614" to-port="0" />
		<edge from-layer="1613" from-port="0" to-layer="1614" to-port="1" />
		<edge from-layer="1614" from-port="2" to-layer="1615" to-port="1" />
		<edge from-layer="1615" from-port="2" to-layer="1616" to-port="1" />
		<edge from-layer="1616" from-port="2" to-layer="1636" to-port="6" />
		<edge from-layer="1617" from-port="0" to-layer="1620" to-port="1" />
		<edge from-layer="1618" from-port="0" to-layer="1620" to-port="2" />
		<edge from-layer="1619" from-port="0" to-layer="1620" to-port="3" />
		<edge from-layer="1620" from-port="4" to-layer="1623" to-port="0" />
		<edge from-layer="1621" from-port="0" to-layer="1622" to-port="0" />
		<edge from-layer="1622" from-port="1" to-layer="1623" to-port="1" />
		<edge from-layer="1623" from-port="2" to-layer="1635" to-port="0" />
		<edge from-layer="1624" from-port="0" to-layer="1627" to-port="1" />
		<edge from-layer="1625" from-port="0" to-layer="1627" to-port="2" />
		<edge from-layer="1626" from-port="0" to-layer="1627" to-port="3" />
		<edge from-layer="1627" from-port="4" to-layer="1634" to-port="0" />
		<edge from-layer="1628" from-port="0" to-layer="1629" to-port="0" />
		<edge from-layer="1629" from-port="1" to-layer="1631" to-port="0" />
		<edge from-layer="1630" from-port="0" to-layer="1631" to-port="1" />
		<edge from-layer="1631" from-port="2" to-layer="1633" to-port="0" />
		<edge from-layer="1632" from-port="0" to-layer="1633" to-port="1" />
		<edge from-layer="1633" from-port="2" to-layer="1634" to-port="1" />
		<edge from-layer="1634" from-port="2" to-layer="1635" to-port="1" />
		<edge from-layer="1635" from-port="2" to-layer="1636" to-port="7" />
		<edge from-layer="1636" from-port="8" to-layer="1638" to-port="0" />
		<edge from-layer="1637" from-port="0" to-layer="1638" to-port="1" />
		<edge from-layer="1638" from-port="2" to-layer="1640" to-port="0" />
		<edge from-layer="1639" from-port="0" to-layer="1640" to-port="1" />
		<edge from-layer="1640" from-port="2" to-layer="1641" to-port="1" />
		<edge from-layer="1641" from-port="2" to-layer="1643" to-port="0" />
		<edge from-layer="1642" from-port="0" to-layer="1643" to-port="1" />
		<edge from-layer="1643" from-port="2" to-layer="1644" to-port="1" />
		<edge from-layer="1644" from-port="2" to-layer="1646" to-port="0" />
		<edge from-layer="1645" from-port="0" to-layer="1646" to-port="1" />
		<edge from-layer="1646" from-port="2" to-layer="1647" to-port="1" />
		<edge from-layer="1647" from-port="2" to-layer="1649" to-port="0" />
		<edge from-layer="1648" from-port="0" to-layer="1649" to-port="1" />
		<edge from-layer="1649" from-port="2" to-layer="1650" to-port="1" />
		<edge from-layer="1650" from-port="2" to-layer="1652" to-port="0" />
		<edge from-layer="1651" from-port="0" to-layer="1652" to-port="1" />
		<edge from-layer="1652" from-port="2" to-layer="1653" to-port="1" />
		<edge from-layer="1653" from-port="2" to-layer="1655" to-port="0" />
		<edge from-layer="1654" from-port="0" to-layer="1655" to-port="1" />
		<edge from-layer="1655" from-port="2" to-layer="1656" to-port="1" />
		<edge from-layer="1656" from-port="2" to-layer="1658" to-port="0" />
		<edge from-layer="1657" from-port="0" to-layer="1658" to-port="1" />
		<edge from-layer="1658" from-port="2" to-layer="1659" to-port="1" />
		<edge from-layer="1659" from-port="2" to-layer="1661" to-port="0" />
		<edge from-layer="1660" from-port="0" to-layer="1661" to-port="1" />
		<edge from-layer="1661" from-port="2" to-layer="1666" to-port="0" />
		<edge from-layer="1662" from-port="0" to-layer="1665" to-port="1" />
		<edge from-layer="1663" from-port="0" to-layer="1665" to-port="2" />
		<edge from-layer="1664" from-port="0" to-layer="1665" to-port="3" />
		<edge from-layer="1665" from-port="4" to-layer="1666" to-port="1" />
		<edge from-layer="1666" from-port="2" to-layer="1667" to-port="1" />
		<edge from-layer="1667" from-port="2" to-layer="1865" to-port="0" />
		<edge from-layer="1668" from-port="0" to-layer="1669" to-port="0" />
		<edge from-layer="1669" from-port="1" to-layer="1857" to-port="0" />
		<edge from-layer="1670" from-port="0" to-layer="1671" to-port="0" />
		<edge from-layer="1671" from-port="1" to-layer="1854" to-port="0" />
		<edge from-layer="1672" from-port="0" to-layer="1673" to-port="0" />
		<edge from-layer="1673" from-port="1" to-layer="1851" to-port="0" />
		<edge from-layer="1674" from-port="0" to-layer="1675" to-port="0" />
		<edge from-layer="1675" from-port="1" to-layer="1848" to-port="0" />
		<edge from-layer="1676" from-port="0" to-layer="1677" to-port="0" />
		<edge from-layer="1677" from-port="1" to-layer="1845" to-port="0" />
		<edge from-layer="1678" from-port="0" to-layer="1679" to-port="0" />
		<edge from-layer="1679" from-port="1" to-layer="1842" to-port="0" />
		<edge from-layer="1680" from-port="0" to-layer="1681" to-port="0" />
		<edge from-layer="1681" from-port="1" to-layer="1839" to-port="0" />
		<edge from-layer="1682" from-port="0" to-layer="1685" to-port="1" />
		<edge from-layer="1683" from-port="0" to-layer="1685" to-port="2" />
		<edge from-layer="1684" from-port="0" to-layer="1685" to-port="3" />
		<edge from-layer="1685" from-port="4" to-layer="1688" to-port="0" />
		<edge from-layer="1686" from-port="0" to-layer="1687" to-port="0" />
		<edge from-layer="1687" from-port="1" to-layer="1688" to-port="1" />
		<edge from-layer="1688" from-port="2" to-layer="1700" to-port="0" />
		<edge from-layer="1689" from-port="0" to-layer="1692" to-port="1" />
		<edge from-layer="1690" from-port="0" to-layer="1692" to-port="2" />
		<edge from-layer="1691" from-port="0" to-layer="1692" to-port="3" />
		<edge from-layer="1692" from-port="4" to-layer="1699" to-port="0" />
		<edge from-layer="1693" from-port="0" to-layer="1694" to-port="0" />
		<edge from-layer="1694" from-port="1" to-layer="1696" to-port="0" />
		<edge from-layer="1695" from-port="0" to-layer="1696" to-port="1" />
		<edge from-layer="1696" from-port="2" to-layer="1698" to-port="0" />
		<edge from-layer="1697" from-port="0" to-layer="1698" to-port="1" />
		<edge from-layer="1698" from-port="2" to-layer="1699" to-port="1" />
		<edge from-layer="1699" from-port="2" to-layer="1700" to-port="1" />
		<edge from-layer="1700" from-port="2" to-layer="1834" to-port="0" />
		<edge from-layer="1701" from-port="0" to-layer="1704" to-port="1" />
		<edge from-layer="1702" from-port="0" to-layer="1704" to-port="2" />
		<edge from-layer="1703" from-port="0" to-layer="1704" to-port="3" />
		<edge from-layer="1704" from-port="4" to-layer="1707" to-port="0" />
		<edge from-layer="1705" from-port="0" to-layer="1706" to-port="0" />
		<edge from-layer="1706" from-port="1" to-layer="1707" to-port="1" />
		<edge from-layer="1707" from-port="2" to-layer="1719" to-port="0" />
		<edge from-layer="1708" from-port="0" to-layer="1711" to-port="1" />
		<edge from-layer="1709" from-port="0" to-layer="1711" to-port="2" />
		<edge from-layer="1710" from-port="0" to-layer="1711" to-port="3" />
		<edge from-layer="1711" from-port="4" to-layer="1718" to-port="0" />
		<edge from-layer="1712" from-port="0" to-layer="1713" to-port="0" />
		<edge from-layer="1713" from-port="1" to-layer="1715" to-port="0" />
		<edge from-layer="1714" from-port="0" to-layer="1715" to-port="1" />
		<edge from-layer="1715" from-port="2" to-layer="1717" to-port="0" />
		<edge from-layer="1716" from-port="0" to-layer="1717" to-port="1" />
		<edge from-layer="1717" from-port="2" to-layer="1718" to-port="1" />
		<edge from-layer="1718" from-port="2" to-layer="1719" to-port="1" />
		<edge from-layer="1719" from-port="2" to-layer="1834" to-port="1" />
		<edge from-layer="1720" from-port="0" to-layer="1723" to-port="1" />
		<edge from-layer="1721" from-port="0" to-layer="1723" to-port="2" />
		<edge from-layer="1722" from-port="0" to-layer="1723" to-port="3" />
		<edge from-layer="1723" from-port="4" to-layer="1726" to-port="0" />
		<edge from-layer="1724" from-port="0" to-layer="1725" to-port="0" />
		<edge from-layer="1725" from-port="1" to-layer="1726" to-port="1" />
		<edge from-layer="1726" from-port="2" to-layer="1738" to-port="0" />
		<edge from-layer="1727" from-port="0" to-layer="1730" to-port="1" />
		<edge from-layer="1728" from-port="0" to-layer="1730" to-port="2" />
		<edge from-layer="1729" from-port="0" to-layer="1730" to-port="3" />
		<edge from-layer="1730" from-port="4" to-layer="1737" to-port="0" />
		<edge from-layer="1731" from-port="0" to-layer="1732" to-port="0" />
		<edge from-layer="1732" from-port="1" to-layer="1734" to-port="0" />
		<edge from-layer="1733" from-port="0" to-layer="1734" to-port="1" />
		<edge from-layer="1734" from-port="2" to-layer="1736" to-port="0" />
		<edge from-layer="1735" from-port="0" to-layer="1736" to-port="1" />
		<edge from-layer="1736" from-port="2" to-layer="1737" to-port="1" />
		<edge from-layer="1737" from-port="2" to-layer="1738" to-port="1" />
		<edge from-layer="1738" from-port="2" to-layer="1834" to-port="2" />
		<edge from-layer="1739" from-port="0" to-layer="1742" to-port="1" />
		<edge from-layer="1740" from-port="0" to-layer="1742" to-port="2" />
		<edge from-layer="1741" from-port="0" to-layer="1742" to-port="3" />
		<edge from-layer="1742" from-port="4" to-layer="1745" to-port="0" />
		<edge from-layer="1743" from-port="0" to-layer="1744" to-port="0" />
		<edge from-layer="1744" from-port="1" to-layer="1745" to-port="1" />
		<edge from-layer="1745" from-port="2" to-layer="1757" to-port="0" />
		<edge from-layer="1746" from-port="0" to-layer="1749" to-port="1" />
		<edge from-layer="1747" from-port="0" to-layer="1749" to-port="2" />
		<edge from-layer="1748" from-port="0" to-layer="1749" to-port="3" />
		<edge from-layer="1749" from-port="4" to-layer="1756" to-port="0" />
		<edge from-layer="1750" from-port="0" to-layer="1751" to-port="0" />
		<edge from-layer="1751" from-port="1" to-layer="1753" to-port="0" />
		<edge from-layer="1752" from-port="0" to-layer="1753" to-port="1" />
		<edge from-layer="1753" from-port="2" to-layer="1755" to-port="0" />
		<edge from-layer="1754" from-port="0" to-layer="1755" to-port="1" />
		<edge from-layer="1755" from-port="2" to-layer="1756" to-port="1" />
		<edge from-layer="1756" from-port="2" to-layer="1757" to-port="1" />
		<edge from-layer="1757" from-port="2" to-layer="1834" to-port="3" />
		<edge from-layer="1758" from-port="0" to-layer="1761" to-port="1" />
		<edge from-layer="1759" from-port="0" to-layer="1761" to-port="2" />
		<edge from-layer="1760" from-port="0" to-layer="1761" to-port="3" />
		<edge from-layer="1761" from-port="4" to-layer="1764" to-port="0" />
		<edge from-layer="1762" from-port="0" to-layer="1763" to-port="0" />
		<edge from-layer="1763" from-port="1" to-layer="1764" to-port="1" />
		<edge from-layer="1764" from-port="2" to-layer="1776" to-port="0" />
		<edge from-layer="1765" from-port="0" to-layer="1768" to-port="1" />
		<edge from-layer="1766" from-port="0" to-layer="1768" to-port="2" />
		<edge from-layer="1767" from-port="0" to-layer="1768" to-port="3" />
		<edge from-layer="1768" from-port="4" to-layer="1775" to-port="0" />
		<edge from-layer="1769" from-port="0" to-layer="1770" to-port="0" />
		<edge from-layer="1770" from-port="1" to-layer="1772" to-port="0" />
		<edge from-layer="1771" from-port="0" to-layer="1772" to-port="1" />
		<edge from-layer="1772" from-port="2" to-layer="1774" to-port="0" />
		<edge from-layer="1773" from-port="0" to-layer="1774" to-port="1" />
		<edge from-layer="1774" from-port="2" to-layer="1775" to-port="1" />
		<edge from-layer="1775" from-port="2" to-layer="1776" to-port="1" />
		<edge from-layer="1776" from-port="2" to-layer="1834" to-port="4" />
		<edge from-layer="1777" from-port="0" to-layer="1780" to-port="1" />
		<edge from-layer="1778" from-port="0" to-layer="1780" to-port="2" />
		<edge from-layer="1779" from-port="0" to-layer="1780" to-port="3" />
		<edge from-layer="1780" from-port="4" to-layer="1783" to-port="0" />
		<edge from-layer="1781" from-port="0" to-layer="1782" to-port="0" />
		<edge from-layer="1782" from-port="1" to-layer="1783" to-port="1" />
		<edge from-layer="1783" from-port="2" to-layer="1795" to-port="0" />
		<edge from-layer="1784" from-port="0" to-layer="1787" to-port="1" />
		<edge from-layer="1785" from-port="0" to-layer="1787" to-port="2" />
		<edge from-layer="1786" from-port="0" to-layer="1787" to-port="3" />
		<edge from-layer="1787" from-port="4" to-layer="1794" to-port="0" />
		<edge from-layer="1788" from-port="0" to-layer="1789" to-port="0" />
		<edge from-layer="1789" from-port="1" to-layer="1791" to-port="0" />
		<edge from-layer="1790" from-port="0" to-layer="1791" to-port="1" />
		<edge from-layer="1791" from-port="2" to-layer="1793" to-port="0" />
		<edge from-layer="1792" from-port="0" to-layer="1793" to-port="1" />
		<edge from-layer="1793" from-port="2" to-layer="1794" to-port="1" />
		<edge from-layer="1794" from-port="2" to-layer="1795" to-port="1" />
		<edge from-layer="1795" from-port="2" to-layer="1834" to-port="5" />
		<edge from-layer="1796" from-port="0" to-layer="1799" to-port="1" />
		<edge from-layer="1797" from-port="0" to-layer="1799" to-port="2" />
		<edge from-layer="1798" from-port="0" to-layer="1799" to-port="3" />
		<edge from-layer="1799" from-port="4" to-layer="1802" to-port="0" />
		<edge from-layer="1800" from-port="0" to-layer="1801" to-port="0" />
		<edge from-layer="1801" from-port="1" to-layer="1802" to-port="1" />
		<edge from-layer="1802" from-port="2" to-layer="1814" to-port="0" />
		<edge from-layer="1803" from-port="0" to-layer="1806" to-port="1" />
		<edge from-layer="1804" from-port="0" to-layer="1806" to-port="2" />
		<edge from-layer="1805" from-port="0" to-layer="1806" to-port="3" />
		<edge from-layer="1806" from-port="4" to-layer="1813" to-port="0" />
		<edge from-layer="1807" from-port="0" to-layer="1808" to-port="0" />
		<edge from-layer="1808" from-port="1" to-layer="1810" to-port="0" />
		<edge from-layer="1809" from-port="0" to-layer="1810" to-port="1" />
		<edge from-layer="1810" from-port="2" to-layer="1812" to-port="0" />
		<edge from-layer="1811" from-port="0" to-layer="1812" to-port="1" />
		<edge from-layer="1812" from-port="2" to-layer="1813" to-port="1" />
		<edge from-layer="1813" from-port="2" to-layer="1814" to-port="1" />
		<edge from-layer="1814" from-port="2" to-layer="1834" to-port="6" />
		<edge from-layer="1815" from-port="0" to-layer="1818" to-port="1" />
		<edge from-layer="1816" from-port="0" to-layer="1818" to-port="2" />
		<edge from-layer="1817" from-port="0" to-layer="1818" to-port="3" />
		<edge from-layer="1818" from-port="4" to-layer="1821" to-port="0" />
		<edge from-layer="1819" from-port="0" to-layer="1820" to-port="0" />
		<edge from-layer="1820" from-port="1" to-layer="1821" to-port="1" />
		<edge from-layer="1821" from-port="2" to-layer="1833" to-port="0" />
		<edge from-layer="1822" from-port="0" to-layer="1825" to-port="1" />
		<edge from-layer="1823" from-port="0" to-layer="1825" to-port="2" />
		<edge from-layer="1824" from-port="0" to-layer="1825" to-port="3" />
		<edge from-layer="1825" from-port="4" to-layer="1832" to-port="0" />
		<edge from-layer="1826" from-port="0" to-layer="1827" to-port="0" />
		<edge from-layer="1827" from-port="1" to-layer="1829" to-port="0" />
		<edge from-layer="1828" from-port="0" to-layer="1829" to-port="1" />
		<edge from-layer="1829" from-port="2" to-layer="1831" to-port="0" />
		<edge from-layer="1830" from-port="0" to-layer="1831" to-port="1" />
		<edge from-layer="1831" from-port="2" to-layer="1832" to-port="1" />
		<edge from-layer="1832" from-port="2" to-layer="1833" to-port="1" />
		<edge from-layer="1833" from-port="2" to-layer="1834" to-port="7" />
		<edge from-layer="1834" from-port="8" to-layer="1836" to-port="0" />
		<edge from-layer="1835" from-port="0" to-layer="1836" to-port="1" />
		<edge from-layer="1836" from-port="2" to-layer="1838" to-port="0" />
		<edge from-layer="1837" from-port="0" to-layer="1838" to-port="1" />
		<edge from-layer="1838" from-port="2" to-layer="1839" to-port="1" />
		<edge from-layer="1839" from-port="2" to-layer="1841" to-port="0" />
		<edge from-layer="1840" from-port="0" to-layer="1841" to-port="1" />
		<edge from-layer="1841" from-port="2" to-layer="1842" to-port="1" />
		<edge from-layer="1842" from-port="2" to-layer="1844" to-port="0" />
		<edge from-layer="1843" from-port="0" to-layer="1844" to-port="1" />
		<edge from-layer="1844" from-port="2" to-layer="1845" to-port="1" />
		<edge from-layer="1845" from-port="2" to-layer="1847" to-port="0" />
		<edge from-layer="1846" from-port="0" to-layer="1847" to-port="1" />
		<edge from-layer="1847" from-port="2" to-layer="1848" to-port="1" />
		<edge from-layer="1848" from-port="2" to-layer="1850" to-port="0" />
		<edge from-layer="1849" from-port="0" to-layer="1850" to-port="1" />
		<edge from-layer="1850" from-port="2" to-layer="1851" to-port="1" />
		<edge from-layer="1851" from-port="2" to-layer="1853" to-port="0" />
		<edge from-layer="1852" from-port="0" to-layer="1853" to-port="1" />
		<edge from-layer="1853" from-port="2" to-layer="1854" to-port="1" />
		<edge from-layer="1854" from-port="2" to-layer="1856" to-port="0" />
		<edge from-layer="1855" from-port="0" to-layer="1856" to-port="1" />
		<edge from-layer="1856" from-port="2" to-layer="1857" to-port="1" />
		<edge from-layer="1857" from-port="2" to-layer="1859" to-port="0" />
		<edge from-layer="1858" from-port="0" to-layer="1859" to-port="1" />
		<edge from-layer="1859" from-port="2" to-layer="1864" to-port="0" />
		<edge from-layer="1860" from-port="0" to-layer="1863" to-port="1" />
		<edge from-layer="1861" from-port="0" to-layer="1863" to-port="2" />
		<edge from-layer="1862" from-port="0" to-layer="1863" to-port="3" />
		<edge from-layer="1863" from-port="4" to-layer="1864" to-port="1" />
		<edge from-layer="1864" from-port="2" to-layer="1865" to-port="1" />
		<edge from-layer="1865" from-port="2" to-layer="2063" to-port="0" />
		<edge from-layer="1866" from-port="0" to-layer="1867" to-port="0" />
		<edge from-layer="1867" from-port="1" to-layer="2055" to-port="0" />
		<edge from-layer="1868" from-port="0" to-layer="1869" to-port="0" />
		<edge from-layer="1869" from-port="1" to-layer="2052" to-port="0" />
		<edge from-layer="1870" from-port="0" to-layer="1871" to-port="0" />
		<edge from-layer="1871" from-port="1" to-layer="2049" to-port="0" />
		<edge from-layer="1872" from-port="0" to-layer="1873" to-port="0" />
		<edge from-layer="1873" from-port="1" to-layer="2046" to-port="0" />
		<edge from-layer="1874" from-port="0" to-layer="1875" to-port="0" />
		<edge from-layer="1875" from-port="1" to-layer="2043" to-port="0" />
		<edge from-layer="1876" from-port="0" to-layer="1877" to-port="0" />
		<edge from-layer="1877" from-port="1" to-layer="2040" to-port="0" />
		<edge from-layer="1878" from-port="0" to-layer="1879" to-port="0" />
		<edge from-layer="1879" from-port="1" to-layer="2037" to-port="0" />
		<edge from-layer="1880" from-port="0" to-layer="1883" to-port="1" />
		<edge from-layer="1881" from-port="0" to-layer="1883" to-port="2" />
		<edge from-layer="1882" from-port="0" to-layer="1883" to-port="3" />
		<edge from-layer="1883" from-port="4" to-layer="1886" to-port="0" />
		<edge from-layer="1884" from-port="0" to-layer="1885" to-port="0" />
		<edge from-layer="1885" from-port="1" to-layer="1886" to-port="1" />
		<edge from-layer="1886" from-port="2" to-layer="1898" to-port="0" />
		<edge from-layer="1887" from-port="0" to-layer="1890" to-port="1" />
		<edge from-layer="1888" from-port="0" to-layer="1890" to-port="2" />
		<edge from-layer="1889" from-port="0" to-layer="1890" to-port="3" />
		<edge from-layer="1890" from-port="4" to-layer="1897" to-port="0" />
		<edge from-layer="1891" from-port="0" to-layer="1892" to-port="0" />
		<edge from-layer="1892" from-port="1" to-layer="1894" to-port="0" />
		<edge from-layer="1893" from-port="0" to-layer="1894" to-port="1" />
		<edge from-layer="1894" from-port="2" to-layer="1896" to-port="0" />
		<edge from-layer="1895" from-port="0" to-layer="1896" to-port="1" />
		<edge from-layer="1896" from-port="2" to-layer="1897" to-port="1" />
		<edge from-layer="1897" from-port="2" to-layer="1898" to-port="1" />
		<edge from-layer="1898" from-port="2" to-layer="2032" to-port="0" />
		<edge from-layer="1899" from-port="0" to-layer="1902" to-port="1" />
		<edge from-layer="1900" from-port="0" to-layer="1902" to-port="2" />
		<edge from-layer="1901" from-port="0" to-layer="1902" to-port="3" />
		<edge from-layer="1902" from-port="4" to-layer="1905" to-port="0" />
		<edge from-layer="1903" from-port="0" to-layer="1904" to-port="0" />
		<edge from-layer="1904" from-port="1" to-layer="1905" to-port="1" />
		<edge from-layer="1905" from-port="2" to-layer="1917" to-port="0" />
		<edge from-layer="1906" from-port="0" to-layer="1909" to-port="1" />
		<edge from-layer="1907" from-port="0" to-layer="1909" to-port="2" />
		<edge from-layer="1908" from-port="0" to-layer="1909" to-port="3" />
		<edge from-layer="1909" from-port="4" to-layer="1916" to-port="0" />
		<edge from-layer="1910" from-port="0" to-layer="1911" to-port="0" />
		<edge from-layer="1911" from-port="1" to-layer="1913" to-port="0" />
		<edge from-layer="1912" from-port="0" to-layer="1913" to-port="1" />
		<edge from-layer="1913" from-port="2" to-layer="1915" to-port="0" />
		<edge from-layer="1914" from-port="0" to-layer="1915" to-port="1" />
		<edge from-layer="1915" from-port="2" to-layer="1916" to-port="1" />
		<edge from-layer="1916" from-port="2" to-layer="1917" to-port="1" />
		<edge from-layer="1917" from-port="2" to-layer="2032" to-port="1" />
		<edge from-layer="1918" from-port="0" to-layer="1921" to-port="1" />
		<edge from-layer="1919" from-port="0" to-layer="1921" to-port="2" />
		<edge from-layer="1920" from-port="0" to-layer="1921" to-port="3" />
		<edge from-layer="1921" from-port="4" to-layer="1924" to-port="0" />
		<edge from-layer="1922" from-port="0" to-layer="1923" to-port="0" />
		<edge from-layer="1923" from-port="1" to-layer="1924" to-port="1" />
		<edge from-layer="1924" from-port="2" to-layer="1936" to-port="0" />
		<edge from-layer="1925" from-port="0" to-layer="1928" to-port="1" />
		<edge from-layer="1926" from-port="0" to-layer="1928" to-port="2" />
		<edge from-layer="1927" from-port="0" to-layer="1928" to-port="3" />
		<edge from-layer="1928" from-port="4" to-layer="1935" to-port="0" />
		<edge from-layer="1929" from-port="0" to-layer="1930" to-port="0" />
		<edge from-layer="1930" from-port="1" to-layer="1932" to-port="0" />
		<edge from-layer="1931" from-port="0" to-layer="1932" to-port="1" />
		<edge from-layer="1932" from-port="2" to-layer="1934" to-port="0" />
		<edge from-layer="1933" from-port="0" to-layer="1934" to-port="1" />
		<edge from-layer="1934" from-port="2" to-layer="1935" to-port="1" />
		<edge from-layer="1935" from-port="2" to-layer="1936" to-port="1" />
		<edge from-layer="1936" from-port="2" to-layer="2032" to-port="2" />
		<edge from-layer="1937" from-port="0" to-layer="1940" to-port="1" />
		<edge from-layer="1938" from-port="0" to-layer="1940" to-port="2" />
		<edge from-layer="1939" from-port="0" to-layer="1940" to-port="3" />
		<edge from-layer="1940" from-port="4" to-layer="1943" to-port="0" />
		<edge from-layer="1941" from-port="0" to-layer="1942" to-port="0" />
		<edge from-layer="1942" from-port="1" to-layer="1943" to-port="1" />
		<edge from-layer="1943" from-port="2" to-layer="1955" to-port="0" />
		<edge from-layer="1944" from-port="0" to-layer="1947" to-port="1" />
		<edge from-layer="1945" from-port="0" to-layer="1947" to-port="2" />
		<edge from-layer="1946" from-port="0" to-layer="1947" to-port="3" />
		<edge from-layer="1947" from-port="4" to-layer="1954" to-port="0" />
		<edge from-layer="1948" from-port="0" to-layer="1949" to-port="0" />
		<edge from-layer="1949" from-port="1" to-layer="1951" to-port="0" />
		<edge from-layer="1950" from-port="0" to-layer="1951" to-port="1" />
		<edge from-layer="1951" from-port="2" to-layer="1953" to-port="0" />
		<edge from-layer="1952" from-port="0" to-layer="1953" to-port="1" />
		<edge from-layer="1953" from-port="2" to-layer="1954" to-port="1" />
		<edge from-layer="1954" from-port="2" to-layer="1955" to-port="1" />
		<edge from-layer="1955" from-port="2" to-layer="2032" to-port="3" />
		<edge from-layer="1956" from-port="0" to-layer="1959" to-port="1" />
		<edge from-layer="1957" from-port="0" to-layer="1959" to-port="2" />
		<edge from-layer="1958" from-port="0" to-layer="1959" to-port="3" />
		<edge from-layer="1959" from-port="4" to-layer="1962" to-port="0" />
		<edge from-layer="1960" from-port="0" to-layer="1961" to-port="0" />
		<edge from-layer="1961" from-port="1" to-layer="1962" to-port="1" />
		<edge from-layer="1962" from-port="2" to-layer="1974" to-port="0" />
		<edge from-layer="1963" from-port="0" to-layer="1966" to-port="1" />
		<edge from-layer="1964" from-port="0" to-layer="1966" to-port="2" />
		<edge from-layer="1965" from-port="0" to-layer="1966" to-port="3" />
		<edge from-layer="1966" from-port="4" to-layer="1973" to-port="0" />
		<edge from-layer="1967" from-port="0" to-layer="1968" to-port="0" />
		<edge from-layer="1968" from-port="1" to-layer="1970" to-port="0" />
		<edge from-layer="1969" from-port="0" to-layer="1970" to-port="1" />
		<edge from-layer="1970" from-port="2" to-layer="1972" to-port="0" />
		<edge from-layer="1971" from-port="0" to-layer="1972" to-port="1" />
		<edge from-layer="1972" from-port="2" to-layer="1973" to-port="1" />
		<edge from-layer="1973" from-port="2" to-layer="1974" to-port="1" />
		<edge from-layer="1974" from-port="2" to-layer="2032" to-port="4" />
		<edge from-layer="1975" from-port="0" to-layer="1978" to-port="1" />
		<edge from-layer="1976" from-port="0" to-layer="1978" to-port="2" />
		<edge from-layer="1977" from-port="0" to-layer="1978" to-port="3" />
		<edge from-layer="1978" from-port="4" to-layer="1981" to-port="0" />
		<edge from-layer="1979" from-port="0" to-layer="1980" to-port="0" />
		<edge from-layer="1980" from-port="1" to-layer="1981" to-port="1" />
		<edge from-layer="1981" from-port="2" to-layer="1993" to-port="0" />
		<edge from-layer="1982" from-port="0" to-layer="1985" to-port="1" />
		<edge from-layer="1983" from-port="0" to-layer="1985" to-port="2" />
		<edge from-layer="1984" from-port="0" to-layer="1985" to-port="3" />
		<edge from-layer="1985" from-port="4" to-layer="1992" to-port="0" />
		<edge from-layer="1986" from-port="0" to-layer="1987" to-port="0" />
		<edge from-layer="1987" from-port="1" to-layer="1989" to-port="0" />
		<edge from-layer="1988" from-port="0" to-layer="1989" to-port="1" />
		<edge from-layer="1989" from-port="2" to-layer="1991" to-port="0" />
		<edge from-layer="1990" from-port="0" to-layer="1991" to-port="1" />
		<edge from-layer="1991" from-port="2" to-layer="1992" to-port="1" />
		<edge from-layer="1992" from-port="2" to-layer="1993" to-port="1" />
		<edge from-layer="1993" from-port="2" to-layer="2032" to-port="5" />
		<edge from-layer="1994" from-port="0" to-layer="1997" to-port="1" />
		<edge from-layer="1995" from-port="0" to-layer="1997" to-port="2" />
		<edge from-layer="1996" from-port="0" to-layer="1997" to-port="3" />
		<edge from-layer="1997" from-port="4" to-layer="2000" to-port="0" />
		<edge from-layer="1998" from-port="0" to-layer="1999" to-port="0" />
		<edge from-layer="1999" from-port="1" to-layer="2000" to-port="1" />
		<edge from-layer="2000" from-port="2" to-layer="2012" to-port="0" />
		<edge from-layer="2001" from-port="0" to-layer="2004" to-port="1" />
		<edge from-layer="2002" from-port="0" to-layer="2004" to-port="2" />
		<edge from-layer="2003" from-port="0" to-layer="2004" to-port="3" />
		<edge from-layer="2004" from-port="4" to-layer="2011" to-port="0" />
		<edge from-layer="2005" from-port="0" to-layer="2006" to-port="0" />
		<edge from-layer="2006" from-port="1" to-layer="2008" to-port="0" />
		<edge from-layer="2007" from-port="0" to-layer="2008" to-port="1" />
		<edge from-layer="2008" from-port="2" to-layer="2010" to-port="0" />
		<edge from-layer="2009" from-port="0" to-layer="2010" to-port="1" />
		<edge from-layer="2010" from-port="2" to-layer="2011" to-port="1" />
		<edge from-layer="2011" from-port="2" to-layer="2012" to-port="1" />
		<edge from-layer="2012" from-port="2" to-layer="2032" to-port="6" />
		<edge from-layer="2013" from-port="0" to-layer="2016" to-port="1" />
		<edge from-layer="2014" from-port="0" to-layer="2016" to-port="2" />
		<edge from-layer="2015" from-port="0" to-layer="2016" to-port="3" />
		<edge from-layer="2016" from-port="4" to-layer="2019" to-port="0" />
		<edge from-layer="2017" from-port="0" to-layer="2018" to-port="0" />
		<edge from-layer="2018" from-port="1" to-layer="2019" to-port="1" />
		<edge from-layer="2019" from-port="2" to-layer="2031" to-port="0" />
		<edge from-layer="2020" from-port="0" to-layer="2023" to-port="1" />
		<edge from-layer="2021" from-port="0" to-layer="2023" to-port="2" />
		<edge from-layer="2022" from-port="0" to-layer="2023" to-port="3" />
		<edge from-layer="2023" from-port="4" to-layer="2030" to-port="0" />
		<edge from-layer="2024" from-port="0" to-layer="2025" to-port="0" />
		<edge from-layer="2025" from-port="1" to-layer="2027" to-port="0" />
		<edge from-layer="2026" from-port="0" to-layer="2027" to-port="1" />
		<edge from-layer="2027" from-port="2" to-layer="2029" to-port="0" />
		<edge from-layer="2028" from-port="0" to-layer="2029" to-port="1" />
		<edge from-layer="2029" from-port="2" to-layer="2030" to-port="1" />
		<edge from-layer="2030" from-port="2" to-layer="2031" to-port="1" />
		<edge from-layer="2031" from-port="2" to-layer="2032" to-port="7" />
		<edge from-layer="2032" from-port="8" to-layer="2034" to-port="0" />
		<edge from-layer="2033" from-port="0" to-layer="2034" to-port="1" />
		<edge from-layer="2034" from-port="2" to-layer="2036" to-port="0" />
		<edge from-layer="2035" from-port="0" to-layer="2036" to-port="1" />
		<edge from-layer="2036" from-port="2" to-layer="2037" to-port="1" />
		<edge from-layer="2037" from-port="2" to-layer="2039" to-port="0" />
		<edge from-layer="2038" from-port="0" to-layer="2039" to-port="1" />
		<edge from-layer="2039" from-port="2" to-layer="2040" to-port="1" />
		<edge from-layer="2040" from-port="2" to-layer="2042" to-port="0" />
		<edge from-layer="2041" from-port="0" to-layer="2042" to-port="1" />
		<edge from-layer="2042" from-port="2" to-layer="2043" to-port="1" />
		<edge from-layer="2043" from-port="2" to-layer="2045" to-port="0" />
		<edge from-layer="2044" from-port="0" to-layer="2045" to-port="1" />
		<edge from-layer="2045" from-port="2" to-layer="2046" to-port="1" />
		<edge from-layer="2046" from-port="2" to-layer="2048" to-port="0" />
		<edge from-layer="2047" from-port="0" to-layer="2048" to-port="1" />
		<edge from-layer="2048" from-port="2" to-layer="2049" to-port="1" />
		<edge from-layer="2049" from-port="2" to-layer="2051" to-port="0" />
		<edge from-layer="2050" from-port="0" to-layer="2051" to-port="1" />
		<edge from-layer="2051" from-port="2" to-layer="2052" to-port="1" />
		<edge from-layer="2052" from-port="2" to-layer="2054" to-port="0" />
		<edge from-layer="2053" from-port="0" to-layer="2054" to-port="1" />
		<edge from-layer="2054" from-port="2" to-layer="2055" to-port="1" />
		<edge from-layer="2055" from-port="2" to-layer="2057" to-port="0" />
		<edge from-layer="2056" from-port="0" to-layer="2057" to-port="1" />
		<edge from-layer="2057" from-port="2" to-layer="2062" to-port="0" />
		<edge from-layer="2058" from-port="0" to-layer="2061" to-port="1" />
		<edge from-layer="2059" from-port="0" to-layer="2061" to-port="2" />
		<edge from-layer="2060" from-port="0" to-layer="2061" to-port="3" />
		<edge from-layer="2061" from-port="4" to-layer="2062" to-port="1" />
		<edge from-layer="2062" from-port="2" to-layer="2063" to-port="1" />
		<edge from-layer="2063" from-port="2" to-layer="2064" to-port="0" />
	</edges>
	<rt_info>
		<Runtime_version value="2023.2.0-13089-cfd42bd2cb0-HEAD" />
		<conversion_parameters>
			<is_python_object value="False" />
		</conversion_parameters>
	</rt_info>
</net>
