<?xml version="1.0"?>
<net name="TensorFlow_Frontend_IR" version="11">
	<layers>
		<layer id="1" name="args_0" type="Parameter" version="opset1">
			<data shape="1,3" element_type="f32" />
			<rt_info>
				<attribute name="old_api_map_element_type" version="0" value="f16" />
			</rt_info>
			<output>
				<port id="0" precision="FP32" names="args_0">
					<dim>1</dim>
					<dim>3</dim>
				</port>
			</output>
		</layer>
		<layer id="0" name="args_1" type="Parameter" version="opset1">
			<data shape="1,128,16,1" element_type="f32" />
			<rt_info>
				<attribute name="old_api_map_element_type" version="0" value="f16" />
			</rt_info>
			<output>
				<port id="0" precision="FP32" names="args_1">
					<dim>1</dim>
					<dim>128</dim>
					<dim>16</dim>
					<dim>1</dim>
				</port>
			</output>
		</layer>
		<layer id="2" name="model/ttl/sequential/tt_dense_0/t3f_matmul/t3f_transpose/transpose_compressed" type="Const" version="opset1">
			<data element_type="f16" shape="1, 4, 2, 7" offset="0" size="112" />
			<output>
				<port id="0" precision="FP16">
					<dim>1</dim>
					<dim>4</dim>
					<dim>2</dim>
					<dim>7</dim>
				</port>
			</output>
		</layer>
		<layer id="3" name="model/ttl/sequential/tt_dense_0/t3f_matmul/t3f_transpose/transpose" type="Convert" version="opset1">
			<data destination_type="f32" />
			<rt_info>
				<attribute name="decompression" version="0" />
			</rt_info>
			<input>
				<port id="0" precision="FP16">
					<dim>1</dim>
					<dim>4</dim>
					<dim>2</dim>
					<dim>7</dim>
				</port>
			</input>
			<output>
				<port id="1" precision="FP32">
					<dim>1</dim>
					<dim>4</dim>
					<dim>2</dim>
					<dim>7</dim>
				</port>
			</output>
		</layer>
		<layer id="4" name="model/ttl/sequential/tt_dense_0/t3f_matmul/t3f_transpose/transpose_1_compressed" type="Const" version="opset1">
			<data element_type="f16" shape="7, 4, 2, 16" offset="112" size="1792" />
			<output>
				<port id="0" precision="FP16">
					<dim>7</dim>
					<dim>4</dim>
					<dim>2</dim>
					<dim>16</dim>
				</port>
			</output>
		</layer>
		<layer id="5" name="model/ttl/sequential/tt_dense_0/t3f_matmul/t3f_transpose/transpose_1" type="Convert" version="opset1">
			<data destination_type="f32" />
			<rt_info>
				<attribute name="decompression" version="0" />
			</rt_info>
			<input>
				<port id="0" precision="FP16">
					<dim>7</dim>
					<dim>4</dim>
					<dim>2</dim>
					<dim>16</dim>
				</port>
			</input>
			<output>
				<port id="1" precision="FP32">
					<dim>7</dim>
					<dim>4</dim>
					<dim>2</dim>
					<dim>16</dim>
				</port>
			</output>
		</layer>
		<layer id="6" name="model/ttl/sequential/tt_dense_0/t3f_matmul/t3f_transpose/transpose_2_compressed" type="Const" version="opset1">
			<data element_type="f16" shape="16, 4, 2, 16" offset="1904" size="4096" />
			<output>
				<port id="0" precision="FP16">
					<dim>16</dim>
					<dim>4</dim>
					<dim>2</dim>
					<dim>16</dim>
				</port>
			</output>
		</layer>
		<layer id="7" name="model/ttl/sequential/tt_dense_0/t3f_matmul/t3f_transpose/transpose_2" type="Convert" version="opset1">
			<data destination_type="f32" />
			<rt_info>
				<attribute name="decompression" version="0" />
			</rt_info>
			<input>
				<port id="0" precision="FP16">
					<dim>16</dim>
					<dim>4</dim>
					<dim>2</dim>
					<dim>16</dim>
				</port>
			</input>
			<output>
				<port id="1" precision="FP32">
					<dim>16</dim>
					<dim>4</dim>
					<dim>2</dim>
					<dim>16</dim>
				</port>
			</output>
		</layer>
		<layer id="8" name="model/ttl/sequential/tt_dense_0/t3f_matmul/t3f_transpose/transpose_3_compressed" type="Const" version="opset1">
			<data element_type="f16" shape="16, 4, 2, 16" offset="6000" size="4096" />
			<output>
				<port id="0" precision="FP16">
					<dim>16</dim>
					<dim>4</dim>
					<dim>2</dim>
					<dim>16</dim>
				</port>
			</output>
		</layer>
		<layer id="9" name="model/ttl/sequential/tt_dense_0/t3f_matmul/t3f_transpose/transpose_3" type="Convert" version="opset1">
			<data destination_type="f32" />
			<rt_info>
				<attribute name="decompression" version="0" />
			</rt_info>
			<input>
				<port id="0" precision="FP16">
					<dim>16</dim>
					<dim>4</dim>
					<dim>2</dim>
					<dim>16</dim>
				</port>
			</input>
			<output>
				<port id="1" precision="FP32">
					<dim>16</dim>
					<dim>4</dim>
					<dim>2</dim>
					<dim>16</dim>
				</port>
			</output>
		</layer>
		<layer id="10" name="model/ttl/sequential/tt_dense_0/t3f_matmul/t3f_transpose/transpose_4_compressed" type="Const" version="opset1">
			<data element_type="f16" shape="16, 4, 2, 16" offset="10096" size="4096" />
			<output>
				<port id="0" precision="FP16">
					<dim>16</dim>
					<dim>4</dim>
					<dim>2</dim>
					<dim>16</dim>
				</port>
			</output>
		</layer>
		<layer id="11" name="model/ttl/sequential/tt_dense_0/t3f_matmul/t3f_transpose/transpose_4" type="Convert" version="opset1">
			<data destination_type="f32" />
			<rt_info>
				<attribute name="decompression" version="0" />
			</rt_info>
			<input>
				<port id="0" precision="FP16">
					<dim>16</dim>
					<dim>4</dim>
					<dim>2</dim>
					<dim>16</dim>
				</port>
			</input>
			<output>
				<port id="1" precision="FP32">
					<dim>16</dim>
					<dim>4</dim>
					<dim>2</dim>
					<dim>16</dim>
				</port>
			</output>
		</layer>
		<layer id="12" name="model/ttl/sequential/tt_dense_0/t3f_matmul/t3f_transpose/transpose_5_compressed" type="Const" version="opset1">
			<data element_type="f16" shape="16, 4, 2, 7" offset="14192" size="1792" />
			<output>
				<port id="0" precision="FP16">
					<dim>16</dim>
					<dim>4</dim>
					<dim>2</dim>
					<dim>7</dim>
				</port>
			</output>
		</layer>
		<layer id="13" name="model/ttl/sequential/tt_dense_0/t3f_matmul/t3f_transpose/transpose_5" type="Convert" version="opset1">
			<data destination_type="f32" />
			<rt_info>
				<attribute name="decompression" version="0" />
			</rt_info>
			<input>
				<port id="0" precision="FP16">
					<dim>16</dim>
					<dim>4</dim>
					<dim>2</dim>
					<dim>7</dim>
				</port>
			</input>
			<output>
				<port id="1" precision="FP32">
					<dim>16</dim>
					<dim>4</dim>
					<dim>2</dim>
					<dim>7</dim>
				</port>
			</output>
		</layer>
		<layer id="14" name="model/ttl/sequential/tt_dense_0/t3f_matmul/t3f_transpose/transpose_6_compressed" type="Const" version="opset1">
			<data element_type="f16" shape="7, 4, 2, 1" offset="15984" size="112" />
			<output>
				<port id="0" precision="FP16">
					<dim>7</dim>
					<dim>4</dim>
					<dim>2</dim>
					<dim>1</dim>
				</port>
			</output>
		</layer>
		<layer id="15" name="model/ttl/sequential/tt_dense_0/t3f_matmul/t3f_transpose/transpose_6" type="Convert" version="opset1">
			<data destination_type="f32" />
			<rt_info>
				<attribute name="decompression" version="0" />
			</rt_info>
			<input>
				<port id="0" precision="FP16">
					<dim>7</dim>
					<dim>4</dim>
					<dim>2</dim>
					<dim>1</dim>
				</port>
			</input>
			<output>
				<port id="1" precision="FP32">
					<dim>7</dim>
					<dim>4</dim>
					<dim>2</dim>
					<dim>1</dim>
				</port>
			</output>
		</layer>
		<layer id="16" name="Constant_2834" type="Const" version="opset1">
			<data element_type="i32" shape="1" offset="16096" size="4" />
			<output>
				<port id="0" precision="I32">
					<dim>1</dim>
				</port>
			</output>
		</layer>
		<layer id="17" name="model/ttl/sequential/Squeeze" type="Squeeze" version="opset1">
			<input>
				<port id="0" precision="FP32">
					<dim>1</dim>
					<dim>128</dim>
					<dim>16</dim>
					<dim>1</dim>
				</port>
				<port id="1" precision="I32">
					<dim>1</dim>
				</port>
			</input>
			<output>
				<port id="2" precision="FP32">
					<dim>1</dim>
					<dim>128</dim>
					<dim>16</dim>
				</port>
			</output>
		</layer>
		<layer id="18" name="model/ttl/sequential/einsum_ttl/strided_slice/stack" type="Const" version="opset1">
			<data element_type="i32" shape="3" offset="16100" size="12" />
			<rt_info>
				<attribute name="precise" version="0" />
			</rt_info>
			<output>
				<port id="0" precision="I32">
					<dim>3</dim>
				</port>
			</output>
		</layer>
		<layer id="19" name="model/ttl/sequential/einsum_ttl/strided_slice/stack_1" type="Const" version="opset1">
			<data element_type="i32" shape="3" offset="16112" size="12" />
			<rt_info>
				<attribute name="precise" version="0" />
			</rt_info>
			<output>
				<port id="0" precision="I32">
					<dim>3</dim>
				</port>
			</output>
		</layer>
		<layer id="20" name="model/ttl/sequential/einsum_ttl/strided_slice/stack_2" type="Const" version="opset1">
			<data element_type="i32" shape="3" offset="16124" size="12" />
			<rt_info>
				<attribute name="precise" version="0" />
			</rt_info>
			<output>
				<port id="0" precision="I32">
					<dim>3</dim>
				</port>
			</output>
		</layer>
		<layer id="21" name="model/ttl/sequential/einsum_ttl/strided_slice" type="StridedSlice" version="opset1">
			<data begin_mask="1, 1, 1" end_mask="1, 0, 0" new_axis_mask="0, 0, 0" shrink_axis_mask="0, 0, 0" ellipsis_mask="0, 0, 0" />
			<input>
				<port id="0" precision="FP32">
					<dim>1</dim>
					<dim>128</dim>
					<dim>16</dim>
				</port>
				<port id="1" precision="I32">
					<dim>3</dim>
				</port>
				<port id="2" precision="I32">
					<dim>3</dim>
				</port>
				<port id="3" precision="I32">
					<dim>3</dim>
				</port>
			</input>
			<output>
				<port id="4" precision="FP32">
					<dim>1</dim>
					<dim>64</dim>
					<dim>8</dim>
				</port>
			</output>
		</layer>
		<layer id="22" name="model/ttl/sequential/einsum_ttl/strided_slice_1_compressed" type="Const" version="opset1">
			<data element_type="f16" shape="8" offset="16136" size="16" />
			<output>
				<port id="0" precision="FP16">
					<dim>8</dim>
				</port>
			</output>
		</layer>
		<layer id="23" name="model/ttl/sequential/einsum_ttl/strided_slice_1" type="Convert" version="opset1">
			<data destination_type="f32" />
			<rt_info>
				<attribute name="decompression" version="0" />
			</rt_info>
			<input>
				<port id="0" precision="FP16">
					<dim>8</dim>
				</port>
			</input>
			<output>
				<port id="1" precision="FP32">
					<dim>8</dim>
				</port>
			</output>
		</layer>
		<layer id="24" name="model/ttl/sequential/einsum_ttl/einsum/Einsum" type="Einsum" version="opset7">
			<data equation="abc,c->ab" />
			<input>
				<port id="0" precision="FP32">
					<dim>1</dim>
					<dim>64</dim>
					<dim>8</dim>
				</port>
				<port id="1" precision="FP32">
					<dim>8</dim>
				</port>
			</input>
			<output>
				<port id="2" precision="FP32">
					<dim>1</dim>
					<dim>64</dim>
				</port>
			</output>
		</layer>
		<layer id="25" name="model/ttl/sequential/einsum_ttl/strided_slice_2/stack" type="Const" version="opset1">
			<data element_type="i32" shape="3" offset="16152" size="12" />
			<rt_info>
				<attribute name="precise" version="0" />
			</rt_info>
			<output>
				<port id="0" precision="I32">
					<dim>3</dim>
				</port>
			</output>
		</layer>
		<layer id="26" name="model/ttl/sequential/einsum_ttl/strided_slice_2/stack_1" type="Const" version="opset1">
			<data element_type="i32" shape="3" offset="16164" size="12" />
			<rt_info>
				<attribute name="precise" version="0" />
			</rt_info>
			<output>
				<port id="0" precision="I32">
					<dim>3</dim>
				</port>
			</output>
		</layer>
		<layer id="27" name="model/ttl/sequential/einsum_ttl/strided_slice_2/stack_2" type="Const" version="opset1">
			<data element_type="i32" shape="3" offset="16124" size="12" />
			<rt_info>
				<attribute name="precise" version="0" />
			</rt_info>
			<output>
				<port id="0" precision="I32">
					<dim>3</dim>
				</port>
			</output>
		</layer>
		<layer id="28" name="model/ttl/sequential/einsum_ttl/strided_slice_2" type="StridedSlice" version="opset1">
			<data begin_mask="1, 1" end_mask="1, 0" new_axis_mask="0, 0" shrink_axis_mask="0, 0" ellipsis_mask="0, 0" />
			<input>
				<port id="0" precision="FP32">
					<dim>1</dim>
					<dim>128</dim>
					<dim>16</dim>
				</port>
				<port id="1" precision="I32">
					<dim>3</dim>
				</port>
				<port id="2" precision="I32">
					<dim>3</dim>
				</port>
				<port id="3" precision="I32">
					<dim>3</dim>
				</port>
			</input>
			<output>
				<port id="4" precision="FP32">
					<dim>1</dim>
					<dim>64</dim>
					<dim>8</dim>
				</port>
			</output>
		</layer>
		<layer id="29" name="Unsqueeze_2854_compressed" type="Const" version="opset1">
			<data element_type="f16" shape="1, 8" offset="16136" size="16" />
			<output>
				<port id="0" precision="FP16">
					<dim>1</dim>
					<dim>8</dim>
				</port>
			</output>
		</layer>
		<layer id="30" name="Unsqueeze_2854" type="Convert" version="opset1">
			<data destination_type="f32" />
			<rt_info>
				<attribute name="decompression" version="0" />
			</rt_info>
			<input>
				<port id="0" precision="FP16">
					<dim>1</dim>
					<dim>8</dim>
				</port>
			</input>
			<output>
				<port id="1" precision="FP32">
					<dim>1</dim>
					<dim>8</dim>
				</port>
			</output>
		</layer>
		<layer id="31" name="Broadcast_2861" type="Const" version="opset1">
			<data element_type="i32" shape="1" offset="16176" size="4" />
			<output>
				<port id="0" precision="I32">
					<dim>1</dim>
				</port>
			</output>
		</layer>
		<layer id="32" name="ReverseSequence_2864" type="ReverseSequence" version="opset1">
			<data batch_axis="0" seq_axis="1" />
			<input>
				<port id="0" precision="FP32">
					<dim>1</dim>
					<dim>8</dim>
				</port>
				<port id="1" precision="I32">
					<dim>1</dim>
				</port>
			</input>
			<output>
				<port id="2" precision="FP32">
					<dim>1</dim>
					<dim>8</dim>
				</port>
			</output>
		</layer>
		<layer id="33" name="Constant_2865" type="Const" version="opset1">
			<data element_type="i32" shape="1" offset="16180" size="4" />
			<output>
				<port id="0" precision="I32">
					<dim>1</dim>
				</port>
			</output>
		</layer>
		<layer id="34" name="model/ttl/sequential/einsum_ttl/ReverseV2" type="Squeeze" version="opset1">
			<input>
				<port id="0" precision="FP32">
					<dim>1</dim>
					<dim>8</dim>
				</port>
				<port id="1" precision="I32">
					<dim>1</dim>
				</port>
			</input>
			<output>
				<port id="2" precision="FP32">
					<dim>8</dim>
				</port>
			</output>
		</layer>
		<layer id="35" name="model/ttl/sequential/einsum_ttl/einsum_1/Einsum" type="Einsum" version="opset7">
			<data equation="abc,c->ab" />
			<input>
				<port id="0" precision="FP32">
					<dim>1</dim>
					<dim>64</dim>
					<dim>8</dim>
				</port>
				<port id="1" precision="FP32">
					<dim>8</dim>
				</port>
			</input>
			<output>
				<port id="2" precision="FP32">
					<dim>1</dim>
					<dim>64</dim>
				</port>
			</output>
		</layer>
		<layer id="36" name="model/ttl/sequential/einsum_ttl/add" type="Add" version="opset1">
			<data auto_broadcast="numpy" />
			<input>
				<port id="0" precision="FP32">
					<dim>1</dim>
					<dim>64</dim>
				</port>
				<port id="1" precision="FP32">
					<dim>1</dim>
					<dim>64</dim>
				</port>
			</input>
			<output>
				<port id="2" precision="FP32">
					<dim>1</dim>
					<dim>64</dim>
				</port>
			</output>
		</layer>
		<layer id="37" name="model/ttl/sequential/einsum_ttl/strided_slice_4/stack" type="Const" version="opset1">
			<data element_type="i32" shape="3" offset="16184" size="12" />
			<rt_info>
				<attribute name="precise" version="0" />
			</rt_info>
			<output>
				<port id="0" precision="I32">
					<dim>3</dim>
				</port>
			</output>
		</layer>
		<layer id="38" name="model/ttl/sequential/einsum_ttl/strided_slice_4/stack_1" type="Const" version="opset1">
			<data element_type="i32" shape="3" offset="16152" size="12" />
			<rt_info>
				<attribute name="precise" version="0" />
			</rt_info>
			<output>
				<port id="0" precision="I32">
					<dim>3</dim>
				</port>
			</output>
		</layer>
		<layer id="39" name="model/ttl/sequential/einsum_ttl/strided_slice_4/stack_2" type="Const" version="opset1">
			<data element_type="i32" shape="3" offset="16124" size="12" />
			<rt_info>
				<attribute name="precise" version="0" />
			</rt_info>
			<output>
				<port id="0" precision="I32">
					<dim>3</dim>
				</port>
			</output>
		</layer>
		<layer id="40" name="model/ttl/sequential/einsum_ttl/strided_slice_4" type="StridedSlice" version="opset1">
			<data begin_mask="1, 0, 1" end_mask="1, 1, 0" new_axis_mask="0, 0, 0" shrink_axis_mask="0, 0, 0" ellipsis_mask="0, 0, 0" />
			<input>
				<port id="0" precision="FP32">
					<dim>1</dim>
					<dim>128</dim>
					<dim>16</dim>
				</port>
				<port id="1" precision="I32">
					<dim>3</dim>
				</port>
				<port id="2" precision="I32">
					<dim>3</dim>
				</port>
				<port id="3" precision="I32">
					<dim>3</dim>
				</port>
			</input>
			<output>
				<port id="4" precision="FP32">
					<dim>1</dim>
					<dim>64</dim>
					<dim>8</dim>
				</port>
			</output>
		</layer>
		<layer id="41" name="model/ttl/sequential/einsum_ttl/strided_slice_5_compressed" type="Const" version="opset1">
			<data element_type="f16" shape="8" offset="16196" size="16" />
			<output>
				<port id="0" precision="FP16">
					<dim>8</dim>
				</port>
			</output>
		</layer>
		<layer id="42" name="model/ttl/sequential/einsum_ttl/strided_slice_5" type="Convert" version="opset1">
			<data destination_type="f32" />
			<rt_info>
				<attribute name="decompression" version="0" />
			</rt_info>
			<input>
				<port id="0" precision="FP16">
					<dim>8</dim>
				</port>
			</input>
			<output>
				<port id="1" precision="FP32">
					<dim>8</dim>
				</port>
			</output>
		</layer>
		<layer id="43" name="model/ttl/sequential/einsum_ttl/einsum_2/Einsum" type="Einsum" version="opset7">
			<data equation="abc,c->ab" />
			<input>
				<port id="0" precision="FP32">
					<dim>1</dim>
					<dim>64</dim>
					<dim>8</dim>
				</port>
				<port id="1" precision="FP32">
					<dim>8</dim>
				</port>
			</input>
			<output>
				<port id="2" precision="FP32">
					<dim>1</dim>
					<dim>64</dim>
				</port>
			</output>
		</layer>
		<layer id="44" name="model/ttl/sequential/einsum_ttl/strided_slice_6/stack" type="Const" version="opset1">
			<data element_type="i32" shape="3" offset="16112" size="12" />
			<rt_info>
				<attribute name="precise" version="0" />
			</rt_info>
			<output>
				<port id="0" precision="I32">
					<dim>3</dim>
				</port>
			</output>
		</layer>
		<layer id="45" name="model/ttl/sequential/einsum_ttl/strided_slice_6/stack_1" type="Const" version="opset1">
			<data element_type="i32" shape="3" offset="16212" size="12" />
			<rt_info>
				<attribute name="precise" version="0" />
			</rt_info>
			<output>
				<port id="0" precision="I32">
					<dim>3</dim>
				</port>
			</output>
		</layer>
		<layer id="46" name="model/ttl/sequential/einsum_ttl/strided_slice_6/stack_2" type="Const" version="opset1">
			<data element_type="i32" shape="3" offset="16124" size="12" />
			<rt_info>
				<attribute name="precise" version="0" />
			</rt_info>
			<output>
				<port id="0" precision="I32">
					<dim>3</dim>
				</port>
			</output>
		</layer>
		<layer id="47" name="model/ttl/sequential/einsum_ttl/strided_slice_6" type="StridedSlice" version="opset1">
			<data begin_mask="1, 0" end_mask="1, 1" new_axis_mask="0, 0" shrink_axis_mask="0, 0" ellipsis_mask="0, 0" />
			<input>
				<port id="0" precision="FP32">
					<dim>1</dim>
					<dim>128</dim>
					<dim>16</dim>
				</port>
				<port id="1" precision="I32">
					<dim>3</dim>
				</port>
				<port id="2" precision="I32">
					<dim>3</dim>
				</port>
				<port id="3" precision="I32">
					<dim>3</dim>
				</port>
			</input>
			<output>
				<port id="4" precision="FP32">
					<dim>1</dim>
					<dim>64</dim>
					<dim>8</dim>
				</port>
			</output>
		</layer>
		<layer id="48" name="Unsqueeze_2818_compressed" type="Const" version="opset1">
			<data element_type="f16" shape="1, 8" offset="16196" size="16" />
			<output>
				<port id="0" precision="FP16">
					<dim>1</dim>
					<dim>8</dim>
				</port>
			</output>
		</layer>
		<layer id="49" name="Unsqueeze_2818" type="Convert" version="opset1">
			<data destination_type="f32" />
			<rt_info>
				<attribute name="decompression" version="0" />
			</rt_info>
			<input>
				<port id="0" precision="FP16">
					<dim>1</dim>
					<dim>8</dim>
				</port>
			</input>
			<output>
				<port id="1" precision="FP32">
					<dim>1</dim>
					<dim>8</dim>
				</port>
			</output>
		</layer>
		<layer id="50" name="Broadcast_2825" type="Const" version="opset1">
			<data element_type="i32" shape="1" offset="16176" size="4" />
			<output>
				<port id="0" precision="I32">
					<dim>1</dim>
				</port>
			</output>
		</layer>
		<layer id="51" name="ReverseSequence_2828" type="ReverseSequence" version="opset1">
			<data batch_axis="0" seq_axis="1" />
			<input>
				<port id="0" precision="FP32">
					<dim>1</dim>
					<dim>8</dim>
				</port>
				<port id="1" precision="I32">
					<dim>1</dim>
				</port>
			</input>
			<output>
				<port id="2" precision="FP32">
					<dim>1</dim>
					<dim>8</dim>
				</port>
			</output>
		</layer>
		<layer id="52" name="Constant_2829" type="Const" version="opset1">
			<data element_type="i32" shape="1" offset="16180" size="4" />
			<output>
				<port id="0" precision="I32">
					<dim>1</dim>
				</port>
			</output>
		</layer>
		<layer id="53" name="model/ttl/sequential/einsum_ttl/ReverseV2_1" type="Squeeze" version="opset1">
			<input>
				<port id="0" precision="FP32">
					<dim>1</dim>
					<dim>8</dim>
				</port>
				<port id="1" precision="I32">
					<dim>1</dim>
				</port>
			</input>
			<output>
				<port id="2" precision="FP32">
					<dim>8</dim>
				</port>
			</output>
		</layer>
		<layer id="54" name="model/ttl/sequential/einsum_ttl/einsum_3/Einsum" type="Einsum" version="opset7">
			<data equation="abc,c->ab" />
			<input>
				<port id="0" precision="FP32">
					<dim>1</dim>
					<dim>64</dim>
					<dim>8</dim>
				</port>
				<port id="1" precision="FP32">
					<dim>8</dim>
				</port>
			</input>
			<output>
				<port id="2" precision="FP32">
					<dim>1</dim>
					<dim>64</dim>
				</port>
			</output>
		</layer>
		<layer id="55" name="model/ttl/sequential/einsum_ttl/add_1" type="Add" version="opset1">
			<data auto_broadcast="numpy" />
			<input>
				<port id="0" precision="FP32">
					<dim>1</dim>
					<dim>64</dim>
				</port>
				<port id="1" precision="FP32">
					<dim>1</dim>
					<dim>64</dim>
				</port>
			</input>
			<output>
				<port id="2" precision="FP32">
					<dim>1</dim>
					<dim>64</dim>
				</port>
			</output>
		</layer>
		<layer id="56" name="model/ttl/sequential/einsum_ttl/concat" type="Concat" version="opset1">
			<data axis="1" />
			<input>
				<port id="0" precision="FP32">
					<dim>1</dim>
					<dim>64</dim>
				</port>
				<port id="1" precision="FP32">
					<dim>1</dim>
					<dim>64</dim>
				</port>
			</input>
			<output>
				<port id="2" precision="FP32">
					<dim>1</dim>
					<dim>128</dim>
				</port>
			</output>
		</layer>
		<layer id="57" name="model/ttl/sequential/flatten/Const" type="Const" version="opset1">
			<data element_type="i32" shape="2" offset="16224" size="8" />
			<rt_info>
				<attribute name="precise" version="0" />
			</rt_info>
			<output>
				<port id="0" precision="I32">
					<dim>2</dim>
				</port>
			</output>
		</layer>
		<layer id="58" name="model/ttl/sequential/flatten/Reshape" type="Reshape" version="opset1">
			<data special_zero="false" />
			<input>
				<port id="0" precision="FP32">
					<dim>1</dim>
					<dim>128</dim>
				</port>
				<port id="1" precision="I32">
					<dim>2</dim>
				</port>
			</input>
			<output>
				<port id="2" precision="FP32">
					<dim>1</dim>
					<dim>128</dim>
				</port>
			</output>
		</layer>
		<layer id="59" name="model/ttl/sequential/tt_dense_0/t3f_matmul/Reshape/shape" type="Const" version="opset1">
			<data element_type="i32" shape="3" offset="16232" size="12" />
			<rt_info>
				<attribute name="precise" version="0" />
			</rt_info>
			<output>
				<port id="0" precision="I32">
					<dim>3</dim>
				</port>
			</output>
		</layer>
		<layer id="60" name="model/ttl/sequential/tt_dense_0/t3f_matmul/Reshape" type="Reshape" version="opset1">
			<data special_zero="false" />
			<input>
				<port id="0" precision="FP32">
					<dim>1</dim>
					<dim>128</dim>
				</port>
				<port id="1" precision="I32">
					<dim>3</dim>
				</port>
			</input>
			<output>
				<port id="2" precision="FP32">
					<dim>64</dim>
					<dim>2</dim>
					<dim>1</dim>
				</port>
			</output>
		</layer>
		<layer id="61" name="model/ttl/sequential/tt_dense_0/t3f_matmul/einsum/Einsum" type="Einsum" version="opset7">
			<data equation="aijb,rjb->ira" />
			<input>
				<port id="0" precision="FP32">
					<dim>7</dim>
					<dim>4</dim>
					<dim>2</dim>
					<dim>1</dim>
				</port>
				<port id="1" precision="FP32">
					<dim>64</dim>
					<dim>2</dim>
					<dim>1</dim>
				</port>
			</input>
			<output>
				<port id="2" precision="FP32">
					<dim>4</dim>
					<dim>64</dim>
					<dim>7</dim>
				</port>
			</output>
		</layer>
		<layer id="62" name="model/ttl/sequential/tt_dense_0/t3f_matmul/Reshape_1/shape" type="Const" version="opset1">
			<data element_type="i32" shape="3" offset="16244" size="12" />
			<rt_info>
				<attribute name="precise" version="0" />
			</rt_info>
			<output>
				<port id="0" precision="I32">
					<dim>3</dim>
				</port>
			</output>
		</layer>
		<layer id="63" name="model/ttl/sequential/tt_dense_0/t3f_matmul/Reshape_1" type="Reshape" version="opset1">
			<data special_zero="false" />
			<input>
				<port id="0" precision="FP32">
					<dim>4</dim>
					<dim>64</dim>
					<dim>7</dim>
				</port>
				<port id="1" precision="I32">
					<dim>3</dim>
				</port>
			</input>
			<output>
				<port id="2" precision="FP32">
					<dim>128</dim>
					<dim>2</dim>
					<dim>7</dim>
				</port>
			</output>
		</layer>
		<layer id="64" name="model/ttl/sequential/tt_dense_0/t3f_matmul/einsum_1/Einsum" type="Einsum" version="opset7">
			<data equation="aijb,rjb->ira" />
			<input>
				<port id="0" precision="FP32">
					<dim>16</dim>
					<dim>4</dim>
					<dim>2</dim>
					<dim>7</dim>
				</port>
				<port id="1" precision="FP32">
					<dim>128</dim>
					<dim>2</dim>
					<dim>7</dim>
				</port>
			</input>
			<output>
				<port id="2" precision="FP32">
					<dim>4</dim>
					<dim>128</dim>
					<dim>16</dim>
				</port>
			</output>
		</layer>
		<layer id="65" name="model/ttl/sequential/tt_dense_0/t3f_matmul/Reshape_2/shape" type="Const" version="opset1">
			<data element_type="i32" shape="3" offset="16256" size="12" />
			<rt_info>
				<attribute name="precise" version="0" />
			</rt_info>
			<output>
				<port id="0" precision="I32">
					<dim>3</dim>
				</port>
			</output>
		</layer>
		<layer id="66" name="model/ttl/sequential/tt_dense_0/t3f_matmul/Reshape_2" type="Reshape" version="opset1">
			<data special_zero="false" />
			<input>
				<port id="0" precision="FP32">
					<dim>4</dim>
					<dim>128</dim>
					<dim>16</dim>
				</port>
				<port id="1" precision="I32">
					<dim>3</dim>
				</port>
			</input>
			<output>
				<port id="2" precision="FP32">
					<dim>256</dim>
					<dim>2</dim>
					<dim>16</dim>
				</port>
			</output>
		</layer>
		<layer id="67" name="model/ttl/sequential/tt_dense_0/t3f_matmul/einsum_2/Einsum" type="Einsum" version="opset7">
			<data equation="aijb,rjb->ira" />
			<input>
				<port id="0" precision="FP32">
					<dim>16</dim>
					<dim>4</dim>
					<dim>2</dim>
					<dim>16</dim>
				</port>
				<port id="1" precision="FP32">
					<dim>256</dim>
					<dim>2</dim>
					<dim>16</dim>
				</port>
			</input>
			<output>
				<port id="2" precision="FP32">
					<dim>4</dim>
					<dim>256</dim>
					<dim>16</dim>
				</port>
			</output>
		</layer>
		<layer id="68" name="model/ttl/sequential/tt_dense_0/t3f_matmul/Reshape_3/shape" type="Const" version="opset1">
			<data element_type="i32" shape="3" offset="16256" size="12" />
			<rt_info>
				<attribute name="precise" version="0" />
			</rt_info>
			<output>
				<port id="0" precision="I32">
					<dim>3</dim>
				</port>
			</output>
		</layer>
		<layer id="69" name="model/ttl/sequential/tt_dense_0/t3f_matmul/Reshape_3" type="Reshape" version="opset1">
			<data special_zero="false" />
			<input>
				<port id="0" precision="FP32">
					<dim>4</dim>
					<dim>256</dim>
					<dim>16</dim>
				</port>
				<port id="1" precision="I32">
					<dim>3</dim>
				</port>
			</input>
			<output>
				<port id="2" precision="FP32">
					<dim>512</dim>
					<dim>2</dim>
					<dim>16</dim>
				</port>
			</output>
		</layer>
		<layer id="70" name="model/ttl/sequential/tt_dense_0/t3f_matmul/einsum_3/Einsum" type="Einsum" version="opset7">
			<data equation="aijb,rjb->ira" />
			<input>
				<port id="0" precision="FP32">
					<dim>16</dim>
					<dim>4</dim>
					<dim>2</dim>
					<dim>16</dim>
				</port>
				<port id="1" precision="FP32">
					<dim>512</dim>
					<dim>2</dim>
					<dim>16</dim>
				</port>
			</input>
			<output>
				<port id="2" precision="FP32">
					<dim>4</dim>
					<dim>512</dim>
					<dim>16</dim>
				</port>
			</output>
		</layer>
		<layer id="71" name="model/ttl/sequential/tt_dense_0/t3f_matmul/Reshape_4/shape" type="Const" version="opset1">
			<data element_type="i32" shape="3" offset="16256" size="12" />
			<rt_info>
				<attribute name="precise" version="0" />
			</rt_info>
			<output>
				<port id="0" precision="I32">
					<dim>3</dim>
				</port>
			</output>
		</layer>
		<layer id="72" name="model/ttl/sequential/tt_dense_0/t3f_matmul/Reshape_4" type="Reshape" version="opset1">
			<data special_zero="false" />
			<input>
				<port id="0" precision="FP32">
					<dim>4</dim>
					<dim>512</dim>
					<dim>16</dim>
				</port>
				<port id="1" precision="I32">
					<dim>3</dim>
				</port>
			</input>
			<output>
				<port id="2" precision="FP32">
					<dim>1024</dim>
					<dim>2</dim>
					<dim>16</dim>
				</port>
			</output>
		</layer>
		<layer id="73" name="model/ttl/sequential/tt_dense_0/t3f_matmul/einsum_4/Einsum" type="Einsum" version="opset7">
			<data equation="aijb,rjb->ira" />
			<input>
				<port id="0" precision="FP32">
					<dim>16</dim>
					<dim>4</dim>
					<dim>2</dim>
					<dim>16</dim>
				</port>
				<port id="1" precision="FP32">
					<dim>1024</dim>
					<dim>2</dim>
					<dim>16</dim>
				</port>
			</input>
			<output>
				<port id="2" precision="FP32">
					<dim>4</dim>
					<dim>1024</dim>
					<dim>16</dim>
				</port>
			</output>
		</layer>
		<layer id="74" name="model/ttl/sequential/tt_dense_0/t3f_matmul/Reshape_5/shape" type="Const" version="opset1">
			<data element_type="i32" shape="3" offset="16256" size="12" />
			<rt_info>
				<attribute name="precise" version="0" />
			</rt_info>
			<output>
				<port id="0" precision="I32">
					<dim>3</dim>
				</port>
			</output>
		</layer>
		<layer id="75" name="model/ttl/sequential/tt_dense_0/t3f_matmul/Reshape_5" type="Reshape" version="opset1">
			<data special_zero="false" />
			<input>
				<port id="0" precision="FP32">
					<dim>4</dim>
					<dim>1024</dim>
					<dim>16</dim>
				</port>
				<port id="1" precision="I32">
					<dim>3</dim>
				</port>
			</input>
			<output>
				<port id="2" precision="FP32">
					<dim>2048</dim>
					<dim>2</dim>
					<dim>16</dim>
				</port>
			</output>
		</layer>
		<layer id="76" name="model/ttl/sequential/tt_dense_0/t3f_matmul/einsum_5/Einsum" type="Einsum" version="opset7">
			<data equation="aijb,rjb->ira" />
			<input>
				<port id="0" precision="FP32">
					<dim>7</dim>
					<dim>4</dim>
					<dim>2</dim>
					<dim>16</dim>
				</port>
				<port id="1" precision="FP32">
					<dim>2048</dim>
					<dim>2</dim>
					<dim>16</dim>
				</port>
			</input>
			<output>
				<port id="2" precision="FP32">
					<dim>4</dim>
					<dim>2048</dim>
					<dim>7</dim>
				</port>
			</output>
		</layer>
		<layer id="77" name="model/ttl/sequential/tt_dense_0/t3f_matmul/Reshape_6/shape" type="Const" version="opset1">
			<data element_type="i32" shape="3" offset="16244" size="12" />
			<rt_info>
				<attribute name="precise" version="0" />
			</rt_info>
			<output>
				<port id="0" precision="I32">
					<dim>3</dim>
				</port>
			</output>
		</layer>
		<layer id="78" name="model/ttl/sequential/tt_dense_0/t3f_matmul/Reshape_6" type="Reshape" version="opset1">
			<data special_zero="false" />
			<input>
				<port id="0" precision="FP32">
					<dim>4</dim>
					<dim>2048</dim>
					<dim>7</dim>
				</port>
				<port id="1" precision="I32">
					<dim>3</dim>
				</port>
			</input>
			<output>
				<port id="2" precision="FP32">
					<dim>4096</dim>
					<dim>2</dim>
					<dim>7</dim>
				</port>
			</output>
		</layer>
		<layer id="79" name="model/ttl/sequential/tt_dense_0/t3f_matmul/einsum_6/Einsum" type="Einsum" version="opset7">
			<data equation="aijb,rjb->ira" />
			<input>
				<port id="0" precision="FP32">
					<dim>1</dim>
					<dim>4</dim>
					<dim>2</dim>
					<dim>7</dim>
				</port>
				<port id="1" precision="FP32">
					<dim>4096</dim>
					<dim>2</dim>
					<dim>7</dim>
				</port>
			</input>
			<output>
				<port id="2" precision="FP32">
					<dim>4</dim>
					<dim>4096</dim>
					<dim>1</dim>
				</port>
			</output>
		</layer>
		<layer id="80" name="model/ttl/sequential/reshape/Reshape/shape" type="Const" version="opset1">
			<data element_type="i32" shape="3" offset="16268" size="12" />
			<rt_info>
				<attribute name="precise" version="0" />
			</rt_info>
			<output>
				<port id="0" precision="I32">
					<dim>3</dim>
				</port>
			</output>
		</layer>
		<layer id="81" name="model/ttl/sequential/reshape/Reshape" type="Reshape" version="opset1">
			<data special_zero="false" />
			<input>
				<port id="0" precision="FP32">
					<dim>4</dim>
					<dim>4096</dim>
					<dim>1</dim>
				</port>
				<port id="1" precision="I32">
					<dim>3</dim>
				</port>
			</input>
			<output>
				<port id="2" precision="FP32">
					<dim>1</dim>
					<dim>256</dim>
					<dim>64</dim>
				</port>
			</output>
		</layer>
		<layer id="82" name="Transpose_17723_compressed" type="Const" version="opset1">
			<data element_type="f16" shape="30, 3" offset="16280" size="180" />
			<output>
				<port id="0" precision="FP16">
					<dim>30</dim>
					<dim>3</dim>
				</port>
			</output>
		</layer>
		<layer id="83" name="Transpose_17723" type="Convert" version="opset1">
			<data destination_type="f32" />
			<rt_info>
				<attribute name="decompression" version="0" />
			</rt_info>
			<input>
				<port id="0" precision="FP16">
					<dim>30</dim>
					<dim>3</dim>
				</port>
			</input>
			<output>
				<port id="1" precision="FP32">
					<dim>30</dim>
					<dim>3</dim>
				</port>
			</output>
		</layer>
		<layer id="84" name="model/softmax_embedding_layer/dense/MatMul" type="MatMul" version="opset1">
			<data transpose_a="false" transpose_b="true" />
			<input>
				<port id="0" precision="FP32">
					<dim>1</dim>
					<dim>3</dim>
				</port>
				<port id="1" precision="FP32">
					<dim>30</dim>
					<dim>3</dim>
				</port>
			</input>
			<output>
				<port id="2" precision="FP32">
					<dim>1</dim>
					<dim>30</dim>
				</port>
			</output>
		</layer>
		<layer id="85" name="Constant_18489_compressed" type="Const" version="opset1">
			<data element_type="f16" shape="1, 30" offset="16460" size="60" />
			<output>
				<port id="0" precision="FP16">
					<dim>1</dim>
					<dim>30</dim>
				</port>
			</output>
		</layer>
		<layer id="86" name="Constant_18489" type="Convert" version="opset1">
			<data destination_type="f32" />
			<rt_info>
				<attribute name="decompression" version="0" />
			</rt_info>
			<input>
				<port id="0" precision="FP16">
					<dim>1</dim>
					<dim>30</dim>
				</port>
			</input>
			<output>
				<port id="1" precision="FP32">
					<dim>1</dim>
					<dim>30</dim>
				</port>
			</output>
		</layer>
		<layer id="87" name="model/softmax_embedding_layer/dense/BiasAdd" type="Add" version="opset1">
			<data auto_broadcast="numpy" />
			<input>
				<port id="0" precision="FP32">
					<dim>1</dim>
					<dim>30</dim>
				</port>
				<port id="1" precision="FP32">
					<dim>1</dim>
					<dim>30</dim>
				</port>
			</input>
			<output>
				<port id="2" precision="FP32">
					<dim>1</dim>
					<dim>30</dim>
				</port>
			</output>
		</layer>
		<layer id="88" name="model/softmax_embedding_layer/dense/Relu" type="ReLU" version="opset1">
			<input>
				<port id="0" precision="FP32">
					<dim>1</dim>
					<dim>30</dim>
				</port>
			</input>
			<output>
				<port id="1" precision="FP32">
					<dim>1</dim>
					<dim>30</dim>
				</port>
			</output>
		</layer>
		<layer id="89" name="Transpose_17726_compressed" type="Const" version="opset1">
			<data element_type="f16" shape="30, 30" offset="16520" size="1800" />
			<output>
				<port id="0" precision="FP16">
					<dim>30</dim>
					<dim>30</dim>
				</port>
			</output>
		</layer>
		<layer id="90" name="Transpose_17726" type="Convert" version="opset1">
			<data destination_type="f32" />
			<rt_info>
				<attribute name="decompression" version="0" />
			</rt_info>
			<input>
				<port id="0" precision="FP16">
					<dim>30</dim>
					<dim>30</dim>
				</port>
			</input>
			<output>
				<port id="1" precision="FP32">
					<dim>30</dim>
					<dim>30</dim>
				</port>
			</output>
		</layer>
		<layer id="91" name="model/softmax_embedding_layer/dense_1/MatMul" type="MatMul" version="opset1">
			<data transpose_a="false" transpose_b="true" />
			<input>
				<port id="0" precision="FP32">
					<dim>1</dim>
					<dim>30</dim>
				</port>
				<port id="1" precision="FP32">
					<dim>30</dim>
					<dim>30</dim>
				</port>
			</input>
			<output>
				<port id="2" precision="FP32">
					<dim>1</dim>
					<dim>30</dim>
				</port>
			</output>
		</layer>
		<layer id="92" name="Constant_18490_compressed" type="Const" version="opset1">
			<data element_type="f16" shape="1, 30" offset="18320" size="60" />
			<output>
				<port id="0" precision="FP16">
					<dim>1</dim>
					<dim>30</dim>
				</port>
			</output>
		</layer>
		<layer id="93" name="Constant_18490" type="Convert" version="opset1">
			<data destination_type="f32" />
			<rt_info>
				<attribute name="decompression" version="0" />
			</rt_info>
			<input>
				<port id="0" precision="FP16">
					<dim>1</dim>
					<dim>30</dim>
				</port>
			</input>
			<output>
				<port id="1" precision="FP32">
					<dim>1</dim>
					<dim>30</dim>
				</port>
			</output>
		</layer>
		<layer id="94" name="model/softmax_embedding_layer/dense_1/BiasAdd" type="Add" version="opset1">
			<data auto_broadcast="numpy" />
			<input>
				<port id="0" precision="FP32">
					<dim>1</dim>
					<dim>30</dim>
				</port>
				<port id="1" precision="FP32">
					<dim>1</dim>
					<dim>30</dim>
				</port>
			</input>
			<output>
				<port id="2" precision="FP32">
					<dim>1</dim>
					<dim>30</dim>
				</port>
			</output>
		</layer>
		<layer id="95" name="model/softmax_embedding_layer/dense_1/Relu" type="ReLU" version="opset1">
			<input>
				<port id="0" precision="FP32">
					<dim>1</dim>
					<dim>30</dim>
				</port>
			</input>
			<output>
				<port id="1" precision="FP32">
					<dim>1</dim>
					<dim>30</dim>
				</port>
			</output>
		</layer>
		<layer id="96" name="Transpose_17729_compressed" type="Const" version="opset1">
			<data element_type="f16" shape="30, 30" offset="18380" size="1800" />
			<output>
				<port id="0" precision="FP16">
					<dim>30</dim>
					<dim>30</dim>
				</port>
			</output>
		</layer>
		<layer id="97" name="Transpose_17729" type="Convert" version="opset1">
			<data destination_type="f32" />
			<rt_info>
				<attribute name="decompression" version="0" />
			</rt_info>
			<input>
				<port id="0" precision="FP16">
					<dim>30</dim>
					<dim>30</dim>
				</port>
			</input>
			<output>
				<port id="1" precision="FP32">
					<dim>30</dim>
					<dim>30</dim>
				</port>
			</output>
		</layer>
		<layer id="98" name="model/softmax_embedding_layer/dense_2/MatMul" type="MatMul" version="opset1">
			<data transpose_a="false" transpose_b="true" />
			<input>
				<port id="0" precision="FP32">
					<dim>1</dim>
					<dim>30</dim>
				</port>
				<port id="1" precision="FP32">
					<dim>30</dim>
					<dim>30</dim>
				</port>
			</input>
			<output>
				<port id="2" precision="FP32">
					<dim>1</dim>
					<dim>30</dim>
				</port>
			</output>
		</layer>
		<layer id="99" name="Constant_18491_compressed" type="Const" version="opset1">
			<data element_type="f16" shape="1, 30" offset="20180" size="60" />
			<output>
				<port id="0" precision="FP16">
					<dim>1</dim>
					<dim>30</dim>
				</port>
			</output>
		</layer>
		<layer id="100" name="Constant_18491" type="Convert" version="opset1">
			<data destination_type="f32" />
			<rt_info>
				<attribute name="decompression" version="0" />
			</rt_info>
			<input>
				<port id="0" precision="FP16">
					<dim>1</dim>
					<dim>30</dim>
				</port>
			</input>
			<output>
				<port id="1" precision="FP32">
					<dim>1</dim>
					<dim>30</dim>
				</port>
			</output>
		</layer>
		<layer id="101" name="model/softmax_embedding_layer/dense_2/BiasAdd" type="Add" version="opset1">
			<data auto_broadcast="numpy" />
			<input>
				<port id="0" precision="FP32">
					<dim>1</dim>
					<dim>30</dim>
				</port>
				<port id="1" precision="FP32">
					<dim>1</dim>
					<dim>30</dim>
				</port>
			</input>
			<output>
				<port id="2" precision="FP32">
					<dim>1</dim>
					<dim>30</dim>
				</port>
			</output>
		</layer>
		<layer id="102" name="model/softmax_embedding_layer/dense_2/Relu" type="ReLU" version="opset1">
			<input>
				<port id="0" precision="FP32">
					<dim>1</dim>
					<dim>30</dim>
				</port>
			</input>
			<output>
				<port id="1" precision="FP32">
					<dim>1</dim>
					<dim>30</dim>
				</port>
			</output>
		</layer>
		<layer id="103" name="Transpose_17732_compressed" type="Const" version="opset1">
			<data element_type="f16" shape="30, 30" offset="20240" size="1800" />
			<output>
				<port id="0" precision="FP16">
					<dim>30</dim>
					<dim>30</dim>
				</port>
			</output>
		</layer>
		<layer id="104" name="Transpose_17732" type="Convert" version="opset1">
			<data destination_type="f32" />
			<rt_info>
				<attribute name="decompression" version="0" />
			</rt_info>
			<input>
				<port id="0" precision="FP16">
					<dim>30</dim>
					<dim>30</dim>
				</port>
			</input>
			<output>
				<port id="1" precision="FP32">
					<dim>30</dim>
					<dim>30</dim>
				</port>
			</output>
		</layer>
		<layer id="105" name="model/softmax_embedding_layer/dense_3/MatMul" type="MatMul" version="opset1">
			<data transpose_a="false" transpose_b="true" />
			<input>
				<port id="0" precision="FP32">
					<dim>1</dim>
					<dim>30</dim>
				</port>
				<port id="1" precision="FP32">
					<dim>30</dim>
					<dim>30</dim>
				</port>
			</input>
			<output>
				<port id="2" precision="FP32">
					<dim>1</dim>
					<dim>30</dim>
				</port>
			</output>
		</layer>
		<layer id="106" name="Constant_18492_compressed" type="Const" version="opset1">
			<data element_type="f16" shape="1, 30" offset="22040" size="60" />
			<output>
				<port id="0" precision="FP16">
					<dim>1</dim>
					<dim>30</dim>
				</port>
			</output>
		</layer>
		<layer id="107" name="Constant_18492" type="Convert" version="opset1">
			<data destination_type="f32" />
			<rt_info>
				<attribute name="decompression" version="0" />
			</rt_info>
			<input>
				<port id="0" precision="FP16">
					<dim>1</dim>
					<dim>30</dim>
				</port>
			</input>
			<output>
				<port id="1" precision="FP32">
					<dim>1</dim>
					<dim>30</dim>
				</port>
			</output>
		</layer>
		<layer id="108" name="model/softmax_embedding_layer/dense_3/BiasAdd" type="Add" version="opset1">
			<data auto_broadcast="numpy" />
			<input>
				<port id="0" precision="FP32">
					<dim>1</dim>
					<dim>30</dim>
				</port>
				<port id="1" precision="FP32">
					<dim>1</dim>
					<dim>30</dim>
				</port>
			</input>
			<output>
				<port id="2" precision="FP32">
					<dim>1</dim>
					<dim>30</dim>
				</port>
			</output>
		</layer>
		<layer id="109" name="model/softmax_embedding_layer/dense_3/Relu" type="ReLU" version="opset1">
			<input>
				<port id="0" precision="FP32">
					<dim>1</dim>
					<dim>30</dim>
				</port>
			</input>
			<output>
				<port id="1" precision="FP32">
					<dim>1</dim>
					<dim>30</dim>
				</port>
			</output>
		</layer>
		<layer id="110" name="Transpose_17735_compressed" type="Const" version="opset1">
			<data element_type="f16" shape="30, 30" offset="22100" size="1800" />
			<output>
				<port id="0" precision="FP16">
					<dim>30</dim>
					<dim>30</dim>
				</port>
			</output>
		</layer>
		<layer id="111" name="Transpose_17735" type="Convert" version="opset1">
			<data destination_type="f32" />
			<rt_info>
				<attribute name="decompression" version="0" />
			</rt_info>
			<input>
				<port id="0" precision="FP16">
					<dim>30</dim>
					<dim>30</dim>
				</port>
			</input>
			<output>
				<port id="1" precision="FP32">
					<dim>30</dim>
					<dim>30</dim>
				</port>
			</output>
		</layer>
		<layer id="112" name="model/softmax_embedding_layer/dense_4/MatMul" type="MatMul" version="opset1">
			<data transpose_a="false" transpose_b="true" />
			<input>
				<port id="0" precision="FP32">
					<dim>1</dim>
					<dim>30</dim>
				</port>
				<port id="1" precision="FP32">
					<dim>30</dim>
					<dim>30</dim>
				</port>
			</input>
			<output>
				<port id="2" precision="FP32">
					<dim>1</dim>
					<dim>30</dim>
				</port>
			</output>
		</layer>
		<layer id="113" name="Constant_18493_compressed" type="Const" version="opset1">
			<data element_type="f16" shape="1, 30" offset="23900" size="60" />
			<output>
				<port id="0" precision="FP16">
					<dim>1</dim>
					<dim>30</dim>
				</port>
			</output>
		</layer>
		<layer id="114" name="Constant_18493" type="Convert" version="opset1">
			<data destination_type="f32" />
			<rt_info>
				<attribute name="decompression" version="0" />
			</rt_info>
			<input>
				<port id="0" precision="FP16">
					<dim>1</dim>
					<dim>30</dim>
				</port>
			</input>
			<output>
				<port id="1" precision="FP32">
					<dim>1</dim>
					<dim>30</dim>
				</port>
			</output>
		</layer>
		<layer id="115" name="model/softmax_embedding_layer/dense_4/BiasAdd" type="Add" version="opset1">
			<data auto_broadcast="numpy" />
			<input>
				<port id="0" precision="FP32">
					<dim>1</dim>
					<dim>30</dim>
				</port>
				<port id="1" precision="FP32">
					<dim>1</dim>
					<dim>30</dim>
				</port>
			</input>
			<output>
				<port id="2" precision="FP32">
					<dim>1</dim>
					<dim>30</dim>
				</port>
			</output>
		</layer>
		<layer id="116" name="model/softmax_embedding_layer/dense_4/Relu" type="ReLU" version="opset1">
			<input>
				<port id="0" precision="FP32">
					<dim>1</dim>
					<dim>30</dim>
				</port>
			</input>
			<output>
				<port id="1" precision="FP32">
					<dim>1</dim>
					<dim>30</dim>
				</port>
			</output>
		</layer>
		<layer id="117" name="Transpose_17738_compressed" type="Const" version="opset1">
			<data element_type="f16" shape="30, 30" offset="23960" size="1800" />
			<output>
				<port id="0" precision="FP16">
					<dim>30</dim>
					<dim>30</dim>
				</port>
			</output>
		</layer>
		<layer id="118" name="Transpose_17738" type="Convert" version="opset1">
			<data destination_type="f32" />
			<rt_info>
				<attribute name="decompression" version="0" />
			</rt_info>
			<input>
				<port id="0" precision="FP16">
					<dim>30</dim>
					<dim>30</dim>
				</port>
			</input>
			<output>
				<port id="1" precision="FP32">
					<dim>30</dim>
					<dim>30</dim>
				</port>
			</output>
		</layer>
		<layer id="119" name="model/softmax_embedding_layer/dense_5/MatMul" type="MatMul" version="opset1">
			<data transpose_a="false" transpose_b="true" />
			<input>
				<port id="0" precision="FP32">
					<dim>1</dim>
					<dim>30</dim>
				</port>
				<port id="1" precision="FP32">
					<dim>30</dim>
					<dim>30</dim>
				</port>
			</input>
			<output>
				<port id="2" precision="FP32">
					<dim>1</dim>
					<dim>30</dim>
				</port>
			</output>
		</layer>
		<layer id="120" name="Constant_18494_compressed" type="Const" version="opset1">
			<data element_type="f16" shape="1, 30" offset="25760" size="60" />
			<output>
				<port id="0" precision="FP16">
					<dim>1</dim>
					<dim>30</dim>
				</port>
			</output>
		</layer>
		<layer id="121" name="Constant_18494" type="Convert" version="opset1">
			<data destination_type="f32" />
			<rt_info>
				<attribute name="decompression" version="0" />
			</rt_info>
			<input>
				<port id="0" precision="FP16">
					<dim>1</dim>
					<dim>30</dim>
				</port>
			</input>
			<output>
				<port id="1" precision="FP32">
					<dim>1</dim>
					<dim>30</dim>
				</port>
			</output>
		</layer>
		<layer id="122" name="model/softmax_embedding_layer/dense_5/BiasAdd" type="Add" version="opset1">
			<data auto_broadcast="numpy" />
			<input>
				<port id="0" precision="FP32">
					<dim>1</dim>
					<dim>30</dim>
				</port>
				<port id="1" precision="FP32">
					<dim>1</dim>
					<dim>30</dim>
				</port>
			</input>
			<output>
				<port id="2" precision="FP32">
					<dim>1</dim>
					<dim>30</dim>
				</port>
			</output>
		</layer>
		<layer id="123" name="model/softmax_embedding_layer/dense_5/Relu" type="ReLU" version="opset1">
			<input>
				<port id="0" precision="FP32">
					<dim>1</dim>
					<dim>30</dim>
				</port>
			</input>
			<output>
				<port id="1" precision="FP32">
					<dim>1</dim>
					<dim>30</dim>
				</port>
			</output>
		</layer>
		<layer id="124" name="Transpose_17741_compressed" type="Const" version="opset1">
			<data element_type="f16" shape="30, 30" offset="25820" size="1800" />
			<output>
				<port id="0" precision="FP16">
					<dim>30</dim>
					<dim>30</dim>
				</port>
			</output>
		</layer>
		<layer id="125" name="Transpose_17741" type="Convert" version="opset1">
			<data destination_type="f32" />
			<rt_info>
				<attribute name="decompression" version="0" />
			</rt_info>
			<input>
				<port id="0" precision="FP16">
					<dim>30</dim>
					<dim>30</dim>
				</port>
			</input>
			<output>
				<port id="1" precision="FP32">
					<dim>30</dim>
					<dim>30</dim>
				</port>
			</output>
		</layer>
		<layer id="126" name="model/softmax_embedding_layer/dense_6/MatMul" type="MatMul" version="opset1">
			<data transpose_a="false" transpose_b="true" />
			<input>
				<port id="0" precision="FP32">
					<dim>1</dim>
					<dim>30</dim>
				</port>
				<port id="1" precision="FP32">
					<dim>30</dim>
					<dim>30</dim>
				</port>
			</input>
			<output>
				<port id="2" precision="FP32">
					<dim>1</dim>
					<dim>30</dim>
				</port>
			</output>
		</layer>
		<layer id="127" name="Constant_18495_compressed" type="Const" version="opset1">
			<data element_type="f16" shape="1, 30" offset="27620" size="60" />
			<output>
				<port id="0" precision="FP16">
					<dim>1</dim>
					<dim>30</dim>
				</port>
			</output>
		</layer>
		<layer id="128" name="Constant_18495" type="Convert" version="opset1">
			<data destination_type="f32" />
			<rt_info>
				<attribute name="decompression" version="0" />
			</rt_info>
			<input>
				<port id="0" precision="FP16">
					<dim>1</dim>
					<dim>30</dim>
				</port>
			</input>
			<output>
				<port id="1" precision="FP32">
					<dim>1</dim>
					<dim>30</dim>
				</port>
			</output>
		</layer>
		<layer id="129" name="model/softmax_embedding_layer/dense_6/BiasAdd" type="Add" version="opset1">
			<data auto_broadcast="numpy" />
			<input>
				<port id="0" precision="FP32">
					<dim>1</dim>
					<dim>30</dim>
				</port>
				<port id="1" precision="FP32">
					<dim>1</dim>
					<dim>30</dim>
				</port>
			</input>
			<output>
				<port id="2" precision="FP32">
					<dim>1</dim>
					<dim>30</dim>
				</port>
			</output>
		</layer>
		<layer id="130" name="model/softmax_embedding_layer/dense_6/Relu" type="ReLU" version="opset1">
			<input>
				<port id="0" precision="FP32">
					<dim>1</dim>
					<dim>30</dim>
				</port>
			</input>
			<output>
				<port id="1" precision="FP32">
					<dim>1</dim>
					<dim>30</dim>
				</port>
			</output>
		</layer>
		<layer id="131" name="Transpose_17744_compressed" type="Const" version="opset1">
			<data element_type="f16" shape="30, 30" offset="27680" size="1800" />
			<output>
				<port id="0" precision="FP16">
					<dim>30</dim>
					<dim>30</dim>
				</port>
			</output>
		</layer>
		<layer id="132" name="Transpose_17744" type="Convert" version="opset1">
			<data destination_type="f32" />
			<rt_info>
				<attribute name="decompression" version="0" />
			</rt_info>
			<input>
				<port id="0" precision="FP16">
					<dim>30</dim>
					<dim>30</dim>
				</port>
			</input>
			<output>
				<port id="1" precision="FP32">
					<dim>30</dim>
					<dim>30</dim>
				</port>
			</output>
		</layer>
		<layer id="133" name="model/softmax_embedding_layer/dense_7/MatMul" type="MatMul" version="opset1">
			<data transpose_a="false" transpose_b="true" />
			<input>
				<port id="0" precision="FP32">
					<dim>1</dim>
					<dim>30</dim>
				</port>
				<port id="1" precision="FP32">
					<dim>30</dim>
					<dim>30</dim>
				</port>
			</input>
			<output>
				<port id="2" precision="FP32">
					<dim>1</dim>
					<dim>30</dim>
				</port>
			</output>
		</layer>
		<layer id="134" name="Constant_18496_compressed" type="Const" version="opset1">
			<data element_type="f16" shape="1, 30" offset="29480" size="60" />
			<output>
				<port id="0" precision="FP16">
					<dim>1</dim>
					<dim>30</dim>
				</port>
			</output>
		</layer>
		<layer id="135" name="Constant_18496" type="Convert" version="opset1">
			<data destination_type="f32" />
			<rt_info>
				<attribute name="decompression" version="0" />
			</rt_info>
			<input>
				<port id="0" precision="FP16">
					<dim>1</dim>
					<dim>30</dim>
				</port>
			</input>
			<output>
				<port id="1" precision="FP32">
					<dim>1</dim>
					<dim>30</dim>
				</port>
			</output>
		</layer>
		<layer id="136" name="model/softmax_embedding_layer/dense_7/BiasAdd" type="Add" version="opset1">
			<data auto_broadcast="numpy" />
			<input>
				<port id="0" precision="FP32">
					<dim>1</dim>
					<dim>30</dim>
				</port>
				<port id="1" precision="FP32">
					<dim>1</dim>
					<dim>30</dim>
				</port>
			</input>
			<output>
				<port id="2" precision="FP32">
					<dim>1</dim>
					<dim>30</dim>
				</port>
			</output>
		</layer>
		<layer id="137" name="model/softmax_embedding_layer/dense_7/Relu" type="ReLU" version="opset1">
			<input>
				<port id="0" precision="FP32">
					<dim>1</dim>
					<dim>30</dim>
				</port>
			</input>
			<output>
				<port id="1" precision="FP32">
					<dim>1</dim>
					<dim>30</dim>
				</port>
			</output>
		</layer>
		<layer id="138" name="Transpose_17747_compressed" type="Const" version="opset1">
			<data element_type="f16" shape="20, 30" offset="29540" size="1200" />
			<output>
				<port id="0" precision="FP16">
					<dim>20</dim>
					<dim>30</dim>
				</port>
			</output>
		</layer>
		<layer id="139" name="Transpose_17747" type="Convert" version="opset1">
			<data destination_type="f32" />
			<rt_info>
				<attribute name="decompression" version="0" />
			</rt_info>
			<input>
				<port id="0" precision="FP16">
					<dim>20</dim>
					<dim>30</dim>
				</port>
			</input>
			<output>
				<port id="1" precision="FP32">
					<dim>20</dim>
					<dim>30</dim>
				</port>
			</output>
		</layer>
		<layer id="140" name="model/softmax_embedding_layer/dense_8/MatMul" type="MatMul" version="opset1">
			<data transpose_a="false" transpose_b="true" />
			<input>
				<port id="0" precision="FP32">
					<dim>1</dim>
					<dim>30</dim>
				</port>
				<port id="1" precision="FP32">
					<dim>20</dim>
					<dim>30</dim>
				</port>
			</input>
			<output>
				<port id="2" precision="FP32">
					<dim>1</dim>
					<dim>20</dim>
				</port>
			</output>
		</layer>
		<layer id="141" name="Constant_18497_compressed" type="Const" version="opset1">
			<data element_type="f16" shape="1, 20" offset="30740" size="40" />
			<output>
				<port id="0" precision="FP16">
					<dim>1</dim>
					<dim>20</dim>
				</port>
			</output>
		</layer>
		<layer id="142" name="Constant_18497" type="Convert" version="opset1">
			<data destination_type="f32" />
			<rt_info>
				<attribute name="decompression" version="0" />
			</rt_info>
			<input>
				<port id="0" precision="FP16">
					<dim>1</dim>
					<dim>20</dim>
				</port>
			</input>
			<output>
				<port id="1" precision="FP32">
					<dim>1</dim>
					<dim>20</dim>
				</port>
			</output>
		</layer>
		<layer id="143" name="model/softmax_embedding_layer/dense_8/BiasAdd" type="Add" version="opset1">
			<data auto_broadcast="numpy" />
			<input>
				<port id="0" precision="FP32">
					<dim>1</dim>
					<dim>20</dim>
				</port>
				<port id="1" precision="FP32">
					<dim>1</dim>
					<dim>20</dim>
				</port>
			</input>
			<output>
				<port id="2" precision="FP32">
					<dim>1</dim>
					<dim>20</dim>
				</port>
			</output>
		</layer>
		<layer id="144" name="model/softmax_embedding_layer/Softmax" type="SoftMax" version="opset8">
			<data axis="-1" />
			<input>
				<port id="0" precision="FP32">
					<dim>1</dim>
					<dim>20</dim>
				</port>
			</input>
			<output>
				<port id="1" precision="FP32">
					<dim>1</dim>
					<dim>20</dim>
				</port>
			</output>
		</layer>
		<layer id="145" name="model/tf.__operators__.getitem/strided_slice/stack" type="Const" version="opset1">
			<data element_type="i32" shape="4" offset="30780" size="16" />
			<rt_info>
				<attribute name="precise" version="0" />
			</rt_info>
			<output>
				<port id="0" precision="I32">
					<dim>4</dim>
				</port>
			</output>
		</layer>
		<layer id="146" name="model/tf.__operators__.getitem/strided_slice/stack_1" type="Const" version="opset1">
			<data element_type="i32" shape="4" offset="30780" size="16" />
			<rt_info>
				<attribute name="precise" version="0" />
			</rt_info>
			<output>
				<port id="0" precision="I32">
					<dim>4</dim>
				</port>
			</output>
		</layer>
		<layer id="147" name="model/tf.__operators__.getitem/strided_slice/stack_2" type="Const" version="opset1">
			<data element_type="i32" shape="4" offset="30796" size="16" />
			<rt_info>
				<attribute name="precise" version="0" />
			</rt_info>
			<output>
				<port id="0" precision="I32">
					<dim>4</dim>
				</port>
			</output>
		</layer>
		<layer id="148" name="model/tf.__operators__.getitem/strided_slice" type="StridedSlice" version="opset1">
			<data begin_mask="1, 0, 0, 1" end_mask="1, 0, 0, 1" new_axis_mask="0, 1, 1, 0" shrink_axis_mask="0, 0, 0, 0" ellipsis_mask="0, 0, 0, 0" />
			<input>
				<port id="0" precision="FP32">
					<dim>1</dim>
					<dim>20</dim>
				</port>
				<port id="1" precision="I32">
					<dim>4</dim>
				</port>
				<port id="2" precision="I32">
					<dim>4</dim>
				</port>
				<port id="3" precision="I32">
					<dim>4</dim>
				</port>
			</input>
			<output>
				<port id="4" precision="FP32">
					<dim>1</dim>
					<dim>1</dim>
					<dim>1</dim>
					<dim>20</dim>
				</port>
			</output>
		</layer>
		<layer id="149" name="model/tf.__operators__.getitem_1/strided_slice/stack" type="Const" version="opset1">
			<data element_type="i32" shape="2" offset="30812" size="8" />
			<rt_info>
				<attribute name="precise" version="0" />
			</rt_info>
			<output>
				<port id="0" precision="I32">
					<dim>2</dim>
				</port>
			</output>
		</layer>
		<layer id="150" name="model/tf.__operators__.getitem_1/strided_slice/stack_1" type="Const" version="opset1">
			<data element_type="i32" shape="2" offset="30820" size="8" />
			<rt_info>
				<attribute name="precise" version="0" />
			</rt_info>
			<output>
				<port id="0" precision="I32">
					<dim>2</dim>
				</port>
			</output>
		</layer>
		<layer id="151" name="model/tf.__operators__.getitem_1/strided_slice/stack_2" type="Const" version="opset1">
			<data element_type="i32" shape="2" offset="30828" size="8" />
			<rt_info>
				<attribute name="precise" version="0" />
			</rt_info>
			<output>
				<port id="0" precision="I32">
					<dim>2</dim>
				</port>
			</output>
		</layer>
		<layer id="152" name="model/tf.__operators__.getitem_1/strided_slice" type="StridedSlice" version="opset1">
			<data begin_mask="0, 0" end_mask="0, 0" new_axis_mask="0, 0" shrink_axis_mask="0, 1" ellipsis_mask="1, 0" />
			<input>
				<port id="0" precision="FP32">
					<dim>1</dim>
					<dim>1</dim>
					<dim>1</dim>
					<dim>20</dim>
				</port>
				<port id="1" precision="I32">
					<dim>2</dim>
				</port>
				<port id="2" precision="I32">
					<dim>2</dim>
				</port>
				<port id="3" precision="I32">
					<dim>2</dim>
				</port>
			</input>
			<output>
				<port id="4" precision="FP32">
					<dim>1</dim>
					<dim>1</dim>
					<dim>1</dim>
				</port>
			</output>
		</layer>
		<layer id="153" name="model/multiply/mul" type="Multiply" version="opset1">
			<data auto_broadcast="numpy" />
			<input>
				<port id="0" precision="FP32">
					<dim>1</dim>
					<dim>256</dim>
					<dim>64</dim>
				</port>
				<port id="1" precision="FP32">
					<dim>1</dim>
					<dim>1</dim>
					<dim>1</dim>
				</port>
			</input>
			<output>
				<port id="2" precision="FP32">
					<dim>1</dim>
					<dim>256</dim>
					<dim>64</dim>
				</port>
			</output>
		</layer>
		<layer id="154" name="model/ttl_1/sequential_1/tt_dense_1/t3f_matmul/t3f_transpose/transpose_compressed" type="Const" version="opset1">
			<data element_type="f16" shape="1, 4, 2, 7" offset="30836" size="112" />
			<output>
				<port id="0" precision="FP16">
					<dim>1</dim>
					<dim>4</dim>
					<dim>2</dim>
					<dim>7</dim>
				</port>
			</output>
		</layer>
		<layer id="155" name="model/ttl_1/sequential_1/tt_dense_1/t3f_matmul/t3f_transpose/transpose" type="Convert" version="opset1">
			<data destination_type="f32" />
			<rt_info>
				<attribute name="decompression" version="0" />
			</rt_info>
			<input>
				<port id="0" precision="FP16">
					<dim>1</dim>
					<dim>4</dim>
					<dim>2</dim>
					<dim>7</dim>
				</port>
			</input>
			<output>
				<port id="1" precision="FP32">
					<dim>1</dim>
					<dim>4</dim>
					<dim>2</dim>
					<dim>7</dim>
				</port>
			</output>
		</layer>
		<layer id="156" name="model/ttl_1/sequential_1/tt_dense_1/t3f_matmul/t3f_transpose/transpose_1_compressed" type="Const" version="opset1">
			<data element_type="f16" shape="7, 4, 2, 16" offset="30948" size="1792" />
			<output>
				<port id="0" precision="FP16">
					<dim>7</dim>
					<dim>4</dim>
					<dim>2</dim>
					<dim>16</dim>
				</port>
			</output>
		</layer>
		<layer id="157" name="model/ttl_1/sequential_1/tt_dense_1/t3f_matmul/t3f_transpose/transpose_1" type="Convert" version="opset1">
			<data destination_type="f32" />
			<rt_info>
				<attribute name="decompression" version="0" />
			</rt_info>
			<input>
				<port id="0" precision="FP16">
					<dim>7</dim>
					<dim>4</dim>
					<dim>2</dim>
					<dim>16</dim>
				</port>
			</input>
			<output>
				<port id="1" precision="FP32">
					<dim>7</dim>
					<dim>4</dim>
					<dim>2</dim>
					<dim>16</dim>
				</port>
			</output>
		</layer>
		<layer id="158" name="model/ttl_1/sequential_1/tt_dense_1/t3f_matmul/t3f_transpose/transpose_2_compressed" type="Const" version="opset1">
			<data element_type="f16" shape="16, 4, 2, 16" offset="32740" size="4096" />
			<output>
				<port id="0" precision="FP16">
					<dim>16</dim>
					<dim>4</dim>
					<dim>2</dim>
					<dim>16</dim>
				</port>
			</output>
		</layer>
		<layer id="159" name="model/ttl_1/sequential_1/tt_dense_1/t3f_matmul/t3f_transpose/transpose_2" type="Convert" version="opset1">
			<data destination_type="f32" />
			<rt_info>
				<attribute name="decompression" version="0" />
			</rt_info>
			<input>
				<port id="0" precision="FP16">
					<dim>16</dim>
					<dim>4</dim>
					<dim>2</dim>
					<dim>16</dim>
				</port>
			</input>
			<output>
				<port id="1" precision="FP32">
					<dim>16</dim>
					<dim>4</dim>
					<dim>2</dim>
					<dim>16</dim>
				</port>
			</output>
		</layer>
		<layer id="160" name="model/ttl_1/sequential_1/tt_dense_1/t3f_matmul/t3f_transpose/transpose_3_compressed" type="Const" version="opset1">
			<data element_type="f16" shape="16, 4, 2, 16" offset="36836" size="4096" />
			<output>
				<port id="0" precision="FP16">
					<dim>16</dim>
					<dim>4</dim>
					<dim>2</dim>
					<dim>16</dim>
				</port>
			</output>
		</layer>
		<layer id="161" name="model/ttl_1/sequential_1/tt_dense_1/t3f_matmul/t3f_transpose/transpose_3" type="Convert" version="opset1">
			<data destination_type="f32" />
			<rt_info>
				<attribute name="decompression" version="0" />
			</rt_info>
			<input>
				<port id="0" precision="FP16">
					<dim>16</dim>
					<dim>4</dim>
					<dim>2</dim>
					<dim>16</dim>
				</port>
			</input>
			<output>
				<port id="1" precision="FP32">
					<dim>16</dim>
					<dim>4</dim>
					<dim>2</dim>
					<dim>16</dim>
				</port>
			</output>
		</layer>
		<layer id="162" name="model/ttl_1/sequential_1/tt_dense_1/t3f_matmul/t3f_transpose/transpose_4_compressed" type="Const" version="opset1">
			<data element_type="f16" shape="16, 4, 2, 16" offset="40932" size="4096" />
			<output>
				<port id="0" precision="FP16">
					<dim>16</dim>
					<dim>4</dim>
					<dim>2</dim>
					<dim>16</dim>
				</port>
			</output>
		</layer>
		<layer id="163" name="model/ttl_1/sequential_1/tt_dense_1/t3f_matmul/t3f_transpose/transpose_4" type="Convert" version="opset1">
			<data destination_type="f32" />
			<rt_info>
				<attribute name="decompression" version="0" />
			</rt_info>
			<input>
				<port id="0" precision="FP16">
					<dim>16</dim>
					<dim>4</dim>
					<dim>2</dim>
					<dim>16</dim>
				</port>
			</input>
			<output>
				<port id="1" precision="FP32">
					<dim>16</dim>
					<dim>4</dim>
					<dim>2</dim>
					<dim>16</dim>
				</port>
			</output>
		</layer>
		<layer id="164" name="model/ttl_1/sequential_1/tt_dense_1/t3f_matmul/t3f_transpose/transpose_5_compressed" type="Const" version="opset1">
			<data element_type="f16" shape="16, 4, 2, 7" offset="45028" size="1792" />
			<output>
				<port id="0" precision="FP16">
					<dim>16</dim>
					<dim>4</dim>
					<dim>2</dim>
					<dim>7</dim>
				</port>
			</output>
		</layer>
		<layer id="165" name="model/ttl_1/sequential_1/tt_dense_1/t3f_matmul/t3f_transpose/transpose_5" type="Convert" version="opset1">
			<data destination_type="f32" />
			<rt_info>
				<attribute name="decompression" version="0" />
			</rt_info>
			<input>
				<port id="0" precision="FP16">
					<dim>16</dim>
					<dim>4</dim>
					<dim>2</dim>
					<dim>7</dim>
				</port>
			</input>
			<output>
				<port id="1" precision="FP32">
					<dim>16</dim>
					<dim>4</dim>
					<dim>2</dim>
					<dim>7</dim>
				</port>
			</output>
		</layer>
		<layer id="166" name="model/ttl_1/sequential_1/tt_dense_1/t3f_matmul/t3f_transpose/transpose_6_compressed" type="Const" version="opset1">
			<data element_type="f16" shape="7, 4, 2, 1" offset="46820" size="112" />
			<output>
				<port id="0" precision="FP16">
					<dim>7</dim>
					<dim>4</dim>
					<dim>2</dim>
					<dim>1</dim>
				</port>
			</output>
		</layer>
		<layer id="167" name="model/ttl_1/sequential_1/tt_dense_1/t3f_matmul/t3f_transpose/transpose_6" type="Convert" version="opset1">
			<data destination_type="f32" />
			<rt_info>
				<attribute name="decompression" version="0" />
			</rt_info>
			<input>
				<port id="0" precision="FP16">
					<dim>7</dim>
					<dim>4</dim>
					<dim>2</dim>
					<dim>1</dim>
				</port>
			</input>
			<output>
				<port id="1" precision="FP32">
					<dim>7</dim>
					<dim>4</dim>
					<dim>2</dim>
					<dim>1</dim>
				</port>
			</output>
		</layer>
		<layer id="168" name="model/ttl_1/sequential_1/einsum_ttl_1/strided_slice/stack" type="Const" version="opset1">
			<data element_type="i32" shape="3" offset="16100" size="12" />
			<rt_info>
				<attribute name="precise" version="0" />
			</rt_info>
			<output>
				<port id="0" precision="I32">
					<dim>3</dim>
				</port>
			</output>
		</layer>
		<layer id="169" name="model/ttl_1/sequential_1/einsum_ttl_1/strided_slice/stack_1" type="Const" version="opset1">
			<data element_type="i32" shape="3" offset="16112" size="12" />
			<rt_info>
				<attribute name="precise" version="0" />
			</rt_info>
			<output>
				<port id="0" precision="I32">
					<dim>3</dim>
				</port>
			</output>
		</layer>
		<layer id="170" name="model/ttl_1/sequential_1/einsum_ttl_1/strided_slice/stack_2" type="Const" version="opset1">
			<data element_type="i32" shape="3" offset="16124" size="12" />
			<rt_info>
				<attribute name="precise" version="0" />
			</rt_info>
			<output>
				<port id="0" precision="I32">
					<dim>3</dim>
				</port>
			</output>
		</layer>
		<layer id="171" name="model/ttl_1/sequential_1/einsum_ttl_1/strided_slice" type="StridedSlice" version="opset1">
			<data begin_mask="1, 1, 1" end_mask="1, 0, 0" new_axis_mask="0, 0, 0" shrink_axis_mask="0, 0, 0" ellipsis_mask="0, 0, 0" />
			<input>
				<port id="0" precision="FP32">
					<dim>1</dim>
					<dim>128</dim>
					<dim>16</dim>
				</port>
				<port id="1" precision="I32">
					<dim>3</dim>
				</port>
				<port id="2" precision="I32">
					<dim>3</dim>
				</port>
				<port id="3" precision="I32">
					<dim>3</dim>
				</port>
			</input>
			<output>
				<port id="4" precision="FP32">
					<dim>1</dim>
					<dim>64</dim>
					<dim>8</dim>
				</port>
			</output>
		</layer>
		<layer id="172" name="model/ttl_1/sequential_1/einsum_ttl_1/strided_slice_1_compressed" type="Const" version="opset1">
			<data element_type="f16" shape="8" offset="46932" size="16" />
			<output>
				<port id="0" precision="FP16">
					<dim>8</dim>
				</port>
			</output>
		</layer>
		<layer id="173" name="model/ttl_1/sequential_1/einsum_ttl_1/strided_slice_1" type="Convert" version="opset1">
			<data destination_type="f32" />
			<rt_info>
				<attribute name="decompression" version="0" />
			</rt_info>
			<input>
				<port id="0" precision="FP16">
					<dim>8</dim>
				</port>
			</input>
			<output>
				<port id="1" precision="FP32">
					<dim>8</dim>
				</port>
			</output>
		</layer>
		<layer id="174" name="model/ttl_1/sequential_1/einsum_ttl_1/einsum/Einsum" type="Einsum" version="opset7">
			<data equation="abc,c->ab" />
			<input>
				<port id="0" precision="FP32">
					<dim>1</dim>
					<dim>64</dim>
					<dim>8</dim>
				</port>
				<port id="1" precision="FP32">
					<dim>8</dim>
				</port>
			</input>
			<output>
				<port id="2" precision="FP32">
					<dim>1</dim>
					<dim>64</dim>
				</port>
			</output>
		</layer>
		<layer id="175" name="model/ttl_1/sequential_1/einsum_ttl_1/strided_slice_2/stack" type="Const" version="opset1">
			<data element_type="i32" shape="3" offset="16152" size="12" />
			<rt_info>
				<attribute name="precise" version="0" />
			</rt_info>
			<output>
				<port id="0" precision="I32">
					<dim>3</dim>
				</port>
			</output>
		</layer>
		<layer id="176" name="model/ttl_1/sequential_1/einsum_ttl_1/strided_slice_2/stack_1" type="Const" version="opset1">
			<data element_type="i32" shape="3" offset="16164" size="12" />
			<rt_info>
				<attribute name="precise" version="0" />
			</rt_info>
			<output>
				<port id="0" precision="I32">
					<dim>3</dim>
				</port>
			</output>
		</layer>
		<layer id="177" name="model/ttl_1/sequential_1/einsum_ttl_1/strided_slice_2/stack_2" type="Const" version="opset1">
			<data element_type="i32" shape="3" offset="16124" size="12" />
			<rt_info>
				<attribute name="precise" version="0" />
			</rt_info>
			<output>
				<port id="0" precision="I32">
					<dim>3</dim>
				</port>
			</output>
		</layer>
		<layer id="178" name="model/ttl_1/sequential_1/einsum_ttl_1/strided_slice_2" type="StridedSlice" version="opset1">
			<data begin_mask="1, 1" end_mask="1, 0" new_axis_mask="0, 0" shrink_axis_mask="0, 0" ellipsis_mask="0, 0" />
			<input>
				<port id="0" precision="FP32">
					<dim>1</dim>
					<dim>128</dim>
					<dim>16</dim>
				</port>
				<port id="1" precision="I32">
					<dim>3</dim>
				</port>
				<port id="2" precision="I32">
					<dim>3</dim>
				</port>
				<port id="3" precision="I32">
					<dim>3</dim>
				</port>
			</input>
			<output>
				<port id="4" precision="FP32">
					<dim>1</dim>
					<dim>64</dim>
					<dim>8</dim>
				</port>
			</output>
		</layer>
		<layer id="179" name="Unsqueeze_2719_compressed" type="Const" version="opset1">
			<data element_type="f16" shape="1, 8" offset="46932" size="16" />
			<output>
				<port id="0" precision="FP16">
					<dim>1</dim>
					<dim>8</dim>
				</port>
			</output>
		</layer>
		<layer id="180" name="Unsqueeze_2719" type="Convert" version="opset1">
			<data destination_type="f32" />
			<rt_info>
				<attribute name="decompression" version="0" />
			</rt_info>
			<input>
				<port id="0" precision="FP16">
					<dim>1</dim>
					<dim>8</dim>
				</port>
			</input>
			<output>
				<port id="1" precision="FP32">
					<dim>1</dim>
					<dim>8</dim>
				</port>
			</output>
		</layer>
		<layer id="181" name="Broadcast_2726" type="Const" version="opset1">
			<data element_type="i32" shape="1" offset="16176" size="4" />
			<output>
				<port id="0" precision="I32">
					<dim>1</dim>
				</port>
			</output>
		</layer>
		<layer id="182" name="ReverseSequence_2729" type="ReverseSequence" version="opset1">
			<data batch_axis="0" seq_axis="1" />
			<input>
				<port id="0" precision="FP32">
					<dim>1</dim>
					<dim>8</dim>
				</port>
				<port id="1" precision="I32">
					<dim>1</dim>
				</port>
			</input>
			<output>
				<port id="2" precision="FP32">
					<dim>1</dim>
					<dim>8</dim>
				</port>
			</output>
		</layer>
		<layer id="183" name="Constant_2730" type="Const" version="opset1">
			<data element_type="i32" shape="1" offset="16180" size="4" />
			<output>
				<port id="0" precision="I32">
					<dim>1</dim>
				</port>
			</output>
		</layer>
		<layer id="184" name="model/ttl_1/sequential_1/einsum_ttl_1/ReverseV2" type="Squeeze" version="opset1">
			<input>
				<port id="0" precision="FP32">
					<dim>1</dim>
					<dim>8</dim>
				</port>
				<port id="1" precision="I32">
					<dim>1</dim>
				</port>
			</input>
			<output>
				<port id="2" precision="FP32">
					<dim>8</dim>
				</port>
			</output>
		</layer>
		<layer id="185" name="model/ttl_1/sequential_1/einsum_ttl_1/einsum_1/Einsum" type="Einsum" version="opset7">
			<data equation="abc,c->ab" />
			<input>
				<port id="0" precision="FP32">
					<dim>1</dim>
					<dim>64</dim>
					<dim>8</dim>
				</port>
				<port id="1" precision="FP32">
					<dim>8</dim>
				</port>
			</input>
			<output>
				<port id="2" precision="FP32">
					<dim>1</dim>
					<dim>64</dim>
				</port>
			</output>
		</layer>
		<layer id="186" name="model/ttl_1/sequential_1/einsum_ttl_1/add" type="Add" version="opset1">
			<data auto_broadcast="numpy" />
			<input>
				<port id="0" precision="FP32">
					<dim>1</dim>
					<dim>64</dim>
				</port>
				<port id="1" precision="FP32">
					<dim>1</dim>
					<dim>64</dim>
				</port>
			</input>
			<output>
				<port id="2" precision="FP32">
					<dim>1</dim>
					<dim>64</dim>
				</port>
			</output>
		</layer>
		<layer id="187" name="model/ttl_1/sequential_1/einsum_ttl_1/strided_slice_4/stack" type="Const" version="opset1">
			<data element_type="i32" shape="3" offset="16184" size="12" />
			<rt_info>
				<attribute name="precise" version="0" />
			</rt_info>
			<output>
				<port id="0" precision="I32">
					<dim>3</dim>
				</port>
			</output>
		</layer>
		<layer id="188" name="model/ttl_1/sequential_1/einsum_ttl_1/strided_slice_4/stack_1" type="Const" version="opset1">
			<data element_type="i32" shape="3" offset="16152" size="12" />
			<rt_info>
				<attribute name="precise" version="0" />
			</rt_info>
			<output>
				<port id="0" precision="I32">
					<dim>3</dim>
				</port>
			</output>
		</layer>
		<layer id="189" name="model/ttl_1/sequential_1/einsum_ttl_1/strided_slice_4/stack_2" type="Const" version="opset1">
			<data element_type="i32" shape="3" offset="16124" size="12" />
			<rt_info>
				<attribute name="precise" version="0" />
			</rt_info>
			<output>
				<port id="0" precision="I32">
					<dim>3</dim>
				</port>
			</output>
		</layer>
		<layer id="190" name="model/ttl_1/sequential_1/einsum_ttl_1/strided_slice_4" type="StridedSlice" version="opset1">
			<data begin_mask="1, 0, 1" end_mask="1, 1, 0" new_axis_mask="0, 0, 0" shrink_axis_mask="0, 0, 0" ellipsis_mask="0, 0, 0" />
			<input>
				<port id="0" precision="FP32">
					<dim>1</dim>
					<dim>128</dim>
					<dim>16</dim>
				</port>
				<port id="1" precision="I32">
					<dim>3</dim>
				</port>
				<port id="2" precision="I32">
					<dim>3</dim>
				</port>
				<port id="3" precision="I32">
					<dim>3</dim>
				</port>
			</input>
			<output>
				<port id="4" precision="FP32">
					<dim>1</dim>
					<dim>64</dim>
					<dim>8</dim>
				</port>
			</output>
		</layer>
		<layer id="191" name="model/ttl_1/sequential_1/einsum_ttl_1/strided_slice_5_compressed" type="Const" version="opset1">
			<data element_type="f16" shape="8" offset="46948" size="16" />
			<output>
				<port id="0" precision="FP16">
					<dim>8</dim>
				</port>
			</output>
		</layer>
		<layer id="192" name="model/ttl_1/sequential_1/einsum_ttl_1/strided_slice_5" type="Convert" version="opset1">
			<data destination_type="f32" />
			<rt_info>
				<attribute name="decompression" version="0" />
			</rt_info>
			<input>
				<port id="0" precision="FP16">
					<dim>8</dim>
				</port>
			</input>
			<output>
				<port id="1" precision="FP32">
					<dim>8</dim>
				</port>
			</output>
		</layer>
		<layer id="193" name="model/ttl_1/sequential_1/einsum_ttl_1/einsum_2/Einsum" type="Einsum" version="opset7">
			<data equation="abc,c->ab" />
			<input>
				<port id="0" precision="FP32">
					<dim>1</dim>
					<dim>64</dim>
					<dim>8</dim>
				</port>
				<port id="1" precision="FP32">
					<dim>8</dim>
				</port>
			</input>
			<output>
				<port id="2" precision="FP32">
					<dim>1</dim>
					<dim>64</dim>
				</port>
			</output>
		</layer>
		<layer id="194" name="model/ttl_1/sequential_1/einsum_ttl_1/strided_slice_6/stack" type="Const" version="opset1">
			<data element_type="i32" shape="3" offset="16112" size="12" />
			<rt_info>
				<attribute name="precise" version="0" />
			</rt_info>
			<output>
				<port id="0" precision="I32">
					<dim>3</dim>
				</port>
			</output>
		</layer>
		<layer id="195" name="model/ttl_1/sequential_1/einsum_ttl_1/strided_slice_6/stack_1" type="Const" version="opset1">
			<data element_type="i32" shape="3" offset="16212" size="12" />
			<rt_info>
				<attribute name="precise" version="0" />
			</rt_info>
			<output>
				<port id="0" precision="I32">
					<dim>3</dim>
				</port>
			</output>
		</layer>
		<layer id="196" name="model/ttl_1/sequential_1/einsum_ttl_1/strided_slice_6/stack_2" type="Const" version="opset1">
			<data element_type="i32" shape="3" offset="16124" size="12" />
			<rt_info>
				<attribute name="precise" version="0" />
			</rt_info>
			<output>
				<port id="0" precision="I32">
					<dim>3</dim>
				</port>
			</output>
		</layer>
		<layer id="197" name="model/ttl_1/sequential_1/einsum_ttl_1/strided_slice_6" type="StridedSlice" version="opset1">
			<data begin_mask="1, 0" end_mask="1, 1" new_axis_mask="0, 0" shrink_axis_mask="0, 0" ellipsis_mask="0, 0" />
			<input>
				<port id="0" precision="FP32">
					<dim>1</dim>
					<dim>128</dim>
					<dim>16</dim>
				</port>
				<port id="1" precision="I32">
					<dim>3</dim>
				</port>
				<port id="2" precision="I32">
					<dim>3</dim>
				</port>
				<port id="3" precision="I32">
					<dim>3</dim>
				</port>
			</input>
			<output>
				<port id="4" precision="FP32">
					<dim>1</dim>
					<dim>64</dim>
					<dim>8</dim>
				</port>
			</output>
		</layer>
		<layer id="198" name="Unsqueeze_2683_compressed" type="Const" version="opset1">
			<data element_type="f16" shape="1, 8" offset="46948" size="16" />
			<output>
				<port id="0" precision="FP16">
					<dim>1</dim>
					<dim>8</dim>
				</port>
			</output>
		</layer>
		<layer id="199" name="Unsqueeze_2683" type="Convert" version="opset1">
			<data destination_type="f32" />
			<rt_info>
				<attribute name="decompression" version="0" />
			</rt_info>
			<input>
				<port id="0" precision="FP16">
					<dim>1</dim>
					<dim>8</dim>
				</port>
			</input>
			<output>
				<port id="1" precision="FP32">
					<dim>1</dim>
					<dim>8</dim>
				</port>
			</output>
		</layer>
		<layer id="200" name="Broadcast_2690" type="Const" version="opset1">
			<data element_type="i32" shape="1" offset="16176" size="4" />
			<output>
				<port id="0" precision="I32">
					<dim>1</dim>
				</port>
			</output>
		</layer>
		<layer id="201" name="ReverseSequence_2693" type="ReverseSequence" version="opset1">
			<data batch_axis="0" seq_axis="1" />
			<input>
				<port id="0" precision="FP32">
					<dim>1</dim>
					<dim>8</dim>
				</port>
				<port id="1" precision="I32">
					<dim>1</dim>
				</port>
			</input>
			<output>
				<port id="2" precision="FP32">
					<dim>1</dim>
					<dim>8</dim>
				</port>
			</output>
		</layer>
		<layer id="202" name="Constant_2694" type="Const" version="opset1">
			<data element_type="i32" shape="1" offset="16180" size="4" />
			<output>
				<port id="0" precision="I32">
					<dim>1</dim>
				</port>
			</output>
		</layer>
		<layer id="203" name="model/ttl_1/sequential_1/einsum_ttl_1/ReverseV2_1" type="Squeeze" version="opset1">
			<input>
				<port id="0" precision="FP32">
					<dim>1</dim>
					<dim>8</dim>
				</port>
				<port id="1" precision="I32">
					<dim>1</dim>
				</port>
			</input>
			<output>
				<port id="2" precision="FP32">
					<dim>8</dim>
				</port>
			</output>
		</layer>
		<layer id="204" name="model/ttl_1/sequential_1/einsum_ttl_1/einsum_3/Einsum" type="Einsum" version="opset7">
			<data equation="abc,c->ab" />
			<input>
				<port id="0" precision="FP32">
					<dim>1</dim>
					<dim>64</dim>
					<dim>8</dim>
				</port>
				<port id="1" precision="FP32">
					<dim>8</dim>
				</port>
			</input>
			<output>
				<port id="2" precision="FP32">
					<dim>1</dim>
					<dim>64</dim>
				</port>
			</output>
		</layer>
		<layer id="205" name="model/ttl_1/sequential_1/einsum_ttl_1/add_1" type="Add" version="opset1">
			<data auto_broadcast="numpy" />
			<input>
				<port id="0" precision="FP32">
					<dim>1</dim>
					<dim>64</dim>
				</port>
				<port id="1" precision="FP32">
					<dim>1</dim>
					<dim>64</dim>
				</port>
			</input>
			<output>
				<port id="2" precision="FP32">
					<dim>1</dim>
					<dim>64</dim>
				</port>
			</output>
		</layer>
		<layer id="206" name="model/ttl_1/sequential_1/einsum_ttl_1/concat" type="Concat" version="opset1">
			<data axis="1" />
			<input>
				<port id="0" precision="FP32">
					<dim>1</dim>
					<dim>64</dim>
				</port>
				<port id="1" precision="FP32">
					<dim>1</dim>
					<dim>64</dim>
				</port>
			</input>
			<output>
				<port id="2" precision="FP32">
					<dim>1</dim>
					<dim>128</dim>
				</port>
			</output>
		</layer>
		<layer id="207" name="model/ttl_1/sequential_1/flatten_1/Const" type="Const" version="opset1">
			<data element_type="i32" shape="2" offset="16224" size="8" />
			<rt_info>
				<attribute name="precise" version="0" />
			</rt_info>
			<output>
				<port id="0" precision="I32">
					<dim>2</dim>
				</port>
			</output>
		</layer>
		<layer id="208" name="model/ttl_1/sequential_1/flatten_1/Reshape" type="Reshape" version="opset1">
			<data special_zero="false" />
			<input>
				<port id="0" precision="FP32">
					<dim>1</dim>
					<dim>128</dim>
				</port>
				<port id="1" precision="I32">
					<dim>2</dim>
				</port>
			</input>
			<output>
				<port id="2" precision="FP32">
					<dim>1</dim>
					<dim>128</dim>
				</port>
			</output>
		</layer>
		<layer id="209" name="model/ttl_1/sequential_1/tt_dense_1/t3f_matmul/Reshape/shape" type="Const" version="opset1">
			<data element_type="i32" shape="3" offset="16232" size="12" />
			<rt_info>
				<attribute name="precise" version="0" />
			</rt_info>
			<output>
				<port id="0" precision="I32">
					<dim>3</dim>
				</port>
			</output>
		</layer>
		<layer id="210" name="model/ttl_1/sequential_1/tt_dense_1/t3f_matmul/Reshape" type="Reshape" version="opset1">
			<data special_zero="false" />
			<input>
				<port id="0" precision="FP32">
					<dim>1</dim>
					<dim>128</dim>
				</port>
				<port id="1" precision="I32">
					<dim>3</dim>
				</port>
			</input>
			<output>
				<port id="2" precision="FP32">
					<dim>64</dim>
					<dim>2</dim>
					<dim>1</dim>
				</port>
			</output>
		</layer>
		<layer id="211" name="model/ttl_1/sequential_1/tt_dense_1/t3f_matmul/einsum/Einsum" type="Einsum" version="opset7">
			<data equation="aijb,rjb->ira" />
			<input>
				<port id="0" precision="FP32">
					<dim>7</dim>
					<dim>4</dim>
					<dim>2</dim>
					<dim>1</dim>
				</port>
				<port id="1" precision="FP32">
					<dim>64</dim>
					<dim>2</dim>
					<dim>1</dim>
				</port>
			</input>
			<output>
				<port id="2" precision="FP32">
					<dim>4</dim>
					<dim>64</dim>
					<dim>7</dim>
				</port>
			</output>
		</layer>
		<layer id="212" name="model/ttl_1/sequential_1/tt_dense_1/t3f_matmul/Reshape_1/shape" type="Const" version="opset1">
			<data element_type="i32" shape="3" offset="16244" size="12" />
			<rt_info>
				<attribute name="precise" version="0" />
			</rt_info>
			<output>
				<port id="0" precision="I32">
					<dim>3</dim>
				</port>
			</output>
		</layer>
		<layer id="213" name="model/ttl_1/sequential_1/tt_dense_1/t3f_matmul/Reshape_1" type="Reshape" version="opset1">
			<data special_zero="false" />
			<input>
				<port id="0" precision="FP32">
					<dim>4</dim>
					<dim>64</dim>
					<dim>7</dim>
				</port>
				<port id="1" precision="I32">
					<dim>3</dim>
				</port>
			</input>
			<output>
				<port id="2" precision="FP32">
					<dim>128</dim>
					<dim>2</dim>
					<dim>7</dim>
				</port>
			</output>
		</layer>
		<layer id="214" name="model/ttl_1/sequential_1/tt_dense_1/t3f_matmul/einsum_1/Einsum" type="Einsum" version="opset7">
			<data equation="aijb,rjb->ira" />
			<input>
				<port id="0" precision="FP32">
					<dim>16</dim>
					<dim>4</dim>
					<dim>2</dim>
					<dim>7</dim>
				</port>
				<port id="1" precision="FP32">
					<dim>128</dim>
					<dim>2</dim>
					<dim>7</dim>
				</port>
			</input>
			<output>
				<port id="2" precision="FP32">
					<dim>4</dim>
					<dim>128</dim>
					<dim>16</dim>
				</port>
			</output>
		</layer>
		<layer id="215" name="model/ttl_1/sequential_1/tt_dense_1/t3f_matmul/Reshape_2/shape" type="Const" version="opset1">
			<data element_type="i32" shape="3" offset="16256" size="12" />
			<rt_info>
				<attribute name="precise" version="0" />
			</rt_info>
			<output>
				<port id="0" precision="I32">
					<dim>3</dim>
				</port>
			</output>
		</layer>
		<layer id="216" name="model/ttl_1/sequential_1/tt_dense_1/t3f_matmul/Reshape_2" type="Reshape" version="opset1">
			<data special_zero="false" />
			<input>
				<port id="0" precision="FP32">
					<dim>4</dim>
					<dim>128</dim>
					<dim>16</dim>
				</port>
				<port id="1" precision="I32">
					<dim>3</dim>
				</port>
			</input>
			<output>
				<port id="2" precision="FP32">
					<dim>256</dim>
					<dim>2</dim>
					<dim>16</dim>
				</port>
			</output>
		</layer>
		<layer id="217" name="model/ttl_1/sequential_1/tt_dense_1/t3f_matmul/einsum_2/Einsum" type="Einsum" version="opset7">
			<data equation="aijb,rjb->ira" />
			<input>
				<port id="0" precision="FP32">
					<dim>16</dim>
					<dim>4</dim>
					<dim>2</dim>
					<dim>16</dim>
				</port>
				<port id="1" precision="FP32">
					<dim>256</dim>
					<dim>2</dim>
					<dim>16</dim>
				</port>
			</input>
			<output>
				<port id="2" precision="FP32">
					<dim>4</dim>
					<dim>256</dim>
					<dim>16</dim>
				</port>
			</output>
		</layer>
		<layer id="218" name="model/ttl_1/sequential_1/tt_dense_1/t3f_matmul/Reshape_3/shape" type="Const" version="opset1">
			<data element_type="i32" shape="3" offset="16256" size="12" />
			<rt_info>
				<attribute name="precise" version="0" />
			</rt_info>
			<output>
				<port id="0" precision="I32">
					<dim>3</dim>
				</port>
			</output>
		</layer>
		<layer id="219" name="model/ttl_1/sequential_1/tt_dense_1/t3f_matmul/Reshape_3" type="Reshape" version="opset1">
			<data special_zero="false" />
			<input>
				<port id="0" precision="FP32">
					<dim>4</dim>
					<dim>256</dim>
					<dim>16</dim>
				</port>
				<port id="1" precision="I32">
					<dim>3</dim>
				</port>
			</input>
			<output>
				<port id="2" precision="FP32">
					<dim>512</dim>
					<dim>2</dim>
					<dim>16</dim>
				</port>
			</output>
		</layer>
		<layer id="220" name="model/ttl_1/sequential_1/tt_dense_1/t3f_matmul/einsum_3/Einsum" type="Einsum" version="opset7">
			<data equation="aijb,rjb->ira" />
			<input>
				<port id="0" precision="FP32">
					<dim>16</dim>
					<dim>4</dim>
					<dim>2</dim>
					<dim>16</dim>
				</port>
				<port id="1" precision="FP32">
					<dim>512</dim>
					<dim>2</dim>
					<dim>16</dim>
				</port>
			</input>
			<output>
				<port id="2" precision="FP32">
					<dim>4</dim>
					<dim>512</dim>
					<dim>16</dim>
				</port>
			</output>
		</layer>
		<layer id="221" name="model/ttl_1/sequential_1/tt_dense_1/t3f_matmul/Reshape_4/shape" type="Const" version="opset1">
			<data element_type="i32" shape="3" offset="16256" size="12" />
			<rt_info>
				<attribute name="precise" version="0" />
			</rt_info>
			<output>
				<port id="0" precision="I32">
					<dim>3</dim>
				</port>
			</output>
		</layer>
		<layer id="222" name="model/ttl_1/sequential_1/tt_dense_1/t3f_matmul/Reshape_4" type="Reshape" version="opset1">
			<data special_zero="false" />
			<input>
				<port id="0" precision="FP32">
					<dim>4</dim>
					<dim>512</dim>
					<dim>16</dim>
				</port>
				<port id="1" precision="I32">
					<dim>3</dim>
				</port>
			</input>
			<output>
				<port id="2" precision="FP32">
					<dim>1024</dim>
					<dim>2</dim>
					<dim>16</dim>
				</port>
			</output>
		</layer>
		<layer id="223" name="model/ttl_1/sequential_1/tt_dense_1/t3f_matmul/einsum_4/Einsum" type="Einsum" version="opset7">
			<data equation="aijb,rjb->ira" />
			<input>
				<port id="0" precision="FP32">
					<dim>16</dim>
					<dim>4</dim>
					<dim>2</dim>
					<dim>16</dim>
				</port>
				<port id="1" precision="FP32">
					<dim>1024</dim>
					<dim>2</dim>
					<dim>16</dim>
				</port>
			</input>
			<output>
				<port id="2" precision="FP32">
					<dim>4</dim>
					<dim>1024</dim>
					<dim>16</dim>
				</port>
			</output>
		</layer>
		<layer id="224" name="model/ttl_1/sequential_1/tt_dense_1/t3f_matmul/Reshape_5/shape" type="Const" version="opset1">
			<data element_type="i32" shape="3" offset="16256" size="12" />
			<rt_info>
				<attribute name="precise" version="0" />
			</rt_info>
			<output>
				<port id="0" precision="I32">
					<dim>3</dim>
				</port>
			</output>
		</layer>
		<layer id="225" name="model/ttl_1/sequential_1/tt_dense_1/t3f_matmul/Reshape_5" type="Reshape" version="opset1">
			<data special_zero="false" />
			<input>
				<port id="0" precision="FP32">
					<dim>4</dim>
					<dim>1024</dim>
					<dim>16</dim>
				</port>
				<port id="1" precision="I32">
					<dim>3</dim>
				</port>
			</input>
			<output>
				<port id="2" precision="FP32">
					<dim>2048</dim>
					<dim>2</dim>
					<dim>16</dim>
				</port>
			</output>
		</layer>
		<layer id="226" name="model/ttl_1/sequential_1/tt_dense_1/t3f_matmul/einsum_5/Einsum" type="Einsum" version="opset7">
			<data equation="aijb,rjb->ira" />
			<input>
				<port id="0" precision="FP32">
					<dim>7</dim>
					<dim>4</dim>
					<dim>2</dim>
					<dim>16</dim>
				</port>
				<port id="1" precision="FP32">
					<dim>2048</dim>
					<dim>2</dim>
					<dim>16</dim>
				</port>
			</input>
			<output>
				<port id="2" precision="FP32">
					<dim>4</dim>
					<dim>2048</dim>
					<dim>7</dim>
				</port>
			</output>
		</layer>
		<layer id="227" name="model/ttl_1/sequential_1/tt_dense_1/t3f_matmul/Reshape_6/shape" type="Const" version="opset1">
			<data element_type="i32" shape="3" offset="16244" size="12" />
			<rt_info>
				<attribute name="precise" version="0" />
			</rt_info>
			<output>
				<port id="0" precision="I32">
					<dim>3</dim>
				</port>
			</output>
		</layer>
		<layer id="228" name="model/ttl_1/sequential_1/tt_dense_1/t3f_matmul/Reshape_6" type="Reshape" version="opset1">
			<data special_zero="false" />
			<input>
				<port id="0" precision="FP32">
					<dim>4</dim>
					<dim>2048</dim>
					<dim>7</dim>
				</port>
				<port id="1" precision="I32">
					<dim>3</dim>
				</port>
			</input>
			<output>
				<port id="2" precision="FP32">
					<dim>4096</dim>
					<dim>2</dim>
					<dim>7</dim>
				</port>
			</output>
		</layer>
		<layer id="229" name="model/ttl_1/sequential_1/tt_dense_1/t3f_matmul/einsum_6/Einsum" type="Einsum" version="opset7">
			<data equation="aijb,rjb->ira" />
			<input>
				<port id="0" precision="FP32">
					<dim>1</dim>
					<dim>4</dim>
					<dim>2</dim>
					<dim>7</dim>
				</port>
				<port id="1" precision="FP32">
					<dim>4096</dim>
					<dim>2</dim>
					<dim>7</dim>
				</port>
			</input>
			<output>
				<port id="2" precision="FP32">
					<dim>4</dim>
					<dim>4096</dim>
					<dim>1</dim>
				</port>
			</output>
		</layer>
		<layer id="230" name="model/ttl_1/sequential_1/reshape_1/Reshape/shape" type="Const" version="opset1">
			<data element_type="i32" shape="3" offset="16268" size="12" />
			<rt_info>
				<attribute name="precise" version="0" />
			</rt_info>
			<output>
				<port id="0" precision="I32">
					<dim>3</dim>
				</port>
			</output>
		</layer>
		<layer id="231" name="model/ttl_1/sequential_1/reshape_1/Reshape" type="Reshape" version="opset1">
			<data special_zero="false" />
			<input>
				<port id="0" precision="FP32">
					<dim>4</dim>
					<dim>4096</dim>
					<dim>1</dim>
				</port>
				<port id="1" precision="I32">
					<dim>3</dim>
				</port>
			</input>
			<output>
				<port id="2" precision="FP32">
					<dim>1</dim>
					<dim>256</dim>
					<dim>64</dim>
				</port>
			</output>
		</layer>
		<layer id="232" name="model/tf.__operators__.getitem_2/strided_slice/stack" type="Const" version="opset1">
			<data element_type="i32" shape="2" offset="30820" size="8" />
			<rt_info>
				<attribute name="precise" version="0" />
			</rt_info>
			<output>
				<port id="0" precision="I32">
					<dim>2</dim>
				</port>
			</output>
		</layer>
		<layer id="233" name="model/tf.__operators__.getitem_2/strided_slice/stack_1" type="Const" version="opset1">
			<data element_type="i32" shape="2" offset="46964" size="8" />
			<rt_info>
				<attribute name="precise" version="0" />
			</rt_info>
			<output>
				<port id="0" precision="I32">
					<dim>2</dim>
				</port>
			</output>
		</layer>
		<layer id="234" name="model/tf.__operators__.getitem_2/strided_slice/stack_2" type="Const" version="opset1">
			<data element_type="i32" shape="2" offset="30828" size="8" />
			<rt_info>
				<attribute name="precise" version="0" />
			</rt_info>
			<output>
				<port id="0" precision="I32">
					<dim>2</dim>
				</port>
			</output>
		</layer>
		<layer id="235" name="model/tf.__operators__.getitem_2/strided_slice" type="StridedSlice" version="opset1">
			<data begin_mask="0, 0" end_mask="0, 0" new_axis_mask="0, 0" shrink_axis_mask="0, 1" ellipsis_mask="1, 0" />
			<input>
				<port id="0" precision="FP32">
					<dim>1</dim>
					<dim>1</dim>
					<dim>1</dim>
					<dim>20</dim>
				</port>
				<port id="1" precision="I32">
					<dim>2</dim>
				</port>
				<port id="2" precision="I32">
					<dim>2</dim>
				</port>
				<port id="3" precision="I32">
					<dim>2</dim>
				</port>
			</input>
			<output>
				<port id="4" precision="FP32">
					<dim>1</dim>
					<dim>1</dim>
					<dim>1</dim>
				</port>
			</output>
		</layer>
		<layer id="236" name="model/multiply_1/mul" type="Multiply" version="opset1">
			<data auto_broadcast="numpy" />
			<input>
				<port id="0" precision="FP32">
					<dim>1</dim>
					<dim>256</dim>
					<dim>64</dim>
				</port>
				<port id="1" precision="FP32">
					<dim>1</dim>
					<dim>1</dim>
					<dim>1</dim>
				</port>
			</input>
			<output>
				<port id="2" precision="FP32">
					<dim>1</dim>
					<dim>256</dim>
					<dim>64</dim>
				</port>
			</output>
		</layer>
		<layer id="237" name="model/add/add" type="Add" version="opset1">
			<data auto_broadcast="numpy" />
			<input>
				<port id="0" precision="FP32">
					<dim>1</dim>
					<dim>256</dim>
					<dim>64</dim>
				</port>
				<port id="1" precision="FP32">
					<dim>1</dim>
					<dim>256</dim>
					<dim>64</dim>
				</port>
			</input>
			<output>
				<port id="2" precision="FP32">
					<dim>1</dim>
					<dim>256</dim>
					<dim>64</dim>
				</port>
			</output>
		</layer>
		<layer id="238" name="model/ttl_2/sequential_2/tt_dense_2/t3f_matmul/t3f_transpose/transpose_compressed" type="Const" version="opset1">
			<data element_type="f16" shape="1, 4, 2, 7" offset="46972" size="112" />
			<output>
				<port id="0" precision="FP16">
					<dim>1</dim>
					<dim>4</dim>
					<dim>2</dim>
					<dim>7</dim>
				</port>
			</output>
		</layer>
		<layer id="239" name="model/ttl_2/sequential_2/tt_dense_2/t3f_matmul/t3f_transpose/transpose" type="Convert" version="opset1">
			<data destination_type="f32" />
			<rt_info>
				<attribute name="decompression" version="0" />
			</rt_info>
			<input>
				<port id="0" precision="FP16">
					<dim>1</dim>
					<dim>4</dim>
					<dim>2</dim>
					<dim>7</dim>
				</port>
			</input>
			<output>
				<port id="1" precision="FP32">
					<dim>1</dim>
					<dim>4</dim>
					<dim>2</dim>
					<dim>7</dim>
				</port>
			</output>
		</layer>
		<layer id="240" name="model/ttl_2/sequential_2/tt_dense_2/t3f_matmul/t3f_transpose/transpose_1_compressed" type="Const" version="opset1">
			<data element_type="f16" shape="7, 4, 2, 16" offset="47084" size="1792" />
			<output>
				<port id="0" precision="FP16">
					<dim>7</dim>
					<dim>4</dim>
					<dim>2</dim>
					<dim>16</dim>
				</port>
			</output>
		</layer>
		<layer id="241" name="model/ttl_2/sequential_2/tt_dense_2/t3f_matmul/t3f_transpose/transpose_1" type="Convert" version="opset1">
			<data destination_type="f32" />
			<rt_info>
				<attribute name="decompression" version="0" />
			</rt_info>
			<input>
				<port id="0" precision="FP16">
					<dim>7</dim>
					<dim>4</dim>
					<dim>2</dim>
					<dim>16</dim>
				</port>
			</input>
			<output>
				<port id="1" precision="FP32">
					<dim>7</dim>
					<dim>4</dim>
					<dim>2</dim>
					<dim>16</dim>
				</port>
			</output>
		</layer>
		<layer id="242" name="model/ttl_2/sequential_2/tt_dense_2/t3f_matmul/t3f_transpose/transpose_2_compressed" type="Const" version="opset1">
			<data element_type="f16" shape="16, 4, 2, 16" offset="48876" size="4096" />
			<output>
				<port id="0" precision="FP16">
					<dim>16</dim>
					<dim>4</dim>
					<dim>2</dim>
					<dim>16</dim>
				</port>
			</output>
		</layer>
		<layer id="243" name="model/ttl_2/sequential_2/tt_dense_2/t3f_matmul/t3f_transpose/transpose_2" type="Convert" version="opset1">
			<data destination_type="f32" />
			<rt_info>
				<attribute name="decompression" version="0" />
			</rt_info>
			<input>
				<port id="0" precision="FP16">
					<dim>16</dim>
					<dim>4</dim>
					<dim>2</dim>
					<dim>16</dim>
				</port>
			</input>
			<output>
				<port id="1" precision="FP32">
					<dim>16</dim>
					<dim>4</dim>
					<dim>2</dim>
					<dim>16</dim>
				</port>
			</output>
		</layer>
		<layer id="244" name="model/ttl_2/sequential_2/tt_dense_2/t3f_matmul/t3f_transpose/transpose_3_compressed" type="Const" version="opset1">
			<data element_type="f16" shape="16, 4, 2, 16" offset="52972" size="4096" />
			<output>
				<port id="0" precision="FP16">
					<dim>16</dim>
					<dim>4</dim>
					<dim>2</dim>
					<dim>16</dim>
				</port>
			</output>
		</layer>
		<layer id="245" name="model/ttl_2/sequential_2/tt_dense_2/t3f_matmul/t3f_transpose/transpose_3" type="Convert" version="opset1">
			<data destination_type="f32" />
			<rt_info>
				<attribute name="decompression" version="0" />
			</rt_info>
			<input>
				<port id="0" precision="FP16">
					<dim>16</dim>
					<dim>4</dim>
					<dim>2</dim>
					<dim>16</dim>
				</port>
			</input>
			<output>
				<port id="1" precision="FP32">
					<dim>16</dim>
					<dim>4</dim>
					<dim>2</dim>
					<dim>16</dim>
				</port>
			</output>
		</layer>
		<layer id="246" name="model/ttl_2/sequential_2/tt_dense_2/t3f_matmul/t3f_transpose/transpose_4_compressed" type="Const" version="opset1">
			<data element_type="f16" shape="16, 4, 2, 16" offset="57068" size="4096" />
			<output>
				<port id="0" precision="FP16">
					<dim>16</dim>
					<dim>4</dim>
					<dim>2</dim>
					<dim>16</dim>
				</port>
			</output>
		</layer>
		<layer id="247" name="model/ttl_2/sequential_2/tt_dense_2/t3f_matmul/t3f_transpose/transpose_4" type="Convert" version="opset1">
			<data destination_type="f32" />
			<rt_info>
				<attribute name="decompression" version="0" />
			</rt_info>
			<input>
				<port id="0" precision="FP16">
					<dim>16</dim>
					<dim>4</dim>
					<dim>2</dim>
					<dim>16</dim>
				</port>
			</input>
			<output>
				<port id="1" precision="FP32">
					<dim>16</dim>
					<dim>4</dim>
					<dim>2</dim>
					<dim>16</dim>
				</port>
			</output>
		</layer>
		<layer id="248" name="model/ttl_2/sequential_2/tt_dense_2/t3f_matmul/t3f_transpose/transpose_5_compressed" type="Const" version="opset1">
			<data element_type="f16" shape="16, 4, 2, 7" offset="61164" size="1792" />
			<output>
				<port id="0" precision="FP16">
					<dim>16</dim>
					<dim>4</dim>
					<dim>2</dim>
					<dim>7</dim>
				</port>
			</output>
		</layer>
		<layer id="249" name="model/ttl_2/sequential_2/tt_dense_2/t3f_matmul/t3f_transpose/transpose_5" type="Convert" version="opset1">
			<data destination_type="f32" />
			<rt_info>
				<attribute name="decompression" version="0" />
			</rt_info>
			<input>
				<port id="0" precision="FP16">
					<dim>16</dim>
					<dim>4</dim>
					<dim>2</dim>
					<dim>7</dim>
				</port>
			</input>
			<output>
				<port id="1" precision="FP32">
					<dim>16</dim>
					<dim>4</dim>
					<dim>2</dim>
					<dim>7</dim>
				</port>
			</output>
		</layer>
		<layer id="250" name="model/ttl_2/sequential_2/tt_dense_2/t3f_matmul/t3f_transpose/transpose_6_compressed" type="Const" version="opset1">
			<data element_type="f16" shape="7, 4, 2, 1" offset="62956" size="112" />
			<output>
				<port id="0" precision="FP16">
					<dim>7</dim>
					<dim>4</dim>
					<dim>2</dim>
					<dim>1</dim>
				</port>
			</output>
		</layer>
		<layer id="251" name="model/ttl_2/sequential_2/tt_dense_2/t3f_matmul/t3f_transpose/transpose_6" type="Convert" version="opset1">
			<data destination_type="f32" />
			<rt_info>
				<attribute name="decompression" version="0" />
			</rt_info>
			<input>
				<port id="0" precision="FP16">
					<dim>7</dim>
					<dim>4</dim>
					<dim>2</dim>
					<dim>1</dim>
				</port>
			</input>
			<output>
				<port id="1" precision="FP32">
					<dim>7</dim>
					<dim>4</dim>
					<dim>2</dim>
					<dim>1</dim>
				</port>
			</output>
		</layer>
		<layer id="252" name="model/ttl_2/sequential_2/einsum_ttl_2/strided_slice/stack" type="Const" version="opset1">
			<data element_type="i32" shape="3" offset="16100" size="12" />
			<rt_info>
				<attribute name="precise" version="0" />
			</rt_info>
			<output>
				<port id="0" precision="I32">
					<dim>3</dim>
				</port>
			</output>
		</layer>
		<layer id="253" name="model/ttl_2/sequential_2/einsum_ttl_2/strided_slice/stack_1" type="Const" version="opset1">
			<data element_type="i32" shape="3" offset="16112" size="12" />
			<rt_info>
				<attribute name="precise" version="0" />
			</rt_info>
			<output>
				<port id="0" precision="I32">
					<dim>3</dim>
				</port>
			</output>
		</layer>
		<layer id="254" name="model/ttl_2/sequential_2/einsum_ttl_2/strided_slice/stack_2" type="Const" version="opset1">
			<data element_type="i32" shape="3" offset="16124" size="12" />
			<rt_info>
				<attribute name="precise" version="0" />
			</rt_info>
			<output>
				<port id="0" precision="I32">
					<dim>3</dim>
				</port>
			</output>
		</layer>
		<layer id="255" name="model/ttl_2/sequential_2/einsum_ttl_2/strided_slice" type="StridedSlice" version="opset1">
			<data begin_mask="1, 1, 1" end_mask="1, 0, 0" new_axis_mask="0, 0, 0" shrink_axis_mask="0, 0, 0" ellipsis_mask="0, 0, 0" />
			<input>
				<port id="0" precision="FP32">
					<dim>1</dim>
					<dim>128</dim>
					<dim>16</dim>
				</port>
				<port id="1" precision="I32">
					<dim>3</dim>
				</port>
				<port id="2" precision="I32">
					<dim>3</dim>
				</port>
				<port id="3" precision="I32">
					<dim>3</dim>
				</port>
			</input>
			<output>
				<port id="4" precision="FP32">
					<dim>1</dim>
					<dim>64</dim>
					<dim>8</dim>
				</port>
			</output>
		</layer>
		<layer id="256" name="model/ttl_2/sequential_2/einsum_ttl_2/strided_slice_1_compressed" type="Const" version="opset1">
			<data element_type="f16" shape="8" offset="63068" size="16" />
			<output>
				<port id="0" precision="FP16">
					<dim>8</dim>
				</port>
			</output>
		</layer>
		<layer id="257" name="model/ttl_2/sequential_2/einsum_ttl_2/strided_slice_1" type="Convert" version="opset1">
			<data destination_type="f32" />
			<rt_info>
				<attribute name="decompression" version="0" />
			</rt_info>
			<input>
				<port id="0" precision="FP16">
					<dim>8</dim>
				</port>
			</input>
			<output>
				<port id="1" precision="FP32">
					<dim>8</dim>
				</port>
			</output>
		</layer>
		<layer id="258" name="model/ttl_2/sequential_2/einsum_ttl_2/einsum/Einsum" type="Einsum" version="opset7">
			<data equation="abc,c->ab" />
			<input>
				<port id="0" precision="FP32">
					<dim>1</dim>
					<dim>64</dim>
					<dim>8</dim>
				</port>
				<port id="1" precision="FP32">
					<dim>8</dim>
				</port>
			</input>
			<output>
				<port id="2" precision="FP32">
					<dim>1</dim>
					<dim>64</dim>
				</port>
			</output>
		</layer>
		<layer id="259" name="model/ttl_2/sequential_2/einsum_ttl_2/strided_slice_2/stack" type="Const" version="opset1">
			<data element_type="i32" shape="3" offset="16152" size="12" />
			<rt_info>
				<attribute name="precise" version="0" />
			</rt_info>
			<output>
				<port id="0" precision="I32">
					<dim>3</dim>
				</port>
			</output>
		</layer>
		<layer id="260" name="model/ttl_2/sequential_2/einsum_ttl_2/strided_slice_2/stack_1" type="Const" version="opset1">
			<data element_type="i32" shape="3" offset="16164" size="12" />
			<rt_info>
				<attribute name="precise" version="0" />
			</rt_info>
			<output>
				<port id="0" precision="I32">
					<dim>3</dim>
				</port>
			</output>
		</layer>
		<layer id="261" name="model/ttl_2/sequential_2/einsum_ttl_2/strided_slice_2/stack_2" type="Const" version="opset1">
			<data element_type="i32" shape="3" offset="16124" size="12" />
			<rt_info>
				<attribute name="precise" version="0" />
			</rt_info>
			<output>
				<port id="0" precision="I32">
					<dim>3</dim>
				</port>
			</output>
		</layer>
		<layer id="262" name="model/ttl_2/sequential_2/einsum_ttl_2/strided_slice_2" type="StridedSlice" version="opset1">
			<data begin_mask="1, 1" end_mask="1, 0" new_axis_mask="0, 0" shrink_axis_mask="0, 0" ellipsis_mask="0, 0" />
			<input>
				<port id="0" precision="FP32">
					<dim>1</dim>
					<dim>128</dim>
					<dim>16</dim>
				</port>
				<port id="1" precision="I32">
					<dim>3</dim>
				</port>
				<port id="2" precision="I32">
					<dim>3</dim>
				</port>
				<port id="3" precision="I32">
					<dim>3</dim>
				</port>
			</input>
			<output>
				<port id="4" precision="FP32">
					<dim>1</dim>
					<dim>64</dim>
					<dim>8</dim>
				</port>
			</output>
		</layer>
		<layer id="263" name="Unsqueeze_2584_compressed" type="Const" version="opset1">
			<data element_type="f16" shape="1, 8" offset="63068" size="16" />
			<output>
				<port id="0" precision="FP16">
					<dim>1</dim>
					<dim>8</dim>
				</port>
			</output>
		</layer>
		<layer id="264" name="Unsqueeze_2584" type="Convert" version="opset1">
			<data destination_type="f32" />
			<rt_info>
				<attribute name="decompression" version="0" />
			</rt_info>
			<input>
				<port id="0" precision="FP16">
					<dim>1</dim>
					<dim>8</dim>
				</port>
			</input>
			<output>
				<port id="1" precision="FP32">
					<dim>1</dim>
					<dim>8</dim>
				</port>
			</output>
		</layer>
		<layer id="265" name="Broadcast_2591" type="Const" version="opset1">
			<data element_type="i32" shape="1" offset="16176" size="4" />
			<output>
				<port id="0" precision="I32">
					<dim>1</dim>
				</port>
			</output>
		</layer>
		<layer id="266" name="ReverseSequence_2594" type="ReverseSequence" version="opset1">
			<data batch_axis="0" seq_axis="1" />
			<input>
				<port id="0" precision="FP32">
					<dim>1</dim>
					<dim>8</dim>
				</port>
				<port id="1" precision="I32">
					<dim>1</dim>
				</port>
			</input>
			<output>
				<port id="2" precision="FP32">
					<dim>1</dim>
					<dim>8</dim>
				</port>
			</output>
		</layer>
		<layer id="267" name="Constant_2595" type="Const" version="opset1">
			<data element_type="i32" shape="1" offset="16180" size="4" />
			<output>
				<port id="0" precision="I32">
					<dim>1</dim>
				</port>
			</output>
		</layer>
		<layer id="268" name="model/ttl_2/sequential_2/einsum_ttl_2/ReverseV2" type="Squeeze" version="opset1">
			<input>
				<port id="0" precision="FP32">
					<dim>1</dim>
					<dim>8</dim>
				</port>
				<port id="1" precision="I32">
					<dim>1</dim>
				</port>
			</input>
			<output>
				<port id="2" precision="FP32">
					<dim>8</dim>
				</port>
			</output>
		</layer>
		<layer id="269" name="model/ttl_2/sequential_2/einsum_ttl_2/einsum_1/Einsum" type="Einsum" version="opset7">
			<data equation="abc,c->ab" />
			<input>
				<port id="0" precision="FP32">
					<dim>1</dim>
					<dim>64</dim>
					<dim>8</dim>
				</port>
				<port id="1" precision="FP32">
					<dim>8</dim>
				</port>
			</input>
			<output>
				<port id="2" precision="FP32">
					<dim>1</dim>
					<dim>64</dim>
				</port>
			</output>
		</layer>
		<layer id="270" name="model/ttl_2/sequential_2/einsum_ttl_2/add" type="Add" version="opset1">
			<data auto_broadcast="numpy" />
			<input>
				<port id="0" precision="FP32">
					<dim>1</dim>
					<dim>64</dim>
				</port>
				<port id="1" precision="FP32">
					<dim>1</dim>
					<dim>64</dim>
				</port>
			</input>
			<output>
				<port id="2" precision="FP32">
					<dim>1</dim>
					<dim>64</dim>
				</port>
			</output>
		</layer>
		<layer id="271" name="model/ttl_2/sequential_2/einsum_ttl_2/strided_slice_4/stack" type="Const" version="opset1">
			<data element_type="i32" shape="3" offset="16184" size="12" />
			<rt_info>
				<attribute name="precise" version="0" />
			</rt_info>
			<output>
				<port id="0" precision="I32">
					<dim>3</dim>
				</port>
			</output>
		</layer>
		<layer id="272" name="model/ttl_2/sequential_2/einsum_ttl_2/strided_slice_4/stack_1" type="Const" version="opset1">
			<data element_type="i32" shape="3" offset="16152" size="12" />
			<rt_info>
				<attribute name="precise" version="0" />
			</rt_info>
			<output>
				<port id="0" precision="I32">
					<dim>3</dim>
				</port>
			</output>
		</layer>
		<layer id="273" name="model/ttl_2/sequential_2/einsum_ttl_2/strided_slice_4/stack_2" type="Const" version="opset1">
			<data element_type="i32" shape="3" offset="16124" size="12" />
			<rt_info>
				<attribute name="precise" version="0" />
			</rt_info>
			<output>
				<port id="0" precision="I32">
					<dim>3</dim>
				</port>
			</output>
		</layer>
		<layer id="274" name="model/ttl_2/sequential_2/einsum_ttl_2/strided_slice_4" type="StridedSlice" version="opset1">
			<data begin_mask="1, 0, 1" end_mask="1, 1, 0" new_axis_mask="0, 0, 0" shrink_axis_mask="0, 0, 0" ellipsis_mask="0, 0, 0" />
			<input>
				<port id="0" precision="FP32">
					<dim>1</dim>
					<dim>128</dim>
					<dim>16</dim>
				</port>
				<port id="1" precision="I32">
					<dim>3</dim>
				</port>
				<port id="2" precision="I32">
					<dim>3</dim>
				</port>
				<port id="3" precision="I32">
					<dim>3</dim>
				</port>
			</input>
			<output>
				<port id="4" precision="FP32">
					<dim>1</dim>
					<dim>64</dim>
					<dim>8</dim>
				</port>
			</output>
		</layer>
		<layer id="275" name="model/ttl_2/sequential_2/einsum_ttl_2/strided_slice_5_compressed" type="Const" version="opset1">
			<data element_type="f16" shape="8" offset="63084" size="16" />
			<output>
				<port id="0" precision="FP16">
					<dim>8</dim>
				</port>
			</output>
		</layer>
		<layer id="276" name="model/ttl_2/sequential_2/einsum_ttl_2/strided_slice_5" type="Convert" version="opset1">
			<data destination_type="f32" />
			<rt_info>
				<attribute name="decompression" version="0" />
			</rt_info>
			<input>
				<port id="0" precision="FP16">
					<dim>8</dim>
				</port>
			</input>
			<output>
				<port id="1" precision="FP32">
					<dim>8</dim>
				</port>
			</output>
		</layer>
		<layer id="277" name="model/ttl_2/sequential_2/einsum_ttl_2/einsum_2/Einsum" type="Einsum" version="opset7">
			<data equation="abc,c->ab" />
			<input>
				<port id="0" precision="FP32">
					<dim>1</dim>
					<dim>64</dim>
					<dim>8</dim>
				</port>
				<port id="1" precision="FP32">
					<dim>8</dim>
				</port>
			</input>
			<output>
				<port id="2" precision="FP32">
					<dim>1</dim>
					<dim>64</dim>
				</port>
			</output>
		</layer>
		<layer id="278" name="model/ttl_2/sequential_2/einsum_ttl_2/strided_slice_6/stack" type="Const" version="opset1">
			<data element_type="i32" shape="3" offset="16112" size="12" />
			<rt_info>
				<attribute name="precise" version="0" />
			</rt_info>
			<output>
				<port id="0" precision="I32">
					<dim>3</dim>
				</port>
			</output>
		</layer>
		<layer id="279" name="model/ttl_2/sequential_2/einsum_ttl_2/strided_slice_6/stack_1" type="Const" version="opset1">
			<data element_type="i32" shape="3" offset="16212" size="12" />
			<rt_info>
				<attribute name="precise" version="0" />
			</rt_info>
			<output>
				<port id="0" precision="I32">
					<dim>3</dim>
				</port>
			</output>
		</layer>
		<layer id="280" name="model/ttl_2/sequential_2/einsum_ttl_2/strided_slice_6/stack_2" type="Const" version="opset1">
			<data element_type="i32" shape="3" offset="16124" size="12" />
			<rt_info>
				<attribute name="precise" version="0" />
			</rt_info>
			<output>
				<port id="0" precision="I32">
					<dim>3</dim>
				</port>
			</output>
		</layer>
		<layer id="281" name="model/ttl_2/sequential_2/einsum_ttl_2/strided_slice_6" type="StridedSlice" version="opset1">
			<data begin_mask="1, 0" end_mask="1, 1" new_axis_mask="0, 0" shrink_axis_mask="0, 0" ellipsis_mask="0, 0" />
			<input>
				<port id="0" precision="FP32">
					<dim>1</dim>
					<dim>128</dim>
					<dim>16</dim>
				</port>
				<port id="1" precision="I32">
					<dim>3</dim>
				</port>
				<port id="2" precision="I32">
					<dim>3</dim>
				</port>
				<port id="3" precision="I32">
					<dim>3</dim>
				</port>
			</input>
			<output>
				<port id="4" precision="FP32">
					<dim>1</dim>
					<dim>64</dim>
					<dim>8</dim>
				</port>
			</output>
		</layer>
		<layer id="282" name="Unsqueeze_2548_compressed" type="Const" version="opset1">
			<data element_type="f16" shape="1, 8" offset="63084" size="16" />
			<output>
				<port id="0" precision="FP16">
					<dim>1</dim>
					<dim>8</dim>
				</port>
			</output>
		</layer>
		<layer id="283" name="Unsqueeze_2548" type="Convert" version="opset1">
			<data destination_type="f32" />
			<rt_info>
				<attribute name="decompression" version="0" />
			</rt_info>
			<input>
				<port id="0" precision="FP16">
					<dim>1</dim>
					<dim>8</dim>
				</port>
			</input>
			<output>
				<port id="1" precision="FP32">
					<dim>1</dim>
					<dim>8</dim>
				</port>
			</output>
		</layer>
		<layer id="284" name="Broadcast_2555" type="Const" version="opset1">
			<data element_type="i32" shape="1" offset="16176" size="4" />
			<output>
				<port id="0" precision="I32">
					<dim>1</dim>
				</port>
			</output>
		</layer>
		<layer id="285" name="ReverseSequence_2558" type="ReverseSequence" version="opset1">
			<data batch_axis="0" seq_axis="1" />
			<input>
				<port id="0" precision="FP32">
					<dim>1</dim>
					<dim>8</dim>
				</port>
				<port id="1" precision="I32">
					<dim>1</dim>
				</port>
			</input>
			<output>
				<port id="2" precision="FP32">
					<dim>1</dim>
					<dim>8</dim>
				</port>
			</output>
		</layer>
		<layer id="286" name="Constant_2559" type="Const" version="opset1">
			<data element_type="i32" shape="1" offset="16180" size="4" />
			<output>
				<port id="0" precision="I32">
					<dim>1</dim>
				</port>
			</output>
		</layer>
		<layer id="287" name="model/ttl_2/sequential_2/einsum_ttl_2/ReverseV2_1" type="Squeeze" version="opset1">
			<input>
				<port id="0" precision="FP32">
					<dim>1</dim>
					<dim>8</dim>
				</port>
				<port id="1" precision="I32">
					<dim>1</dim>
				</port>
			</input>
			<output>
				<port id="2" precision="FP32">
					<dim>8</dim>
				</port>
			</output>
		</layer>
		<layer id="288" name="model/ttl_2/sequential_2/einsum_ttl_2/einsum_3/Einsum" type="Einsum" version="opset7">
			<data equation="abc,c->ab" />
			<input>
				<port id="0" precision="FP32">
					<dim>1</dim>
					<dim>64</dim>
					<dim>8</dim>
				</port>
				<port id="1" precision="FP32">
					<dim>8</dim>
				</port>
			</input>
			<output>
				<port id="2" precision="FP32">
					<dim>1</dim>
					<dim>64</dim>
				</port>
			</output>
		</layer>
		<layer id="289" name="model/ttl_2/sequential_2/einsum_ttl_2/add_1" type="Add" version="opset1">
			<data auto_broadcast="numpy" />
			<input>
				<port id="0" precision="FP32">
					<dim>1</dim>
					<dim>64</dim>
				</port>
				<port id="1" precision="FP32">
					<dim>1</dim>
					<dim>64</dim>
				</port>
			</input>
			<output>
				<port id="2" precision="FP32">
					<dim>1</dim>
					<dim>64</dim>
				</port>
			</output>
		</layer>
		<layer id="290" name="model/ttl_2/sequential_2/einsum_ttl_2/concat" type="Concat" version="opset1">
			<data axis="1" />
			<input>
				<port id="0" precision="FP32">
					<dim>1</dim>
					<dim>64</dim>
				</port>
				<port id="1" precision="FP32">
					<dim>1</dim>
					<dim>64</dim>
				</port>
			</input>
			<output>
				<port id="2" precision="FP32">
					<dim>1</dim>
					<dim>128</dim>
				</port>
			</output>
		</layer>
		<layer id="291" name="model/ttl_2/sequential_2/flatten_2/Const" type="Const" version="opset1">
			<data element_type="i32" shape="2" offset="16224" size="8" />
			<rt_info>
				<attribute name="precise" version="0" />
			</rt_info>
			<output>
				<port id="0" precision="I32">
					<dim>2</dim>
				</port>
			</output>
		</layer>
		<layer id="292" name="model/ttl_2/sequential_2/flatten_2/Reshape" type="Reshape" version="opset1">
			<data special_zero="false" />
			<input>
				<port id="0" precision="FP32">
					<dim>1</dim>
					<dim>128</dim>
				</port>
				<port id="1" precision="I32">
					<dim>2</dim>
				</port>
			</input>
			<output>
				<port id="2" precision="FP32">
					<dim>1</dim>
					<dim>128</dim>
				</port>
			</output>
		</layer>
		<layer id="293" name="model/ttl_2/sequential_2/tt_dense_2/t3f_matmul/Reshape/shape" type="Const" version="opset1">
			<data element_type="i32" shape="3" offset="16232" size="12" />
			<rt_info>
				<attribute name="precise" version="0" />
			</rt_info>
			<output>
				<port id="0" precision="I32">
					<dim>3</dim>
				</port>
			</output>
		</layer>
		<layer id="294" name="model/ttl_2/sequential_2/tt_dense_2/t3f_matmul/Reshape" type="Reshape" version="opset1">
			<data special_zero="false" />
			<input>
				<port id="0" precision="FP32">
					<dim>1</dim>
					<dim>128</dim>
				</port>
				<port id="1" precision="I32">
					<dim>3</dim>
				</port>
			</input>
			<output>
				<port id="2" precision="FP32">
					<dim>64</dim>
					<dim>2</dim>
					<dim>1</dim>
				</port>
			</output>
		</layer>
		<layer id="295" name="model/ttl_2/sequential_2/tt_dense_2/t3f_matmul/einsum/Einsum" type="Einsum" version="opset7">
			<data equation="aijb,rjb->ira" />
			<input>
				<port id="0" precision="FP32">
					<dim>7</dim>
					<dim>4</dim>
					<dim>2</dim>
					<dim>1</dim>
				</port>
				<port id="1" precision="FP32">
					<dim>64</dim>
					<dim>2</dim>
					<dim>1</dim>
				</port>
			</input>
			<output>
				<port id="2" precision="FP32">
					<dim>4</dim>
					<dim>64</dim>
					<dim>7</dim>
				</port>
			</output>
		</layer>
		<layer id="296" name="model/ttl_2/sequential_2/tt_dense_2/t3f_matmul/Reshape_1/shape" type="Const" version="opset1">
			<data element_type="i32" shape="3" offset="16244" size="12" />
			<rt_info>
				<attribute name="precise" version="0" />
			</rt_info>
			<output>
				<port id="0" precision="I32">
					<dim>3</dim>
				</port>
			</output>
		</layer>
		<layer id="297" name="model/ttl_2/sequential_2/tt_dense_2/t3f_matmul/Reshape_1" type="Reshape" version="opset1">
			<data special_zero="false" />
			<input>
				<port id="0" precision="FP32">
					<dim>4</dim>
					<dim>64</dim>
					<dim>7</dim>
				</port>
				<port id="1" precision="I32">
					<dim>3</dim>
				</port>
			</input>
			<output>
				<port id="2" precision="FP32">
					<dim>128</dim>
					<dim>2</dim>
					<dim>7</dim>
				</port>
			</output>
		</layer>
		<layer id="298" name="model/ttl_2/sequential_2/tt_dense_2/t3f_matmul/einsum_1/Einsum" type="Einsum" version="opset7">
			<data equation="aijb,rjb->ira" />
			<input>
				<port id="0" precision="FP32">
					<dim>16</dim>
					<dim>4</dim>
					<dim>2</dim>
					<dim>7</dim>
				</port>
				<port id="1" precision="FP32">
					<dim>128</dim>
					<dim>2</dim>
					<dim>7</dim>
				</port>
			</input>
			<output>
				<port id="2" precision="FP32">
					<dim>4</dim>
					<dim>128</dim>
					<dim>16</dim>
				</port>
			</output>
		</layer>
		<layer id="299" name="model/ttl_2/sequential_2/tt_dense_2/t3f_matmul/Reshape_2/shape" type="Const" version="opset1">
			<data element_type="i32" shape="3" offset="16256" size="12" />
			<rt_info>
				<attribute name="precise" version="0" />
			</rt_info>
			<output>
				<port id="0" precision="I32">
					<dim>3</dim>
				</port>
			</output>
		</layer>
		<layer id="300" name="model/ttl_2/sequential_2/tt_dense_2/t3f_matmul/Reshape_2" type="Reshape" version="opset1">
			<data special_zero="false" />
			<input>
				<port id="0" precision="FP32">
					<dim>4</dim>
					<dim>128</dim>
					<dim>16</dim>
				</port>
				<port id="1" precision="I32">
					<dim>3</dim>
				</port>
			</input>
			<output>
				<port id="2" precision="FP32">
					<dim>256</dim>
					<dim>2</dim>
					<dim>16</dim>
				</port>
			</output>
		</layer>
		<layer id="301" name="model/ttl_2/sequential_2/tt_dense_2/t3f_matmul/einsum_2/Einsum" type="Einsum" version="opset7">
			<data equation="aijb,rjb->ira" />
			<input>
				<port id="0" precision="FP32">
					<dim>16</dim>
					<dim>4</dim>
					<dim>2</dim>
					<dim>16</dim>
				</port>
				<port id="1" precision="FP32">
					<dim>256</dim>
					<dim>2</dim>
					<dim>16</dim>
				</port>
			</input>
			<output>
				<port id="2" precision="FP32">
					<dim>4</dim>
					<dim>256</dim>
					<dim>16</dim>
				</port>
			</output>
		</layer>
		<layer id="302" name="model/ttl_2/sequential_2/tt_dense_2/t3f_matmul/Reshape_3/shape" type="Const" version="opset1">
			<data element_type="i32" shape="3" offset="16256" size="12" />
			<rt_info>
				<attribute name="precise" version="0" />
			</rt_info>
			<output>
				<port id="0" precision="I32">
					<dim>3</dim>
				</port>
			</output>
		</layer>
		<layer id="303" name="model/ttl_2/sequential_2/tt_dense_2/t3f_matmul/Reshape_3" type="Reshape" version="opset1">
			<data special_zero="false" />
			<input>
				<port id="0" precision="FP32">
					<dim>4</dim>
					<dim>256</dim>
					<dim>16</dim>
				</port>
				<port id="1" precision="I32">
					<dim>3</dim>
				</port>
			</input>
			<output>
				<port id="2" precision="FP32">
					<dim>512</dim>
					<dim>2</dim>
					<dim>16</dim>
				</port>
			</output>
		</layer>
		<layer id="304" name="model/ttl_2/sequential_2/tt_dense_2/t3f_matmul/einsum_3/Einsum" type="Einsum" version="opset7">
			<data equation="aijb,rjb->ira" />
			<input>
				<port id="0" precision="FP32">
					<dim>16</dim>
					<dim>4</dim>
					<dim>2</dim>
					<dim>16</dim>
				</port>
				<port id="1" precision="FP32">
					<dim>512</dim>
					<dim>2</dim>
					<dim>16</dim>
				</port>
			</input>
			<output>
				<port id="2" precision="FP32">
					<dim>4</dim>
					<dim>512</dim>
					<dim>16</dim>
				</port>
			</output>
		</layer>
		<layer id="305" name="model/ttl_2/sequential_2/tt_dense_2/t3f_matmul/Reshape_4/shape" type="Const" version="opset1">
			<data element_type="i32" shape="3" offset="16256" size="12" />
			<rt_info>
				<attribute name="precise" version="0" />
			</rt_info>
			<output>
				<port id="0" precision="I32">
					<dim>3</dim>
				</port>
			</output>
		</layer>
		<layer id="306" name="model/ttl_2/sequential_2/tt_dense_2/t3f_matmul/Reshape_4" type="Reshape" version="opset1">
			<data special_zero="false" />
			<input>
				<port id="0" precision="FP32">
					<dim>4</dim>
					<dim>512</dim>
					<dim>16</dim>
				</port>
				<port id="1" precision="I32">
					<dim>3</dim>
				</port>
			</input>
			<output>
				<port id="2" precision="FP32">
					<dim>1024</dim>
					<dim>2</dim>
					<dim>16</dim>
				</port>
			</output>
		</layer>
		<layer id="307" name="model/ttl_2/sequential_2/tt_dense_2/t3f_matmul/einsum_4/Einsum" type="Einsum" version="opset7">
			<data equation="aijb,rjb->ira" />
			<input>
				<port id="0" precision="FP32">
					<dim>16</dim>
					<dim>4</dim>
					<dim>2</dim>
					<dim>16</dim>
				</port>
				<port id="1" precision="FP32">
					<dim>1024</dim>
					<dim>2</dim>
					<dim>16</dim>
				</port>
			</input>
			<output>
				<port id="2" precision="FP32">
					<dim>4</dim>
					<dim>1024</dim>
					<dim>16</dim>
				</port>
			</output>
		</layer>
		<layer id="308" name="model/ttl_2/sequential_2/tt_dense_2/t3f_matmul/Reshape_5/shape" type="Const" version="opset1">
			<data element_type="i32" shape="3" offset="16256" size="12" />
			<rt_info>
				<attribute name="precise" version="0" />
			</rt_info>
			<output>
				<port id="0" precision="I32">
					<dim>3</dim>
				</port>
			</output>
		</layer>
		<layer id="309" name="model/ttl_2/sequential_2/tt_dense_2/t3f_matmul/Reshape_5" type="Reshape" version="opset1">
			<data special_zero="false" />
			<input>
				<port id="0" precision="FP32">
					<dim>4</dim>
					<dim>1024</dim>
					<dim>16</dim>
				</port>
				<port id="1" precision="I32">
					<dim>3</dim>
				</port>
			</input>
			<output>
				<port id="2" precision="FP32">
					<dim>2048</dim>
					<dim>2</dim>
					<dim>16</dim>
				</port>
			</output>
		</layer>
		<layer id="310" name="model/ttl_2/sequential_2/tt_dense_2/t3f_matmul/einsum_5/Einsum" type="Einsum" version="opset7">
			<data equation="aijb,rjb->ira" />
			<input>
				<port id="0" precision="FP32">
					<dim>7</dim>
					<dim>4</dim>
					<dim>2</dim>
					<dim>16</dim>
				</port>
				<port id="1" precision="FP32">
					<dim>2048</dim>
					<dim>2</dim>
					<dim>16</dim>
				</port>
			</input>
			<output>
				<port id="2" precision="FP32">
					<dim>4</dim>
					<dim>2048</dim>
					<dim>7</dim>
				</port>
			</output>
		</layer>
		<layer id="311" name="model/ttl_2/sequential_2/tt_dense_2/t3f_matmul/Reshape_6/shape" type="Const" version="opset1">
			<data element_type="i32" shape="3" offset="16244" size="12" />
			<rt_info>
				<attribute name="precise" version="0" />
			</rt_info>
			<output>
				<port id="0" precision="I32">
					<dim>3</dim>
				</port>
			</output>
		</layer>
		<layer id="312" name="model/ttl_2/sequential_2/tt_dense_2/t3f_matmul/Reshape_6" type="Reshape" version="opset1">
			<data special_zero="false" />
			<input>
				<port id="0" precision="FP32">
					<dim>4</dim>
					<dim>2048</dim>
					<dim>7</dim>
				</port>
				<port id="1" precision="I32">
					<dim>3</dim>
				</port>
			</input>
			<output>
				<port id="2" precision="FP32">
					<dim>4096</dim>
					<dim>2</dim>
					<dim>7</dim>
				</port>
			</output>
		</layer>
		<layer id="313" name="model/ttl_2/sequential_2/tt_dense_2/t3f_matmul/einsum_6/Einsum" type="Einsum" version="opset7">
			<data equation="aijb,rjb->ira" />
			<input>
				<port id="0" precision="FP32">
					<dim>1</dim>
					<dim>4</dim>
					<dim>2</dim>
					<dim>7</dim>
				</port>
				<port id="1" precision="FP32">
					<dim>4096</dim>
					<dim>2</dim>
					<dim>7</dim>
				</port>
			</input>
			<output>
				<port id="2" precision="FP32">
					<dim>4</dim>
					<dim>4096</dim>
					<dim>1</dim>
				</port>
			</output>
		</layer>
		<layer id="314" name="model/ttl_2/sequential_2/reshape_2/Reshape/shape" type="Const" version="opset1">
			<data element_type="i32" shape="3" offset="16268" size="12" />
			<rt_info>
				<attribute name="precise" version="0" />
			</rt_info>
			<output>
				<port id="0" precision="I32">
					<dim>3</dim>
				</port>
			</output>
		</layer>
		<layer id="315" name="model/ttl_2/sequential_2/reshape_2/Reshape" type="Reshape" version="opset1">
			<data special_zero="false" />
			<input>
				<port id="0" precision="FP32">
					<dim>4</dim>
					<dim>4096</dim>
					<dim>1</dim>
				</port>
				<port id="1" precision="I32">
					<dim>3</dim>
				</port>
			</input>
			<output>
				<port id="2" precision="FP32">
					<dim>1</dim>
					<dim>256</dim>
					<dim>64</dim>
				</port>
			</output>
		</layer>
		<layer id="316" name="model/tf.__operators__.getitem_3/strided_slice/stack" type="Const" version="opset1">
			<data element_type="i32" shape="2" offset="46964" size="8" />
			<rt_info>
				<attribute name="precise" version="0" />
			</rt_info>
			<output>
				<port id="0" precision="I32">
					<dim>2</dim>
				</port>
			</output>
		</layer>
		<layer id="317" name="model/tf.__operators__.getitem_3/strided_slice/stack_1" type="Const" version="opset1">
			<data element_type="i32" shape="2" offset="63100" size="8" />
			<rt_info>
				<attribute name="precise" version="0" />
			</rt_info>
			<output>
				<port id="0" precision="I32">
					<dim>2</dim>
				</port>
			</output>
		</layer>
		<layer id="318" name="model/tf.__operators__.getitem_3/strided_slice/stack_2" type="Const" version="opset1">
			<data element_type="i32" shape="2" offset="30828" size="8" />
			<rt_info>
				<attribute name="precise" version="0" />
			</rt_info>
			<output>
				<port id="0" precision="I32">
					<dim>2</dim>
				</port>
			</output>
		</layer>
		<layer id="319" name="model/tf.__operators__.getitem_3/strided_slice" type="StridedSlice" version="opset1">
			<data begin_mask="0, 0" end_mask="0, 0" new_axis_mask="0, 0" shrink_axis_mask="0, 1" ellipsis_mask="1, 0" />
			<input>
				<port id="0" precision="FP32">
					<dim>1</dim>
					<dim>1</dim>
					<dim>1</dim>
					<dim>20</dim>
				</port>
				<port id="1" precision="I32">
					<dim>2</dim>
				</port>
				<port id="2" precision="I32">
					<dim>2</dim>
				</port>
				<port id="3" precision="I32">
					<dim>2</dim>
				</port>
			</input>
			<output>
				<port id="4" precision="FP32">
					<dim>1</dim>
					<dim>1</dim>
					<dim>1</dim>
				</port>
			</output>
		</layer>
		<layer id="320" name="model/multiply_2/mul" type="Multiply" version="opset1">
			<data auto_broadcast="numpy" />
			<input>
				<port id="0" precision="FP32">
					<dim>1</dim>
					<dim>256</dim>
					<dim>64</dim>
				</port>
				<port id="1" precision="FP32">
					<dim>1</dim>
					<dim>1</dim>
					<dim>1</dim>
				</port>
			</input>
			<output>
				<port id="2" precision="FP32">
					<dim>1</dim>
					<dim>256</dim>
					<dim>64</dim>
				</port>
			</output>
		</layer>
		<layer id="321" name="model/add/add_1" type="Add" version="opset1">
			<data auto_broadcast="numpy" />
			<input>
				<port id="0" precision="FP32">
					<dim>1</dim>
					<dim>256</dim>
					<dim>64</dim>
				</port>
				<port id="1" precision="FP32">
					<dim>1</dim>
					<dim>256</dim>
					<dim>64</dim>
				</port>
			</input>
			<output>
				<port id="2" precision="FP32">
					<dim>1</dim>
					<dim>256</dim>
					<dim>64</dim>
				</port>
			</output>
		</layer>
		<layer id="322" name="model/ttl_3/sequential_3/tt_dense_3/t3f_matmul/t3f_transpose/transpose_compressed" type="Const" version="opset1">
			<data element_type="f16" shape="1, 4, 2, 7" offset="63108" size="112" />
			<output>
				<port id="0" precision="FP16">
					<dim>1</dim>
					<dim>4</dim>
					<dim>2</dim>
					<dim>7</dim>
				</port>
			</output>
		</layer>
		<layer id="323" name="model/ttl_3/sequential_3/tt_dense_3/t3f_matmul/t3f_transpose/transpose" type="Convert" version="opset1">
			<data destination_type="f32" />
			<rt_info>
				<attribute name="decompression" version="0" />
			</rt_info>
			<input>
				<port id="0" precision="FP16">
					<dim>1</dim>
					<dim>4</dim>
					<dim>2</dim>
					<dim>7</dim>
				</port>
			</input>
			<output>
				<port id="1" precision="FP32">
					<dim>1</dim>
					<dim>4</dim>
					<dim>2</dim>
					<dim>7</dim>
				</port>
			</output>
		</layer>
		<layer id="324" name="model/ttl_3/sequential_3/tt_dense_3/t3f_matmul/t3f_transpose/transpose_1_compressed" type="Const" version="opset1">
			<data element_type="f16" shape="7, 4, 2, 16" offset="63220" size="1792" />
			<output>
				<port id="0" precision="FP16">
					<dim>7</dim>
					<dim>4</dim>
					<dim>2</dim>
					<dim>16</dim>
				</port>
			</output>
		</layer>
		<layer id="325" name="model/ttl_3/sequential_3/tt_dense_3/t3f_matmul/t3f_transpose/transpose_1" type="Convert" version="opset1">
			<data destination_type="f32" />
			<rt_info>
				<attribute name="decompression" version="0" />
			</rt_info>
			<input>
				<port id="0" precision="FP16">
					<dim>7</dim>
					<dim>4</dim>
					<dim>2</dim>
					<dim>16</dim>
				</port>
			</input>
			<output>
				<port id="1" precision="FP32">
					<dim>7</dim>
					<dim>4</dim>
					<dim>2</dim>
					<dim>16</dim>
				</port>
			</output>
		</layer>
		<layer id="326" name="model/ttl_3/sequential_3/tt_dense_3/t3f_matmul/t3f_transpose/transpose_2_compressed" type="Const" version="opset1">
			<data element_type="f16" shape="16, 4, 2, 16" offset="65012" size="4096" />
			<output>
				<port id="0" precision="FP16">
					<dim>16</dim>
					<dim>4</dim>
					<dim>2</dim>
					<dim>16</dim>
				</port>
			</output>
		</layer>
		<layer id="327" name="model/ttl_3/sequential_3/tt_dense_3/t3f_matmul/t3f_transpose/transpose_2" type="Convert" version="opset1">
			<data destination_type="f32" />
			<rt_info>
				<attribute name="decompression" version="0" />
			</rt_info>
			<input>
				<port id="0" precision="FP16">
					<dim>16</dim>
					<dim>4</dim>
					<dim>2</dim>
					<dim>16</dim>
				</port>
			</input>
			<output>
				<port id="1" precision="FP32">
					<dim>16</dim>
					<dim>4</dim>
					<dim>2</dim>
					<dim>16</dim>
				</port>
			</output>
		</layer>
		<layer id="328" name="model/ttl_3/sequential_3/tt_dense_3/t3f_matmul/t3f_transpose/transpose_3_compressed" type="Const" version="opset1">
			<data element_type="f16" shape="16, 4, 2, 16" offset="69108" size="4096" />
			<output>
				<port id="0" precision="FP16">
					<dim>16</dim>
					<dim>4</dim>
					<dim>2</dim>
					<dim>16</dim>
				</port>
			</output>
		</layer>
		<layer id="329" name="model/ttl_3/sequential_3/tt_dense_3/t3f_matmul/t3f_transpose/transpose_3" type="Convert" version="opset1">
			<data destination_type="f32" />
			<rt_info>
				<attribute name="decompression" version="0" />
			</rt_info>
			<input>
				<port id="0" precision="FP16">
					<dim>16</dim>
					<dim>4</dim>
					<dim>2</dim>
					<dim>16</dim>
				</port>
			</input>
			<output>
				<port id="1" precision="FP32">
					<dim>16</dim>
					<dim>4</dim>
					<dim>2</dim>
					<dim>16</dim>
				</port>
			</output>
		</layer>
		<layer id="330" name="model/ttl_3/sequential_3/tt_dense_3/t3f_matmul/t3f_transpose/transpose_4_compressed" type="Const" version="opset1">
			<data element_type="f16" shape="16, 4, 2, 16" offset="73204" size="4096" />
			<output>
				<port id="0" precision="FP16">
					<dim>16</dim>
					<dim>4</dim>
					<dim>2</dim>
					<dim>16</dim>
				</port>
			</output>
		</layer>
		<layer id="331" name="model/ttl_3/sequential_3/tt_dense_3/t3f_matmul/t3f_transpose/transpose_4" type="Convert" version="opset1">
			<data destination_type="f32" />
			<rt_info>
				<attribute name="decompression" version="0" />
			</rt_info>
			<input>
				<port id="0" precision="FP16">
					<dim>16</dim>
					<dim>4</dim>
					<dim>2</dim>
					<dim>16</dim>
				</port>
			</input>
			<output>
				<port id="1" precision="FP32">
					<dim>16</dim>
					<dim>4</dim>
					<dim>2</dim>
					<dim>16</dim>
				</port>
			</output>
		</layer>
		<layer id="332" name="model/ttl_3/sequential_3/tt_dense_3/t3f_matmul/t3f_transpose/transpose_5_compressed" type="Const" version="opset1">
			<data element_type="f16" shape="16, 4, 2, 7" offset="77300" size="1792" />
			<output>
				<port id="0" precision="FP16">
					<dim>16</dim>
					<dim>4</dim>
					<dim>2</dim>
					<dim>7</dim>
				</port>
			</output>
		</layer>
		<layer id="333" name="model/ttl_3/sequential_3/tt_dense_3/t3f_matmul/t3f_transpose/transpose_5" type="Convert" version="opset1">
			<data destination_type="f32" />
			<rt_info>
				<attribute name="decompression" version="0" />
			</rt_info>
			<input>
				<port id="0" precision="FP16">
					<dim>16</dim>
					<dim>4</dim>
					<dim>2</dim>
					<dim>7</dim>
				</port>
			</input>
			<output>
				<port id="1" precision="FP32">
					<dim>16</dim>
					<dim>4</dim>
					<dim>2</dim>
					<dim>7</dim>
				</port>
			</output>
		</layer>
		<layer id="334" name="model/ttl_3/sequential_3/tt_dense_3/t3f_matmul/t3f_transpose/transpose_6_compressed" type="Const" version="opset1">
			<data element_type="f16" shape="7, 4, 2, 1" offset="79092" size="112" />
			<output>
				<port id="0" precision="FP16">
					<dim>7</dim>
					<dim>4</dim>
					<dim>2</dim>
					<dim>1</dim>
				</port>
			</output>
		</layer>
		<layer id="335" name="model/ttl_3/sequential_3/tt_dense_3/t3f_matmul/t3f_transpose/transpose_6" type="Convert" version="opset1">
			<data destination_type="f32" />
			<rt_info>
				<attribute name="decompression" version="0" />
			</rt_info>
			<input>
				<port id="0" precision="FP16">
					<dim>7</dim>
					<dim>4</dim>
					<dim>2</dim>
					<dim>1</dim>
				</port>
			</input>
			<output>
				<port id="1" precision="FP32">
					<dim>7</dim>
					<dim>4</dim>
					<dim>2</dim>
					<dim>1</dim>
				</port>
			</output>
		</layer>
		<layer id="336" name="model/ttl_3/sequential_3/einsum_ttl_3/strided_slice/stack" type="Const" version="opset1">
			<data element_type="i32" shape="3" offset="16100" size="12" />
			<rt_info>
				<attribute name="precise" version="0" />
			</rt_info>
			<output>
				<port id="0" precision="I32">
					<dim>3</dim>
				</port>
			</output>
		</layer>
		<layer id="337" name="model/ttl_3/sequential_3/einsum_ttl_3/strided_slice/stack_1" type="Const" version="opset1">
			<data element_type="i32" shape="3" offset="16112" size="12" />
			<rt_info>
				<attribute name="precise" version="0" />
			</rt_info>
			<output>
				<port id="0" precision="I32">
					<dim>3</dim>
				</port>
			</output>
		</layer>
		<layer id="338" name="model/ttl_3/sequential_3/einsum_ttl_3/strided_slice/stack_2" type="Const" version="opset1">
			<data element_type="i32" shape="3" offset="16124" size="12" />
			<rt_info>
				<attribute name="precise" version="0" />
			</rt_info>
			<output>
				<port id="0" precision="I32">
					<dim>3</dim>
				</port>
			</output>
		</layer>
		<layer id="339" name="model/ttl_3/sequential_3/einsum_ttl_3/strided_slice" type="StridedSlice" version="opset1">
			<data begin_mask="1, 1, 1" end_mask="1, 0, 0" new_axis_mask="0, 0, 0" shrink_axis_mask="0, 0, 0" ellipsis_mask="0, 0, 0" />
			<input>
				<port id="0" precision="FP32">
					<dim>1</dim>
					<dim>128</dim>
					<dim>16</dim>
				</port>
				<port id="1" precision="I32">
					<dim>3</dim>
				</port>
				<port id="2" precision="I32">
					<dim>3</dim>
				</port>
				<port id="3" precision="I32">
					<dim>3</dim>
				</port>
			</input>
			<output>
				<port id="4" precision="FP32">
					<dim>1</dim>
					<dim>64</dim>
					<dim>8</dim>
				</port>
			</output>
		</layer>
		<layer id="340" name="model/ttl_3/sequential_3/einsum_ttl_3/strided_slice_1_compressed" type="Const" version="opset1">
			<data element_type="f16" shape="8" offset="79204" size="16" />
			<output>
				<port id="0" precision="FP16">
					<dim>8</dim>
				</port>
			</output>
		</layer>
		<layer id="341" name="model/ttl_3/sequential_3/einsum_ttl_3/strided_slice_1" type="Convert" version="opset1">
			<data destination_type="f32" />
			<rt_info>
				<attribute name="decompression" version="0" />
			</rt_info>
			<input>
				<port id="0" precision="FP16">
					<dim>8</dim>
				</port>
			</input>
			<output>
				<port id="1" precision="FP32">
					<dim>8</dim>
				</port>
			</output>
		</layer>
		<layer id="342" name="model/ttl_3/sequential_3/einsum_ttl_3/einsum/Einsum" type="Einsum" version="opset7">
			<data equation="abc,c->ab" />
			<input>
				<port id="0" precision="FP32">
					<dim>1</dim>
					<dim>64</dim>
					<dim>8</dim>
				</port>
				<port id="1" precision="FP32">
					<dim>8</dim>
				</port>
			</input>
			<output>
				<port id="2" precision="FP32">
					<dim>1</dim>
					<dim>64</dim>
				</port>
			</output>
		</layer>
		<layer id="343" name="model/ttl_3/sequential_3/einsum_ttl_3/strided_slice_2/stack" type="Const" version="opset1">
			<data element_type="i32" shape="3" offset="16152" size="12" />
			<rt_info>
				<attribute name="precise" version="0" />
			</rt_info>
			<output>
				<port id="0" precision="I32">
					<dim>3</dim>
				</port>
			</output>
		</layer>
		<layer id="344" name="model/ttl_3/sequential_3/einsum_ttl_3/strided_slice_2/stack_1" type="Const" version="opset1">
			<data element_type="i32" shape="3" offset="16164" size="12" />
			<rt_info>
				<attribute name="precise" version="0" />
			</rt_info>
			<output>
				<port id="0" precision="I32">
					<dim>3</dim>
				</port>
			</output>
		</layer>
		<layer id="345" name="model/ttl_3/sequential_3/einsum_ttl_3/strided_slice_2/stack_2" type="Const" version="opset1">
			<data element_type="i32" shape="3" offset="16124" size="12" />
			<rt_info>
				<attribute name="precise" version="0" />
			</rt_info>
			<output>
				<port id="0" precision="I32">
					<dim>3</dim>
				</port>
			</output>
		</layer>
		<layer id="346" name="model/ttl_3/sequential_3/einsum_ttl_3/strided_slice_2" type="StridedSlice" version="opset1">
			<data begin_mask="1, 1" end_mask="1, 0" new_axis_mask="0, 0" shrink_axis_mask="0, 0" ellipsis_mask="0, 0" />
			<input>
				<port id="0" precision="FP32">
					<dim>1</dim>
					<dim>128</dim>
					<dim>16</dim>
				</port>
				<port id="1" precision="I32">
					<dim>3</dim>
				</port>
				<port id="2" precision="I32">
					<dim>3</dim>
				</port>
				<port id="3" precision="I32">
					<dim>3</dim>
				</port>
			</input>
			<output>
				<port id="4" precision="FP32">
					<dim>1</dim>
					<dim>64</dim>
					<dim>8</dim>
				</port>
			</output>
		</layer>
		<layer id="347" name="Unsqueeze_2449_compressed" type="Const" version="opset1">
			<data element_type="f16" shape="1, 8" offset="79204" size="16" />
			<output>
				<port id="0" precision="FP16">
					<dim>1</dim>
					<dim>8</dim>
				</port>
			</output>
		</layer>
…
		<edge from-layer="1061" from-port="0" to-layer="1062" to-port="1" />
		<edge from-layer="1062" from-port="2" to-layer="1063" to-port="1" />
		<edge from-layer="1063" from-port="2" to-layer="1065" to-port="0" />
		<edge from-layer="1064" from-port="0" to-layer="1065" to-port="1" />
		<edge from-layer="1065" from-port="2" to-layer="1066" to-port="1" />
		<edge from-layer="1066" from-port="2" to-layer="1068" to-port="0" />
		<edge from-layer="1067" from-port="0" to-layer="1068" to-port="1" />
		<edge from-layer="1068" from-port="2" to-layer="1069" to-port="1" />
		<edge from-layer="1069" from-port="2" to-layer="1071" to-port="0" />
		<edge from-layer="1070" from-port="0" to-layer="1071" to-port="1" />
		<edge from-layer="1071" from-port="2" to-layer="1076" to-port="0" />
		<edge from-layer="1072" from-port="0" to-layer="1075" to-port="1" />
		<edge from-layer="1073" from-port="0" to-layer="1075" to-port="2" />
		<edge from-layer="1074" from-port="0" to-layer="1075" to-port="3" />
		<edge from-layer="1075" from-port="4" to-layer="1076" to-port="1" />
		<edge from-layer="1076" from-port="2" to-layer="1077" to-port="1" />
		<edge from-layer="1077" from-port="2" to-layer="1161" to-port="0" />
		<edge from-layer="1078" from-port="0" to-layer="1079" to-port="0" />
		<edge from-layer="1079" from-port="1" to-layer="1153" to-port="0" />
		<edge from-layer="1080" from-port="0" to-layer="1081" to-port="0" />
		<edge from-layer="1081" from-port="1" to-layer="1150" to-port="0" />
		<edge from-layer="1082" from-port="0" to-layer="1083" to-port="0" />
		<edge from-layer="1083" from-port="1" to-layer="1147" to-port="0" />
		<edge from-layer="1084" from-port="0" to-layer="1085" to-port="0" />
		<edge from-layer="1085" from-port="1" to-layer="1144" to-port="0" />
		<edge from-layer="1086" from-port="0" to-layer="1087" to-port="0" />
		<edge from-layer="1087" from-port="1" to-layer="1141" to-port="0" />
		<edge from-layer="1088" from-port="0" to-layer="1089" to-port="0" />
		<edge from-layer="1089" from-port="1" to-layer="1138" to-port="0" />
		<edge from-layer="1090" from-port="0" to-layer="1091" to-port="0" />
		<edge from-layer="1091" from-port="1" to-layer="1135" to-port="0" />
		<edge from-layer="1092" from-port="0" to-layer="1095" to-port="1" />
		<edge from-layer="1093" from-port="0" to-layer="1095" to-port="2" />
		<edge from-layer="1094" from-port="0" to-layer="1095" to-port="3" />
		<edge from-layer="1095" from-port="4" to-layer="1098" to-port="0" />
		<edge from-layer="1096" from-port="0" to-layer="1097" to-port="0" />
		<edge from-layer="1097" from-port="1" to-layer="1098" to-port="1" />
		<edge from-layer="1098" from-port="2" to-layer="1110" to-port="0" />
		<edge from-layer="1099" from-port="0" to-layer="1102" to-port="1" />
		<edge from-layer="1100" from-port="0" to-layer="1102" to-port="2" />
		<edge from-layer="1101" from-port="0" to-layer="1102" to-port="3" />
		<edge from-layer="1102" from-port="4" to-layer="1109" to-port="0" />
		<edge from-layer="1103" from-port="0" to-layer="1104" to-port="0" />
		<edge from-layer="1104" from-port="1" to-layer="1106" to-port="0" />
		<edge from-layer="1105" from-port="0" to-layer="1106" to-port="1" />
		<edge from-layer="1106" from-port="2" to-layer="1108" to-port="0" />
		<edge from-layer="1107" from-port="0" to-layer="1108" to-port="1" />
		<edge from-layer="1108" from-port="2" to-layer="1109" to-port="1" />
		<edge from-layer="1109" from-port="2" to-layer="1110" to-port="1" />
		<edge from-layer="1110" from-port="2" to-layer="1130" to-port="0" />
		<edge from-layer="1111" from-port="0" to-layer="1114" to-port="1" />
		<edge from-layer="1112" from-port="0" to-layer="1114" to-port="2" />
		<edge from-layer="1113" from-port="0" to-layer="1114" to-port="3" />
		<edge from-layer="1114" from-port="4" to-layer="1117" to-port="0" />
		<edge from-layer="1115" from-port="0" to-layer="1116" to-port="0" />
		<edge from-layer="1116" from-port="1" to-layer="1117" to-port="1" />
		<edge from-layer="1117" from-port="2" to-layer="1129" to-port="0" />
		<edge from-layer="1118" from-port="0" to-layer="1121" to-port="1" />
		<edge from-layer="1119" from-port="0" to-layer="1121" to-port="2" />
		<edge from-layer="1120" from-port="0" to-layer="1121" to-port="3" />
		<edge from-layer="1121" from-port="4" to-layer="1128" to-port="0" />
		<edge from-layer="1122" from-port="0" to-layer="1123" to-port="0" />
		<edge from-layer="1123" from-port="1" to-layer="1125" to-port="0" />
		<edge from-layer="1124" from-port="0" to-layer="1125" to-port="1" />
		<edge from-layer="1125" from-port="2" to-layer="1127" to-port="0" />
		<edge from-layer="1126" from-port="0" to-layer="1127" to-port="1" />
		<edge from-layer="1127" from-port="2" to-layer="1128" to-port="1" />
		<edge from-layer="1128" from-port="2" to-layer="1129" to-port="1" />
		<edge from-layer="1129" from-port="2" to-layer="1130" to-port="1" />
		<edge from-layer="1130" from-port="2" to-layer="1132" to-port="0" />
		<edge from-layer="1131" from-port="0" to-layer="1132" to-port="1" />
		<edge from-layer="1132" from-port="2" to-layer="1134" to-port="0" />
		<edge from-layer="1133" from-port="0" to-layer="1134" to-port="1" />
		<edge from-layer="1134" from-port="2" to-layer="1135" to-port="1" />
		<edge from-layer="1135" from-port="2" to-layer="1137" to-port="0" />
		<edge from-layer="1136" from-port="0" to-layer="1137" to-port="1" />
		<edge from-layer="1137" from-port="2" to-layer="1138" to-port="1" />
		<edge from-layer="1138" from-port="2" to-layer="1140" to-port="0" />
		<edge from-layer="1139" from-port="0" to-layer="1140" to-port="1" />
		<edge from-layer="1140" from-port="2" to-layer="1141" to-port="1" />
		<edge from-layer="1141" from-port="2" to-layer="1143" to-port="0" />
		<edge from-layer="1142" from-port="0" to-layer="1143" to-port="1" />
		<edge from-layer="1143" from-port="2" to-layer="1144" to-port="1" />
		<edge from-layer="1144" from-port="2" to-layer="1146" to-port="0" />
		<edge from-layer="1145" from-port="0" to-layer="1146" to-port="1" />
		<edge from-layer="1146" from-port="2" to-layer="1147" to-port="1" />
		<edge from-layer="1147" from-port="2" to-layer="1149" to-port="0" />
		<edge from-layer="1148" from-port="0" to-layer="1149" to-port="1" />
		<edge from-layer="1149" from-port="2" to-layer="1150" to-port="1" />
		<edge from-layer="1150" from-port="2" to-layer="1152" to-port="0" />
		<edge from-layer="1151" from-port="0" to-layer="1152" to-port="1" />
		<edge from-layer="1152" from-port="2" to-layer="1153" to-port="1" />
		<edge from-layer="1153" from-port="2" to-layer="1155" to-port="0" />
		<edge from-layer="1154" from-port="0" to-layer="1155" to-port="1" />
		<edge from-layer="1155" from-port="2" to-layer="1160" to-port="0" />
		<edge from-layer="1156" from-port="0" to-layer="1159" to-port="1" />
		<edge from-layer="1157" from-port="0" to-layer="1159" to-port="2" />
		<edge from-layer="1158" from-port="0" to-layer="1159" to-port="3" />
		<edge from-layer="1159" from-port="4" to-layer="1160" to-port="1" />
		<edge from-layer="1160" from-port="2" to-layer="1161" to-port="1" />
		<edge from-layer="1161" from-port="2" to-layer="1245" to-port="0" />
		<edge from-layer="1162" from-port="0" to-layer="1163" to-port="0" />
		<edge from-layer="1163" from-port="1" to-layer="1237" to-port="0" />
		<edge from-layer="1164" from-port="0" to-layer="1165" to-port="0" />
		<edge from-layer="1165" from-port="1" to-layer="1234" to-port="0" />
		<edge from-layer="1166" from-port="0" to-layer="1167" to-port="0" />
		<edge from-layer="1167" from-port="1" to-layer="1231" to-port="0" />
		<edge from-layer="1168" from-port="0" to-layer="1169" to-port="0" />
		<edge from-layer="1169" from-port="1" to-layer="1228" to-port="0" />
		<edge from-layer="1170" from-port="0" to-layer="1171" to-port="0" />
		<edge from-layer="1171" from-port="1" to-layer="1225" to-port="0" />
		<edge from-layer="1172" from-port="0" to-layer="1173" to-port="0" />
		<edge from-layer="1173" from-port="1" to-layer="1222" to-port="0" />
		<edge from-layer="1174" from-port="0" to-layer="1175" to-port="0" />
		<edge from-layer="1175" from-port="1" to-layer="1219" to-port="0" />
		<edge from-layer="1176" from-port="0" to-layer="1179" to-port="1" />
		<edge from-layer="1177" from-port="0" to-layer="1179" to-port="2" />
		<edge from-layer="1178" from-port="0" to-layer="1179" to-port="3" />
		<edge from-layer="1179" from-port="4" to-layer="1182" to-port="0" />
		<edge from-layer="1180" from-port="0" to-layer="1181" to-port="0" />
		<edge from-layer="1181" from-port="1" to-layer="1182" to-port="1" />
		<edge from-layer="1182" from-port="2" to-layer="1194" to-port="0" />
		<edge from-layer="1183" from-port="0" to-layer="1186" to-port="1" />
		<edge from-layer="1184" from-port="0" to-layer="1186" to-port="2" />
		<edge from-layer="1185" from-port="0" to-layer="1186" to-port="3" />
		<edge from-layer="1186" from-port="4" to-layer="1193" to-port="0" />
		<edge from-layer="1187" from-port="0" to-layer="1188" to-port="0" />
		<edge from-layer="1188" from-port="1" to-layer="1190" to-port="0" />
		<edge from-layer="1189" from-port="0" to-layer="1190" to-port="1" />
		<edge from-layer="1190" from-port="2" to-layer="1192" to-port="0" />
		<edge from-layer="1191" from-port="0" to-layer="1192" to-port="1" />
		<edge from-layer="1192" from-port="2" to-layer="1193" to-port="1" />
		<edge from-layer="1193" from-port="2" to-layer="1194" to-port="1" />
		<edge from-layer="1194" from-port="2" to-layer="1214" to-port="0" />
		<edge from-layer="1195" from-port="0" to-layer="1198" to-port="1" />
		<edge from-layer="1196" from-port="0" to-layer="1198" to-port="2" />
		<edge from-layer="1197" from-port="0" to-layer="1198" to-port="3" />
		<edge from-layer="1198" from-port="4" to-layer="1201" to-port="0" />
		<edge from-layer="1199" from-port="0" to-layer="1200" to-port="0" />
		<edge from-layer="1200" from-port="1" to-layer="1201" to-port="1" />
		<edge from-layer="1201" from-port="2" to-layer="1213" to-port="0" />
		<edge from-layer="1202" from-port="0" to-layer="1205" to-port="1" />
		<edge from-layer="1203" from-port="0" to-layer="1205" to-port="2" />
		<edge from-layer="1204" from-port="0" to-layer="1205" to-port="3" />
		<edge from-layer="1205" from-port="4" to-layer="1212" to-port="0" />
		<edge from-layer="1206" from-port="0" to-layer="1207" to-port="0" />
		<edge from-layer="1207" from-port="1" to-layer="1209" to-port="0" />
		<edge from-layer="1208" from-port="0" to-layer="1209" to-port="1" />
		<edge from-layer="1209" from-port="2" to-layer="1211" to-port="0" />
		<edge from-layer="1210" from-port="0" to-layer="1211" to-port="1" />
		<edge from-layer="1211" from-port="2" to-layer="1212" to-port="1" />
		<edge from-layer="1212" from-port="2" to-layer="1213" to-port="1" />
		<edge from-layer="1213" from-port="2" to-layer="1214" to-port="1" />
		<edge from-layer="1214" from-port="2" to-layer="1216" to-port="0" />
		<edge from-layer="1215" from-port="0" to-layer="1216" to-port="1" />
		<edge from-layer="1216" from-port="2" to-layer="1218" to-port="0" />
		<edge from-layer="1217" from-port="0" to-layer="1218" to-port="1" />
		<edge from-layer="1218" from-port="2" to-layer="1219" to-port="1" />
		<edge from-layer="1219" from-port="2" to-layer="1221" to-port="0" />
		<edge from-layer="1220" from-port="0" to-layer="1221" to-port="1" />
		<edge from-layer="1221" from-port="2" to-layer="1222" to-port="1" />
		<edge from-layer="1222" from-port="2" to-layer="1224" to-port="0" />
		<edge from-layer="1223" from-port="0" to-layer="1224" to-port="1" />
		<edge from-layer="1224" from-port="2" to-layer="1225" to-port="1" />
		<edge from-layer="1225" from-port="2" to-layer="1227" to-port="0" />
		<edge from-layer="1226" from-port="0" to-layer="1227" to-port="1" />
		<edge from-layer="1227" from-port="2" to-layer="1228" to-port="1" />
		<edge from-layer="1228" from-port="2" to-layer="1230" to-port="0" />
		<edge from-layer="1229" from-port="0" to-layer="1230" to-port="1" />
		<edge from-layer="1230" from-port="2" to-layer="1231" to-port="1" />
		<edge from-layer="1231" from-port="2" to-layer="1233" to-port="0" />
		<edge from-layer="1232" from-port="0" to-layer="1233" to-port="1" />
		<edge from-layer="1233" from-port="2" to-layer="1234" to-port="1" />
		<edge from-layer="1234" from-port="2" to-layer="1236" to-port="0" />
		<edge from-layer="1235" from-port="0" to-layer="1236" to-port="1" />
		<edge from-layer="1236" from-port="2" to-layer="1237" to-port="1" />
		<edge from-layer="1237" from-port="2" to-layer="1239" to-port="0" />
		<edge from-layer="1238" from-port="0" to-layer="1239" to-port="1" />
		<edge from-layer="1239" from-port="2" to-layer="1244" to-port="0" />
		<edge from-layer="1240" from-port="0" to-layer="1243" to-port="1" />
		<edge from-layer="1241" from-port="0" to-layer="1243" to-port="2" />
		<edge from-layer="1242" from-port="0" to-layer="1243" to-port="3" />
		<edge from-layer="1243" from-port="4" to-layer="1244" to-port="1" />
		<edge from-layer="1244" from-port="2" to-layer="1245" to-port="1" />
		<edge from-layer="1245" from-port="2" to-layer="1329" to-port="0" />
		<edge from-layer="1246" from-port="0" to-layer="1247" to-port="0" />
		<edge from-layer="1247" from-port="1" to-layer="1321" to-port="0" />
		<edge from-layer="1248" from-port="0" to-layer="1249" to-port="0" />
		<edge from-layer="1249" from-port="1" to-layer="1318" to-port="0" />
		<edge from-layer="1250" from-port="0" to-layer="1251" to-port="0" />
		<edge from-layer="1251" from-port="1" to-layer="1315" to-port="0" />
		<edge from-layer="1252" from-port="0" to-layer="1253" to-port="0" />
		<edge from-layer="1253" from-port="1" to-layer="1312" to-port="0" />
		<edge from-layer="1254" from-port="0" to-layer="1255" to-port="0" />
		<edge from-layer="1255" from-port="1" to-layer="1309" to-port="0" />
		<edge from-layer="1256" from-port="0" to-layer="1257" to-port="0" />
		<edge from-layer="1257" from-port="1" to-layer="1306" to-port="0" />
		<edge from-layer="1258" from-port="0" to-layer="1259" to-port="0" />
		<edge from-layer="1259" from-port="1" to-layer="1303" to-port="0" />
		<edge from-layer="1260" from-port="0" to-layer="1263" to-port="1" />
		<edge from-layer="1261" from-port="0" to-layer="1263" to-port="2" />
		<edge from-layer="1262" from-port="0" to-layer="1263" to-port="3" />
		<edge from-layer="1263" from-port="4" to-layer="1266" to-port="0" />
		<edge from-layer="1264" from-port="0" to-layer="1265" to-port="0" />
		<edge from-layer="1265" from-port="1" to-layer="1266" to-port="1" />
		<edge from-layer="1266" from-port="2" to-layer="1278" to-port="0" />
		<edge from-layer="1267" from-port="0" to-layer="1270" to-port="1" />
		<edge from-layer="1268" from-port="0" to-layer="1270" to-port="2" />
		<edge from-layer="1269" from-port="0" to-layer="1270" to-port="3" />
		<edge from-layer="1270" from-port="4" to-layer="1277" to-port="0" />
		<edge from-layer="1271" from-port="0" to-layer="1272" to-port="0" />
		<edge from-layer="1272" from-port="1" to-layer="1274" to-port="0" />
		<edge from-layer="1273" from-port="0" to-layer="1274" to-port="1" />
		<edge from-layer="1274" from-port="2" to-layer="1276" to-port="0" />
		<edge from-layer="1275" from-port="0" to-layer="1276" to-port="1" />
		<edge from-layer="1276" from-port="2" to-layer="1277" to-port="1" />
		<edge from-layer="1277" from-port="2" to-layer="1278" to-port="1" />
		<edge from-layer="1278" from-port="2" to-layer="1298" to-port="0" />
		<edge from-layer="1279" from-port="0" to-layer="1282" to-port="1" />
		<edge from-layer="1280" from-port="0" to-layer="1282" to-port="2" />
		<edge from-layer="1281" from-port="0" to-layer="1282" to-port="3" />
		<edge from-layer="1282" from-port="4" to-layer="1285" to-port="0" />
		<edge from-layer="1283" from-port="0" to-layer="1284" to-port="0" />
		<edge from-layer="1284" from-port="1" to-layer="1285" to-port="1" />
		<edge from-layer="1285" from-port="2" to-layer="1297" to-port="0" />
		<edge from-layer="1286" from-port="0" to-layer="1289" to-port="1" />
		<edge from-layer="1287" from-port="0" to-layer="1289" to-port="2" />
		<edge from-layer="1288" from-port="0" to-layer="1289" to-port="3" />
		<edge from-layer="1289" from-port="4" to-layer="1296" to-port="0" />
		<edge from-layer="1290" from-port="0" to-layer="1291" to-port="0" />
		<edge from-layer="1291" from-port="1" to-layer="1293" to-port="0" />
		<edge from-layer="1292" from-port="0" to-layer="1293" to-port="1" />
		<edge from-layer="1293" from-port="2" to-layer="1295" to-port="0" />
		<edge from-layer="1294" from-port="0" to-layer="1295" to-port="1" />
		<edge from-layer="1295" from-port="2" to-layer="1296" to-port="1" />
		<edge from-layer="1296" from-port="2" to-layer="1297" to-port="1" />
		<edge from-layer="1297" from-port="2" to-layer="1298" to-port="1" />
		<edge from-layer="1298" from-port="2" to-layer="1300" to-port="0" />
		<edge from-layer="1299" from-port="0" to-layer="1300" to-port="1" />
		<edge from-layer="1300" from-port="2" to-layer="1302" to-port="0" />
		<edge from-layer="1301" from-port="0" to-layer="1302" to-port="1" />
		<edge from-layer="1302" from-port="2" to-layer="1303" to-port="1" />
		<edge from-layer="1303" from-port="2" to-layer="1305" to-port="0" />
		<edge from-layer="1304" from-port="0" to-layer="1305" to-port="1" />
		<edge from-layer="1305" from-port="2" to-layer="1306" to-port="1" />
		<edge from-layer="1306" from-port="2" to-layer="1308" to-port="0" />
		<edge from-layer="1307" from-port="0" to-layer="1308" to-port="1" />
		<edge from-layer="1308" from-port="2" to-layer="1309" to-port="1" />
		<edge from-layer="1309" from-port="2" to-layer="1311" to-port="0" />
		<edge from-layer="1310" from-port="0" to-layer="1311" to-port="1" />
		<edge from-layer="1311" from-port="2" to-layer="1312" to-port="1" />
		<edge from-layer="1312" from-port="2" to-layer="1314" to-port="0" />
		<edge from-layer="1313" from-port="0" to-layer="1314" to-port="1" />
		<edge from-layer="1314" from-port="2" to-layer="1315" to-port="1" />
		<edge from-layer="1315" from-port="2" to-layer="1317" to-port="0" />
		<edge from-layer="1316" from-port="0" to-layer="1317" to-port="1" />
		<edge from-layer="1317" from-port="2" to-layer="1318" to-port="1" />
		<edge from-layer="1318" from-port="2" to-layer="1320" to-port="0" />
		<edge from-layer="1319" from-port="0" to-layer="1320" to-port="1" />
		<edge from-layer="1320" from-port="2" to-layer="1321" to-port="1" />
		<edge from-layer="1321" from-port="2" to-layer="1323" to-port="0" />
		<edge from-layer="1322" from-port="0" to-layer="1323" to-port="1" />
		<edge from-layer="1323" from-port="2" to-layer="1328" to-port="0" />
		<edge from-layer="1324" from-port="0" to-layer="1327" to-port="1" />
		<edge from-layer="1325" from-port="0" to-layer="1327" to-port="2" />
		<edge from-layer="1326" from-port="0" to-layer="1327" to-port="3" />
		<edge from-layer="1327" from-port="4" to-layer="1328" to-port="1" />
		<edge from-layer="1328" from-port="2" to-layer="1329" to-port="1" />
		<edge from-layer="1329" from-port="2" to-layer="1413" to-port="0" />
		<edge from-layer="1330" from-port="0" to-layer="1331" to-port="0" />
		<edge from-layer="1331" from-port="1" to-layer="1405" to-port="0" />
		<edge from-layer="1332" from-port="0" to-layer="1333" to-port="0" />
		<edge from-layer="1333" from-port="1" to-layer="1402" to-port="0" />
		<edge from-layer="1334" from-port="0" to-layer="1335" to-port="0" />
		<edge from-layer="1335" from-port="1" to-layer="1399" to-port="0" />
		<edge from-layer="1336" from-port="0" to-layer="1337" to-port="0" />
		<edge from-layer="1337" from-port="1" to-layer="1396" to-port="0" />
		<edge from-layer="1338" from-port="0" to-layer="1339" to-port="0" />
		<edge from-layer="1339" from-port="1" to-layer="1393" to-port="0" />
		<edge from-layer="1340" from-port="0" to-layer="1341" to-port="0" />
		<edge from-layer="1341" from-port="1" to-layer="1390" to-port="0" />
		<edge from-layer="1342" from-port="0" to-layer="1343" to-port="0" />
		<edge from-layer="1343" from-port="1" to-layer="1387" to-port="0" />
		<edge from-layer="1344" from-port="0" to-layer="1347" to-port="1" />
		<edge from-layer="1345" from-port="0" to-layer="1347" to-port="2" />
		<edge from-layer="1346" from-port="0" to-layer="1347" to-port="3" />
		<edge from-layer="1347" from-port="4" to-layer="1350" to-port="0" />
		<edge from-layer="1348" from-port="0" to-layer="1349" to-port="0" />
		<edge from-layer="1349" from-port="1" to-layer="1350" to-port="1" />
		<edge from-layer="1350" from-port="2" to-layer="1362" to-port="0" />
		<edge from-layer="1351" from-port="0" to-layer="1354" to-port="1" />
		<edge from-layer="1352" from-port="0" to-layer="1354" to-port="2" />
		<edge from-layer="1353" from-port="0" to-layer="1354" to-port="3" />
		<edge from-layer="1354" from-port="4" to-layer="1361" to-port="0" />
		<edge from-layer="1355" from-port="0" to-layer="1356" to-port="0" />
		<edge from-layer="1356" from-port="1" to-layer="1358" to-port="0" />
		<edge from-layer="1357" from-port="0" to-layer="1358" to-port="1" />
		<edge from-layer="1358" from-port="2" to-layer="1360" to-port="0" />
		<edge from-layer="1359" from-port="0" to-layer="1360" to-port="1" />
		<edge from-layer="1360" from-port="2" to-layer="1361" to-port="1" />
		<edge from-layer="1361" from-port="2" to-layer="1362" to-port="1" />
		<edge from-layer="1362" from-port="2" to-layer="1382" to-port="0" />
		<edge from-layer="1363" from-port="0" to-layer="1366" to-port="1" />
		<edge from-layer="1364" from-port="0" to-layer="1366" to-port="2" />
		<edge from-layer="1365" from-port="0" to-layer="1366" to-port="3" />
		<edge from-layer="1366" from-port="4" to-layer="1369" to-port="0" />
		<edge from-layer="1367" from-port="0" to-layer="1368" to-port="0" />
		<edge from-layer="1368" from-port="1" to-layer="1369" to-port="1" />
		<edge from-layer="1369" from-port="2" to-layer="1381" to-port="0" />
		<edge from-layer="1370" from-port="0" to-layer="1373" to-port="1" />
		<edge from-layer="1371" from-port="0" to-layer="1373" to-port="2" />
		<edge from-layer="1372" from-port="0" to-layer="1373" to-port="3" />
		<edge from-layer="1373" from-port="4" to-layer="1380" to-port="0" />
		<edge from-layer="1374" from-port="0" to-layer="1375" to-port="0" />
		<edge from-layer="1375" from-port="1" to-layer="1377" to-port="0" />
		<edge from-layer="1376" from-port="0" to-layer="1377" to-port="1" />
		<edge from-layer="1377" from-port="2" to-layer="1379" to-port="0" />
		<edge from-layer="1378" from-port="0" to-layer="1379" to-port="1" />
		<edge from-layer="1379" from-port="2" to-layer="1380" to-port="1" />
		<edge from-layer="1380" from-port="2" to-layer="1381" to-port="1" />
		<edge from-layer="1381" from-port="2" to-layer="1382" to-port="1" />
		<edge from-layer="1382" from-port="2" to-layer="1384" to-port="0" />
		<edge from-layer="1383" from-port="0" to-layer="1384" to-port="1" />
		<edge from-layer="1384" from-port="2" to-layer="1386" to-port="0" />
		<edge from-layer="1385" from-port="0" to-layer="1386" to-port="1" />
		<edge from-layer="1386" from-port="2" to-layer="1387" to-port="1" />
		<edge from-layer="1387" from-port="2" to-layer="1389" to-port="0" />
		<edge from-layer="1388" from-port="0" to-layer="1389" to-port="1" />
		<edge from-layer="1389" from-port="2" to-layer="1390" to-port="1" />
		<edge from-layer="1390" from-port="2" to-layer="1392" to-port="0" />
		<edge from-layer="1391" from-port="0" to-layer="1392" to-port="1" />
		<edge from-layer="1392" from-port="2" to-layer="1393" to-port="1" />
		<edge from-layer="1393" from-port="2" to-layer="1395" to-port="0" />
		<edge from-layer="1394" from-port="0" to-layer="1395" to-port="1" />
		<edge from-layer="1395" from-port="2" to-layer="1396" to-port="1" />
		<edge from-layer="1396" from-port="2" to-layer="1398" to-port="0" />
		<edge from-layer="1397" from-port="0" to-layer="1398" to-port="1" />
		<edge from-layer="1398" from-port="2" to-layer="1399" to-port="1" />
		<edge from-layer="1399" from-port="2" to-layer="1401" to-port="0" />
		<edge from-layer="1400" from-port="0" to-layer="1401" to-port="1" />
		<edge from-layer="1401" from-port="2" to-layer="1402" to-port="1" />
		<edge from-layer="1402" from-port="2" to-layer="1404" to-port="0" />
		<edge from-layer="1403" from-port="0" to-layer="1404" to-port="1" />
		<edge from-layer="1404" from-port="2" to-layer="1405" to-port="1" />
		<edge from-layer="1405" from-port="2" to-layer="1407" to-port="0" />
		<edge from-layer="1406" from-port="0" to-layer="1407" to-port="1" />
		<edge from-layer="1407" from-port="2" to-layer="1412" to-port="0" />
		<edge from-layer="1408" from-port="0" to-layer="1411" to-port="1" />
		<edge from-layer="1409" from-port="0" to-layer="1411" to-port="2" />
		<edge from-layer="1410" from-port="0" to-layer="1411" to-port="3" />
		<edge from-layer="1411" from-port="4" to-layer="1412" to-port="1" />
		<edge from-layer="1412" from-port="2" to-layer="1413" to-port="1" />
		<edge from-layer="1413" from-port="2" to-layer="1497" to-port="0" />
		<edge from-layer="1414" from-port="0" to-layer="1415" to-port="0" />
		<edge from-layer="1415" from-port="1" to-layer="1489" to-port="0" />
		<edge from-layer="1416" from-port="0" to-layer="1417" to-port="0" />
		<edge from-layer="1417" from-port="1" to-layer="1486" to-port="0" />
		<edge from-layer="1418" from-port="0" to-layer="1419" to-port="0" />
		<edge from-layer="1419" from-port="1" to-layer="1483" to-port="0" />
		<edge from-layer="1420" from-port="0" to-layer="1421" to-port="0" />
		<edge from-layer="1421" from-port="1" to-layer="1480" to-port="0" />
		<edge from-layer="1422" from-port="0" to-layer="1423" to-port="0" />
		<edge from-layer="1423" from-port="1" to-layer="1477" to-port="0" />
		<edge from-layer="1424" from-port="0" to-layer="1425" to-port="0" />
		<edge from-layer="1425" from-port="1" to-layer="1474" to-port="0" />
		<edge from-layer="1426" from-port="0" to-layer="1427" to-port="0" />
		<edge from-layer="1427" from-port="1" to-layer="1471" to-port="0" />
		<edge from-layer="1428" from-port="0" to-layer="1431" to-port="1" />
		<edge from-layer="1429" from-port="0" to-layer="1431" to-port="2" />
		<edge from-layer="1430" from-port="0" to-layer="1431" to-port="3" />
		<edge from-layer="1431" from-port="4" to-layer="1434" to-port="0" />
		<edge from-layer="1432" from-port="0" to-layer="1433" to-port="0" />
		<edge from-layer="1433" from-port="1" to-layer="1434" to-port="1" />
		<edge from-layer="1434" from-port="2" to-layer="1446" to-port="0" />
		<edge from-layer="1435" from-port="0" to-layer="1438" to-port="1" />
		<edge from-layer="1436" from-port="0" to-layer="1438" to-port="2" />
		<edge from-layer="1437" from-port="0" to-layer="1438" to-port="3" />
		<edge from-layer="1438" from-port="4" to-layer="1445" to-port="0" />
		<edge from-layer="1439" from-port="0" to-layer="1440" to-port="0" />
		<edge from-layer="1440" from-port="1" to-layer="1442" to-port="0" />
		<edge from-layer="1441" from-port="0" to-layer="1442" to-port="1" />
		<edge from-layer="1442" from-port="2" to-layer="1444" to-port="0" />
		<edge from-layer="1443" from-port="0" to-layer="1444" to-port="1" />
		<edge from-layer="1444" from-port="2" to-layer="1445" to-port="1" />
		<edge from-layer="1445" from-port="2" to-layer="1446" to-port="1" />
		<edge from-layer="1446" from-port="2" to-layer="1466" to-port="0" />
		<edge from-layer="1447" from-port="0" to-layer="1450" to-port="1" />
		<edge from-layer="1448" from-port="0" to-layer="1450" to-port="2" />
		<edge from-layer="1449" from-port="0" to-layer="1450" to-port="3" />
		<edge from-layer="1450" from-port="4" to-layer="1453" to-port="0" />
		<edge from-layer="1451" from-port="0" to-layer="1452" to-port="0" />
		<edge from-layer="1452" from-port="1" to-layer="1453" to-port="1" />
		<edge from-layer="1453" from-port="2" to-layer="1465" to-port="0" />
		<edge from-layer="1454" from-port="0" to-layer="1457" to-port="1" />
		<edge from-layer="1455" from-port="0" to-layer="1457" to-port="2" />
		<edge from-layer="1456" from-port="0" to-layer="1457" to-port="3" />
		<edge from-layer="1457" from-port="4" to-layer="1464" to-port="0" />
		<edge from-layer="1458" from-port="0" to-layer="1459" to-port="0" />
		<edge from-layer="1459" from-port="1" to-layer="1461" to-port="0" />
		<edge from-layer="1460" from-port="0" to-layer="1461" to-port="1" />
		<edge from-layer="1461" from-port="2" to-layer="1463" to-port="0" />
		<edge from-layer="1462" from-port="0" to-layer="1463" to-port="1" />
		<edge from-layer="1463" from-port="2" to-layer="1464" to-port="1" />
		<edge from-layer="1464" from-port="2" to-layer="1465" to-port="1" />
		<edge from-layer="1465" from-port="2" to-layer="1466" to-port="1" />
		<edge from-layer="1466" from-port="2" to-layer="1468" to-port="0" />
		<edge from-layer="1467" from-port="0" to-layer="1468" to-port="1" />
		<edge from-layer="1468" from-port="2" to-layer="1470" to-port="0" />
		<edge from-layer="1469" from-port="0" to-layer="1470" to-port="1" />
		<edge from-layer="1470" from-port="2" to-layer="1471" to-port="1" />
		<edge from-layer="1471" from-port="2" to-layer="1473" to-port="0" />
		<edge from-layer="1472" from-port="0" to-layer="1473" to-port="1" />
		<edge from-layer="1473" from-port="2" to-layer="1474" to-port="1" />
		<edge from-layer="1474" from-port="2" to-layer="1476" to-port="0" />
		<edge from-layer="1475" from-port="0" to-layer="1476" to-port="1" />
		<edge from-layer="1476" from-port="2" to-layer="1477" to-port="1" />
		<edge from-layer="1477" from-port="2" to-layer="1479" to-port="0" />
		<edge from-layer="1478" from-port="0" to-layer="1479" to-port="1" />
		<edge from-layer="1479" from-port="2" to-layer="1480" to-port="1" />
		<edge from-layer="1480" from-port="2" to-layer="1482" to-port="0" />
		<edge from-layer="1481" from-port="0" to-layer="1482" to-port="1" />
		<edge from-layer="1482" from-port="2" to-layer="1483" to-port="1" />
		<edge from-layer="1483" from-port="2" to-layer="1485" to-port="0" />
		<edge from-layer="1484" from-port="0" to-layer="1485" to-port="1" />
		<edge from-layer="1485" from-port="2" to-layer="1486" to-port="1" />
		<edge from-layer="1486" from-port="2" to-layer="1488" to-port="0" />
		<edge from-layer="1487" from-port="0" to-layer="1488" to-port="1" />
		<edge from-layer="1488" from-port="2" to-layer="1489" to-port="1" />
		<edge from-layer="1489" from-port="2" to-layer="1491" to-port="0" />
		<edge from-layer="1490" from-port="0" to-layer="1491" to-port="1" />
		<edge from-layer="1491" from-port="2" to-layer="1496" to-port="0" />
		<edge from-layer="1492" from-port="0" to-layer="1495" to-port="1" />
		<edge from-layer="1493" from-port="0" to-layer="1495" to-port="2" />
		<edge from-layer="1494" from-port="0" to-layer="1495" to-port="3" />
		<edge from-layer="1495" from-port="4" to-layer="1496" to-port="1" />
		<edge from-layer="1496" from-port="2" to-layer="1497" to-port="1" />
		<edge from-layer="1497" from-port="2" to-layer="1581" to-port="0" />
		<edge from-layer="1498" from-port="0" to-layer="1499" to-port="0" />
		<edge from-layer="1499" from-port="1" to-layer="1573" to-port="0" />
		<edge from-layer="1500" from-port="0" to-layer="1501" to-port="0" />
		<edge from-layer="1501" from-port="1" to-layer="1570" to-port="0" />
		<edge from-layer="1502" from-port="0" to-layer="1503" to-port="0" />
		<edge from-layer="1503" from-port="1" to-layer="1567" to-port="0" />
		<edge from-layer="1504" from-port="0" to-layer="1505" to-port="0" />
		<edge from-layer="1505" from-port="1" to-layer="1564" to-port="0" />
		<edge from-layer="1506" from-port="0" to-layer="1507" to-port="0" />
		<edge from-layer="1507" from-port="1" to-layer="1561" to-port="0" />
		<edge from-layer="1508" from-port="0" to-layer="1509" to-port="0" />
		<edge from-layer="1509" from-port="1" to-layer="1558" to-port="0" />
		<edge from-layer="1510" from-port="0" to-layer="1511" to-port="0" />
		<edge from-layer="1511" from-port="1" to-layer="1555" to-port="0" />
		<edge from-layer="1512" from-port="0" to-layer="1515" to-port="1" />
		<edge from-layer="1513" from-port="0" to-layer="1515" to-port="2" />
		<edge from-layer="1514" from-port="0" to-layer="1515" to-port="3" />
		<edge from-layer="1515" from-port="4" to-layer="1518" to-port="0" />
		<edge from-layer="1516" from-port="0" to-layer="1517" to-port="0" />
		<edge from-layer="1517" from-port="1" to-layer="1518" to-port="1" />
		<edge from-layer="1518" from-port="2" to-layer="1530" to-port="0" />
		<edge from-layer="1519" from-port="0" to-layer="1522" to-port="1" />
		<edge from-layer="1520" from-port="0" to-layer="1522" to-port="2" />
		<edge from-layer="1521" from-port="0" to-layer="1522" to-port="3" />
		<edge from-layer="1522" from-port="4" to-layer="1529" to-port="0" />
		<edge from-layer="1523" from-port="0" to-layer="1524" to-port="0" />
		<edge from-layer="1524" from-port="1" to-layer="1526" to-port="0" />
		<edge from-layer="1525" from-port="0" to-layer="1526" to-port="1" />
		<edge from-layer="1526" from-port="2" to-layer="1528" to-port="0" />
		<edge from-layer="1527" from-port="0" to-layer="1528" to-port="1" />
		<edge from-layer="1528" from-port="2" to-layer="1529" to-port="1" />
		<edge from-layer="1529" from-port="2" to-layer="1530" to-port="1" />
		<edge from-layer="1530" from-port="2" to-layer="1550" to-port="0" />
		<edge from-layer="1531" from-port="0" to-layer="1534" to-port="1" />
		<edge from-layer="1532" from-port="0" to-layer="1534" to-port="2" />
		<edge from-layer="1533" from-port="0" to-layer="1534" to-port="3" />
		<edge from-layer="1534" from-port="4" to-layer="1537" to-port="0" />
		<edge from-layer="1535" from-port="0" to-layer="1536" to-port="0" />
		<edge from-layer="1536" from-port="1" to-layer="1537" to-port="1" />
		<edge from-layer="1537" from-port="2" to-layer="1549" to-port="0" />
		<edge from-layer="1538" from-port="0" to-layer="1541" to-port="1" />
		<edge from-layer="1539" from-port="0" to-layer="1541" to-port="2" />
		<edge from-layer="1540" from-port="0" to-layer="1541" to-port="3" />
		<edge from-layer="1541" from-port="4" to-layer="1548" to-port="0" />
		<edge from-layer="1542" from-port="0" to-layer="1543" to-port="0" />
		<edge from-layer="1543" from-port="1" to-layer="1545" to-port="0" />
		<edge from-layer="1544" from-port="0" to-layer="1545" to-port="1" />
		<edge from-layer="1545" from-port="2" to-layer="1547" to-port="0" />
		<edge from-layer="1546" from-port="0" to-layer="1547" to-port="1" />
		<edge from-layer="1547" from-port="2" to-layer="1548" to-port="1" />
		<edge from-layer="1548" from-port="2" to-layer="1549" to-port="1" />
		<edge from-layer="1549" from-port="2" to-layer="1550" to-port="1" />
		<edge from-layer="1550" from-port="2" to-layer="1552" to-port="0" />
		<edge from-layer="1551" from-port="0" to-layer="1552" to-port="1" />
		<edge from-layer="1552" from-port="2" to-layer="1554" to-port="0" />
		<edge from-layer="1553" from-port="0" to-layer="1554" to-port="1" />
		<edge from-layer="1554" from-port="2" to-layer="1555" to-port="1" />
		<edge from-layer="1555" from-port="2" to-layer="1557" to-port="0" />
		<edge from-layer="1556" from-port="0" to-layer="1557" to-port="1" />
		<edge from-layer="1557" from-port="2" to-layer="1558" to-port="1" />
		<edge from-layer="1558" from-port="2" to-layer="1560" to-port="0" />
		<edge from-layer="1559" from-port="0" to-layer="1560" to-port="1" />
		<edge from-layer="1560" from-port="2" to-layer="1561" to-port="1" />
		<edge from-layer="1561" from-port="2" to-layer="1563" to-port="0" />
		<edge from-layer="1562" from-port="0" to-layer="1563" to-port="1" />
		<edge from-layer="1563" from-port="2" to-layer="1564" to-port="1" />
		<edge from-layer="1564" from-port="2" to-layer="1566" to-port="0" />
		<edge from-layer="1565" from-port="0" to-layer="1566" to-port="1" />
		<edge from-layer="1566" from-port="2" to-layer="1567" to-port="1" />
		<edge from-layer="1567" from-port="2" to-layer="1569" to-port="0" />
		<edge from-layer="1568" from-port="0" to-layer="1569" to-port="1" />
		<edge from-layer="1569" from-port="2" to-layer="1570" to-port="1" />
		<edge from-layer="1570" from-port="2" to-layer="1572" to-port="0" />
		<edge from-layer="1571" from-port="0" to-layer="1572" to-port="1" />
		<edge from-layer="1572" from-port="2" to-layer="1573" to-port="1" />
		<edge from-layer="1573" from-port="2" to-layer="1575" to-port="0" />
		<edge from-layer="1574" from-port="0" to-layer="1575" to-port="1" />
		<edge from-layer="1575" from-port="2" to-layer="1580" to-port="0" />
		<edge from-layer="1576" from-port="0" to-layer="1579" to-port="1" />
		<edge from-layer="1577" from-port="0" to-layer="1579" to-port="2" />
		<edge from-layer="1578" from-port="0" to-layer="1579" to-port="3" />
		<edge from-layer="1579" from-port="4" to-layer="1580" to-port="1" />
		<edge from-layer="1580" from-port="2" to-layer="1581" to-port="1" />
		<edge from-layer="1581" from-port="2" to-layer="1665" to-port="0" />
		<edge from-layer="1582" from-port="0" to-layer="1583" to-port="0" />
		<edge from-layer="1583" from-port="1" to-layer="1657" to-port="0" />
		<edge from-layer="1584" from-port="0" to-layer="1585" to-port="0" />
		<edge from-layer="1585" from-port="1" to-layer="1654" to-port="0" />
		<edge from-layer="1586" from-port="0" to-layer="1587" to-port="0" />
		<edge from-layer="1587" from-port="1" to-layer="1651" to-port="0" />
		<edge from-layer="1588" from-port="0" to-layer="1589" to-port="0" />
		<edge from-layer="1589" from-port="1" to-layer="1648" to-port="0" />
		<edge from-layer="1590" from-port="0" to-layer="1591" to-port="0" />
		<edge from-layer="1591" from-port="1" to-layer="1645" to-port="0" />
		<edge from-layer="1592" from-port="0" to-layer="1593" to-port="0" />
		<edge from-layer="1593" from-port="1" to-layer="1642" to-port="0" />
		<edge from-layer="1594" from-port="0" to-layer="1595" to-port="0" />
		<edge from-layer="1595" from-port="1" to-layer="1639" to-port="0" />
		<edge from-layer="1596" from-port="0" to-layer="1599" to-port="1" />
		<edge from-layer="1597" from-port="0" to-layer="1599" to-port="2" />
		<edge from-layer="1598" from-port="0" to-layer="1599" to-port="3" />
		<edge from-layer="1599" from-port="4" to-layer="1602" to-port="0" />
		<edge from-layer="1600" from-port="0" to-layer="1601" to-port="0" />
		<edge from-layer="1601" from-port="1" to-layer="1602" to-port="1" />
		<edge from-layer="1602" from-port="2" to-layer="1614" to-port="0" />
		<edge from-layer="1603" from-port="0" to-layer="1606" to-port="1" />
		<edge from-layer="1604" from-port="0" to-layer="1606" to-port="2" />
		<edge from-layer="1605" from-port="0" to-layer="1606" to-port="3" />
		<edge from-layer="1606" from-port="4" to-layer="1613" to-port="0" />
		<edge from-layer="1607" from-port="0" to-layer="1608" to-port="0" />
		<edge from-layer="1608" from-port="1" to-layer="1610" to-port="0" />
		<edge from-layer="1609" from-port="0" to-layer="1610" to-port="1" />
		<edge from-layer="1610" from-port="2" to-layer="1612" to-port="0" />
		<edge from-layer="1611" from-port="0" to-layer="1612" to-port="1" />
		<edge from-layer="1612" from-port="2" to-layer="1613" to-port="1" />
		<edge from-layer="1613" from-port="2" to-layer="1614" to-port="1" />
		<edge from-layer="1614" from-port="2" to-layer="1634" to-port="0" />
		<edge from-layer="1615" from-port="0" to-layer="1618" to-port="1" />
		<edge from-layer="1616" from-port="0" to-layer="1618" to-port="2" />
		<edge from-layer="1617" from-port="0" to-layer="1618" to-port="3" />
		<edge from-layer="1618" from-port="4" to-layer="1621" to-port="0" />
		<edge from-layer="1619" from-port="0" to-layer="1620" to-port="0" />
		<edge from-layer="1620" from-port="1" to-layer="1621" to-port="1" />
		<edge from-layer="1621" from-port="2" to-layer="1633" to-port="0" />
		<edge from-layer="1622" from-port="0" to-layer="1625" to-port="1" />
		<edge from-layer="1623" from-port="0" to-layer="1625" to-port="2" />
		<edge from-layer="1624" from-port="0" to-layer="1625" to-port="3" />
		<edge from-layer="1625" from-port="4" to-layer="1632" to-port="0" />
		<edge from-layer="1626" from-port="0" to-layer="1627" to-port="0" />
		<edge from-layer="1627" from-port="1" to-layer="1629" to-port="0" />
		<edge from-layer="1628" from-port="0" to-layer="1629" to-port="1" />
		<edge from-layer="1629" from-port="2" to-layer="1631" to-port="0" />
		<edge from-layer="1630" from-port="0" to-layer="1631" to-port="1" />
		<edge from-layer="1631" from-port="2" to-layer="1632" to-port="1" />
		<edge from-layer="1632" from-port="2" to-layer="1633" to-port="1" />
		<edge from-layer="1633" from-port="2" to-layer="1634" to-port="1" />
		<edge from-layer="1634" from-port="2" to-layer="1636" to-port="0" />
		<edge from-layer="1635" from-port="0" to-layer="1636" to-port="1" />
		<edge from-layer="1636" from-port="2" to-layer="1638" to-port="0" />
		<edge from-layer="1637" from-port="0" to-layer="1638" to-port="1" />
		<edge from-layer="1638" from-port="2" to-layer="1639" to-port="1" />
		<edge from-layer="1639" from-port="2" to-layer="1641" to-port="0" />
		<edge from-layer="1640" from-port="0" to-layer="1641" to-port="1" />
		<edge from-layer="1641" from-port="2" to-layer="1642" to-port="1" />
		<edge from-layer="1642" from-port="2" to-layer="1644" to-port="0" />
		<edge from-layer="1643" from-port="0" to-layer="1644" to-port="1" />
		<edge from-layer="1644" from-port="2" to-layer="1645" to-port="1" />
		<edge from-layer="1645" from-port="2" to-layer="1647" to-port="0" />
		<edge from-layer="1646" from-port="0" to-layer="1647" to-port="1" />
		<edge from-layer="1647" from-port="2" to-layer="1648" to-port="1" />
		<edge from-layer="1648" from-port="2" to-layer="1650" to-port="0" />
		<edge from-layer="1649" from-port="0" to-layer="1650" to-port="1" />
		<edge from-layer="1650" from-port="2" to-layer="1651" to-port="1" />
		<edge from-layer="1651" from-port="2" to-layer="1653" to-port="0" />
		<edge from-layer="1652" from-port="0" to-layer="1653" to-port="1" />
		<edge from-layer="1653" from-port="2" to-layer="1654" to-port="1" />
		<edge from-layer="1654" from-port="2" to-layer="1656" to-port="0" />
		<edge from-layer="1655" from-port="0" to-layer="1656" to-port="1" />
		<edge from-layer="1656" from-port="2" to-layer="1657" to-port="1" />
		<edge from-layer="1657" from-port="2" to-layer="1659" to-port="0" />
		<edge from-layer="1658" from-port="0" to-layer="1659" to-port="1" />
		<edge from-layer="1659" from-port="2" to-layer="1664" to-port="0" />
		<edge from-layer="1660" from-port="0" to-layer="1663" to-port="1" />
		<edge from-layer="1661" from-port="0" to-layer="1663" to-port="2" />
		<edge from-layer="1662" from-port="0" to-layer="1663" to-port="3" />
		<edge from-layer="1663" from-port="4" to-layer="1664" to-port="1" />
		<edge from-layer="1664" from-port="2" to-layer="1665" to-port="1" />
		<edge from-layer="1665" from-port="2" to-layer="1749" to-port="0" />
		<edge from-layer="1666" from-port="0" to-layer="1667" to-port="0" />
		<edge from-layer="1667" from-port="1" to-layer="1741" to-port="0" />
		<edge from-layer="1668" from-port="0" to-layer="1669" to-port="0" />
		<edge from-layer="1669" from-port="1" to-layer="1738" to-port="0" />
		<edge from-layer="1670" from-port="0" to-layer="1671" to-port="0" />
		<edge from-layer="1671" from-port="1" to-layer="1735" to-port="0" />
		<edge from-layer="1672" from-port="0" to-layer="1673" to-port="0" />
		<edge from-layer="1673" from-port="1" to-layer="1732" to-port="0" />
		<edge from-layer="1674" from-port="0" to-layer="1675" to-port="0" />
		<edge from-layer="1675" from-port="1" to-layer="1729" to-port="0" />
		<edge from-layer="1676" from-port="0" to-layer="1677" to-port="0" />
		<edge from-layer="1677" from-port="1" to-layer="1726" to-port="0" />
		<edge from-layer="1678" from-port="0" to-layer="1679" to-port="0" />
		<edge from-layer="1679" from-port="1" to-layer="1723" to-port="0" />
		<edge from-layer="1680" from-port="0" to-layer="1683" to-port="1" />
		<edge from-layer="1681" from-port="0" to-layer="1683" to-port="2" />
		<edge from-layer="1682" from-port="0" to-layer="1683" to-port="3" />
		<edge from-layer="1683" from-port="4" to-layer="1686" to-port="0" />
		<edge from-layer="1684" from-port="0" to-layer="1685" to-port="0" />
		<edge from-layer="1685" from-port="1" to-layer="1686" to-port="1" />
		<edge from-layer="1686" from-port="2" to-layer="1698" to-port="0" />
		<edge from-layer="1687" from-port="0" to-layer="1690" to-port="1" />
		<edge from-layer="1688" from-port="0" to-layer="1690" to-port="2" />
		<edge from-layer="1689" from-port="0" to-layer="1690" to-port="3" />
		<edge from-layer="1690" from-port="4" to-layer="1697" to-port="0" />
		<edge from-layer="1691" from-port="0" to-layer="1692" to-port="0" />
		<edge from-layer="1692" from-port="1" to-layer="1694" to-port="0" />
		<edge from-layer="1693" from-port="0" to-layer="1694" to-port="1" />
		<edge from-layer="1694" from-port="2" to-layer="1696" to-port="0" />
		<edge from-layer="1695" from-port="0" to-layer="1696" to-port="1" />
		<edge from-layer="1696" from-port="2" to-layer="1697" to-port="1" />
		<edge from-layer="1697" from-port="2" to-layer="1698" to-port="1" />
		<edge from-layer="1698" from-port="2" to-layer="1718" to-port="0" />
		<edge from-layer="1699" from-port="0" to-layer="1702" to-port="1" />
		<edge from-layer="1700" from-port="0" to-layer="1702" to-port="2" />
		<edge from-layer="1701" from-port="0" to-layer="1702" to-port="3" />
		<edge from-layer="1702" from-port="4" to-layer="1705" to-port="0" />
		<edge from-layer="1703" from-port="0" to-layer="1704" to-port="0" />
		<edge from-layer="1704" from-port="1" to-layer="1705" to-port="1" />
		<edge from-layer="1705" from-port="2" to-layer="1717" to-port="0" />
		<edge from-layer="1706" from-port="0" to-layer="1709" to-port="1" />
		<edge from-layer="1707" from-port="0" to-layer="1709" to-port="2" />
		<edge from-layer="1708" from-port="0" to-layer="1709" to-port="3" />
		<edge from-layer="1709" from-port="4" to-layer="1716" to-port="0" />
		<edge from-layer="1710" from-port="0" to-layer="1711" to-port="0" />
		<edge from-layer="1711" from-port="1" to-layer="1713" to-port="0" />
		<edge from-layer="1712" from-port="0" to-layer="1713" to-port="1" />
		<edge from-layer="1713" from-port="2" to-layer="1715" to-port="0" />
		<edge from-layer="1714" from-port="0" to-layer="1715" to-port="1" />
		<edge from-layer="1715" from-port="2" to-layer="1716" to-port="1" />
		<edge from-layer="1716" from-port="2" to-layer="1717" to-port="1" />
		<edge from-layer="1717" from-port="2" to-layer="1718" to-port="1" />
		<edge from-layer="1718" from-port="2" to-layer="1720" to-port="0" />
		<edge from-layer="1719" from-port="0" to-layer="1720" to-port="1" />
		<edge from-layer="1720" from-port="2" to-layer="1722" to-port="0" />
		<edge from-layer="1721" from-port="0" to-layer="1722" to-port="1" />
		<edge from-layer="1722" from-port="2" to-layer="1723" to-port="1" />
		<edge from-layer="1723" from-port="2" to-layer="1725" to-port="0" />
		<edge from-layer="1724" from-port="0" to-layer="1725" to-port="1" />
		<edge from-layer="1725" from-port="2" to-layer="1726" to-port="1" />
		<edge from-layer="1726" from-port="2" to-layer="1728" to-port="0" />
		<edge from-layer="1727" from-port="0" to-layer="1728" to-port="1" />
		<edge from-layer="1728" from-port="2" to-layer="1729" to-port="1" />
		<edge from-layer="1729" from-port="2" to-layer="1731" to-port="0" />
		<edge from-layer="1730" from-port="0" to-layer="1731" to-port="1" />
		<edge from-layer="1731" from-port="2" to-layer="1732" to-port="1" />
		<edge from-layer="1732" from-port="2" to-layer="1734" to-port="0" />
		<edge from-layer="1733" from-port="0" to-layer="1734" to-port="1" />
		<edge from-layer="1734" from-port="2" to-layer="1735" to-port="1" />
		<edge from-layer="1735" from-port="2" to-layer="1737" to-port="0" />
		<edge from-layer="1736" from-port="0" to-layer="1737" to-port="1" />
		<edge from-layer="1737" from-port="2" to-layer="1738" to-port="1" />
		<edge from-layer="1738" from-port="2" to-layer="1740" to-port="0" />
		<edge from-layer="1739" from-port="0" to-layer="1740" to-port="1" />
		<edge from-layer="1740" from-port="2" to-layer="1741" to-port="1" />
		<edge from-layer="1741" from-port="2" to-layer="1743" to-port="0" />
		<edge from-layer="1742" from-port="0" to-layer="1743" to-port="1" />
		<edge from-layer="1743" from-port="2" to-layer="1748" to-port="0" />
		<edge from-layer="1744" from-port="0" to-layer="1747" to-port="1" />
		<edge from-layer="1745" from-port="0" to-layer="1747" to-port="2" />
		<edge from-layer="1746" from-port="0" to-layer="1747" to-port="3" />
		<edge from-layer="1747" from-port="4" to-layer="1748" to-port="1" />
		<edge from-layer="1748" from-port="2" to-layer="1749" to-port="1" />
		<edge from-layer="1749" from-port="2" to-layer="1750" to-port="0" />
	</edges>
	<rt_info>
		<MO_version value="2023.2.0-13089-cfd42bd2cb0-HEAD" />
		<Runtime_version value="2023.2.0-13089-cfd42bd2cb0-HEAD" />
		<conversion_parameters>
			<framework value="tf" />
			<is_python_api_used value="False" />
			<output_dir value="DIR" />
			<saved_model_dir value="DIR" />
		</conversion_parameters>
		<legacy_frontend value="False" />
	</rt_info>
</net>
