<?xml version="1.0"?>
<net name="TensorFlow_Frontend_IR" version="11">
	<layers>
		<layer id="1" name="args_0" type="Parameter" version="opset1">
			<data shape="1,3" element_type="f32" />
			<rt_info>
				<attribute name="old_api_map_element_type" version="0" value="f16" />
			</rt_info>
			<output>
				<port id="0" precision="FP32" names="args_0">
					<dim>1</dim>
					<dim>3</dim>
				</port>
			</output>
		</layer>
		<layer id="0" name="args_1" type="Parameter" version="opset1">
			<data shape="1,128,16,1" element_type="f32" />
			<rt_info>
				<attribute name="old_api_map_element_type" version="0" value="f16" />
			</rt_info>
			<output>
				<port id="0" precision="FP32" names="args_1">
					<dim>1</dim>
					<dim>128</dim>
					<dim>16</dim>
					<dim>1</dim>
				</port>
			</output>
		</layer>
		<layer id="2" name="model/ttl/sequential/tt_dense_0/t3f_matmul/t3f_transpose/transpose_compressed" type="Const" version="opset1">
			<data element_type="f16" shape="1, 4, 4, 16" offset="0" size="512" />
			<output>
				<port id="0" precision="FP16">
					<dim>1</dim>
					<dim>4</dim>
					<dim>4</dim>
					<dim>16</dim>
				</port>
			</output>
		</layer>
		<layer id="3" name="model/ttl/sequential/tt_dense_0/t3f_matmul/t3f_transpose/transpose" type="Convert" version="opset1">
			<data destination_type="f32" />
			<rt_info>
				<attribute name="decompression" version="0" />
			</rt_info>
			<input>
				<port id="0" precision="FP16">
					<dim>1</dim>
					<dim>4</dim>
					<dim>4</dim>
					<dim>16</dim>
				</port>
			</input>
			<output>
				<port id="1" precision="FP32">
					<dim>1</dim>
					<dim>4</dim>
					<dim>4</dim>
					<dim>16</dim>
				</port>
			</output>
		</layer>
		<layer id="4" name="model/ttl/sequential/tt_dense_0/t3f_matmul/t3f_transpose/transpose_1_compressed" type="Const" version="opset1">
			<data element_type="f16" shape="16, 4, 2, 16" offset="512" size="4096" />
			<output>
				<port id="0" precision="FP16">
					<dim>16</dim>
					<dim>4</dim>
					<dim>2</dim>
					<dim>16</dim>
				</port>
			</output>
		</layer>
		<layer id="5" name="model/ttl/sequential/tt_dense_0/t3f_matmul/t3f_transpose/transpose_1" type="Convert" version="opset1">
			<data destination_type="f32" />
			<rt_info>
				<attribute name="decompression" version="0" />
			</rt_info>
			<input>
				<port id="0" precision="FP16">
					<dim>16</dim>
					<dim>4</dim>
					<dim>2</dim>
					<dim>16</dim>
				</port>
			</input>
			<output>
				<port id="1" precision="FP32">
					<dim>16</dim>
					<dim>4</dim>
					<dim>2</dim>
					<dim>16</dim>
				</port>
			</output>
		</layer>
		<layer id="6" name="model/ttl/sequential/tt_dense_0/t3f_matmul/t3f_transpose/transpose_2_compressed" type="Const" version="opset1">
			<data element_type="f16" shape="16, 4, 2, 16" offset="4608" size="4096" />
			<output>
				<port id="0" precision="FP16">
					<dim>16</dim>
					<dim>4</dim>
					<dim>2</dim>
					<dim>16</dim>
				</port>
			</output>
		</layer>
		<layer id="7" name="model/ttl/sequential/tt_dense_0/t3f_matmul/t3f_transpose/transpose_2" type="Convert" version="opset1">
			<data destination_type="f32" />
			<rt_info>
				<attribute name="decompression" version="0" />
			</rt_info>
			<input>
				<port id="0" precision="FP16">
					<dim>16</dim>
					<dim>4</dim>
					<dim>2</dim>
					<dim>16</dim>
				</port>
			</input>
			<output>
				<port id="1" precision="FP32">
					<dim>16</dim>
					<dim>4</dim>
					<dim>2</dim>
					<dim>16</dim>
				</port>
			</output>
		</layer>
		<layer id="8" name="model/ttl/sequential/tt_dense_0/t3f_matmul/t3f_transpose/transpose_3_compressed" type="Const" version="opset1">
			<data element_type="f16" shape="16, 4, 2, 16" offset="8704" size="4096" />
			<output>
				<port id="0" precision="FP16">
					<dim>16</dim>
					<dim>4</dim>
					<dim>2</dim>
					<dim>16</dim>
				</port>
			</output>
		</layer>
		<layer id="9" name="model/ttl/sequential/tt_dense_0/t3f_matmul/t3f_transpose/transpose_3" type="Convert" version="opset1">
			<data destination_type="f32" />
			<rt_info>
				<attribute name="decompression" version="0" />
			</rt_info>
			<input>
				<port id="0" precision="FP16">
					<dim>16</dim>
					<dim>4</dim>
					<dim>2</dim>
					<dim>16</dim>
				</port>
			</input>
			<output>
				<port id="1" precision="FP32">
					<dim>16</dim>
					<dim>4</dim>
					<dim>2</dim>
					<dim>16</dim>
				</port>
			</output>
		</layer>
		<layer id="10" name="model/ttl/sequential/tt_dense_0/t3f_matmul/t3f_transpose/transpose_4_compressed" type="Const" version="opset1">
			<data element_type="f16" shape="16, 4, 2, 16" offset="12800" size="4096" />
			<output>
				<port id="0" precision="FP16">
					<dim>16</dim>
					<dim>4</dim>
					<dim>2</dim>
					<dim>16</dim>
				</port>
			</output>
		</layer>
		<layer id="11" name="model/ttl/sequential/tt_dense_0/t3f_matmul/t3f_transpose/transpose_4" type="Convert" version="opset1">
			<data destination_type="f32" />
			<rt_info>
				<attribute name="decompression" version="0" />
			</rt_info>
			<input>
				<port id="0" precision="FP16">
					<dim>16</dim>
					<dim>4</dim>
					<dim>2</dim>
					<dim>16</dim>
				</port>
			</input>
			<output>
				<port id="1" precision="FP32">
					<dim>16</dim>
					<dim>4</dim>
					<dim>2</dim>
					<dim>16</dim>
				</port>
			</output>
		</layer>
		<layer id="12" name="model/ttl/sequential/tt_dense_0/t3f_matmul/t3f_transpose/transpose_5_compressed" type="Const" version="opset1">
			<data element_type="f16" shape="16, 4, 2, 7" offset="16896" size="1792" />
			<output>
				<port id="0" precision="FP16">
					<dim>16</dim>
					<dim>4</dim>
					<dim>2</dim>
					<dim>7</dim>
				</port>
			</output>
		</layer>
		<layer id="13" name="model/ttl/sequential/tt_dense_0/t3f_matmul/t3f_transpose/transpose_5" type="Convert" version="opset1">
			<data destination_type="f32" />
			<rt_info>
				<attribute name="decompression" version="0" />
			</rt_info>
			<input>
				<port id="0" precision="FP16">
					<dim>16</dim>
					<dim>4</dim>
					<dim>2</dim>
					<dim>7</dim>
				</port>
			</input>
			<output>
				<port id="1" precision="FP32">
					<dim>16</dim>
					<dim>4</dim>
					<dim>2</dim>
					<dim>7</dim>
				</port>
			</output>
		</layer>
		<layer id="14" name="model/ttl/sequential/tt_dense_0/t3f_matmul/t3f_transpose/transpose_6_compressed" type="Const" version="opset1">
			<data element_type="f16" shape="7, 4, 2, 1" offset="18688" size="112" />
			<output>
				<port id="0" precision="FP16">
					<dim>7</dim>
					<dim>4</dim>
					<dim>2</dim>
					<dim>1</dim>
				</port>
			</output>
		</layer>
		<layer id="15" name="model/ttl/sequential/tt_dense_0/t3f_matmul/t3f_transpose/transpose_6" type="Convert" version="opset1">
			<data destination_type="f32" />
			<rt_info>
				<attribute name="decompression" version="0" />
			</rt_info>
			<input>
				<port id="0" precision="FP16">
					<dim>7</dim>
					<dim>4</dim>
					<dim>2</dim>
					<dim>1</dim>
				</port>
			</input>
			<output>
				<port id="1" precision="FP32">
					<dim>7</dim>
					<dim>4</dim>
					<dim>2</dim>
					<dim>1</dim>
				</port>
			</output>
		</layer>
		<layer id="16" name="Constant_4146" type="Const" version="opset1">
			<data element_type="i32" shape="1" offset="18800" size="4" />
			<output>
				<port id="0" precision="I32">
					<dim>1</dim>
				</port>
			</output>
		</layer>
		<layer id="17" name="model/ttl/sequential/Squeeze" type="Squeeze" version="opset1">
			<input>
				<port id="0" precision="FP32">
					<dim>1</dim>
					<dim>128</dim>
					<dim>16</dim>
					<dim>1</dim>
				</port>
				<port id="1" precision="I32">
					<dim>1</dim>
				</port>
			</input>
			<output>
				<port id="2" precision="FP32">
					<dim>1</dim>
					<dim>128</dim>
					<dim>16</dim>
				</port>
			</output>
		</layer>
		<layer id="18" name="model/ttl/sequential/einsum_ttl/strided_slice/stack" type="Const" version="opset1">
			<data element_type="i32" shape="3" offset="18804" size="12" />
			<rt_info>
				<attribute name="precise" version="0" />
			</rt_info>
			<output>
				<port id="0" precision="I32">
					<dim>3</dim>
				</port>
			</output>
		</layer>
		<layer id="19" name="model/ttl/sequential/einsum_ttl/strided_slice/stack_1" type="Const" version="opset1">
			<data element_type="i32" shape="3" offset="18816" size="12" />
			<rt_info>
				<attribute name="precise" version="0" />
			</rt_info>
			<output>
				<port id="0" precision="I32">
					<dim>3</dim>
				</port>
			</output>
		</layer>
		<layer id="20" name="model/ttl/sequential/einsum_ttl/strided_slice/stack_2" type="Const" version="opset1">
			<data element_type="i32" shape="3" offset="18828" size="12" />
			<rt_info>
				<attribute name="precise" version="0" />
			</rt_info>
			<output>
				<port id="0" precision="I32">
					<dim>3</dim>
				</port>
			</output>
		</layer>
		<layer id="21" name="model/ttl/sequential/einsum_ttl/strided_slice" type="StridedSlice" version="opset1">
			<data begin_mask="1, 1, 1" end_mask="1, 0, 0" new_axis_mask="0, 0, 0" shrink_axis_mask="0, 0, 0" ellipsis_mask="0, 0, 0" />
			<input>
				<port id="0" precision="FP32">
					<dim>1</dim>
					<dim>128</dim>
					<dim>16</dim>
				</port>
				<port id="1" precision="I32">
					<dim>3</dim>
				</port>
				<port id="2" precision="I32">
					<dim>3</dim>
				</port>
				<port id="3" precision="I32">
					<dim>3</dim>
				</port>
			</input>
			<output>
				<port id="4" precision="FP32">
					<dim>1</dim>
					<dim>64</dim>
					<dim>8</dim>
				</port>
			</output>
		</layer>
		<layer id="22" name="model/ttl/sequential/einsum_ttl/strided_slice_1_compressed" type="Const" version="opset1">
			<data element_type="f16" shape="8" offset="18840" size="16" />
			<output>
				<port id="0" precision="FP16">
					<dim>8</dim>
				</port>
			</output>
		</layer>
		<layer id="23" name="model/ttl/sequential/einsum_ttl/strided_slice_1" type="Convert" version="opset1">
			<data destination_type="f32" />
			<rt_info>
				<attribute name="decompression" version="0" />
			</rt_info>
			<input>
				<port id="0" precision="FP16">
					<dim>8</dim>
				</port>
			</input>
			<output>
				<port id="1" precision="FP32">
					<dim>8</dim>
				</port>
			</output>
		</layer>
		<layer id="24" name="model/ttl/sequential/einsum_ttl/einsum/Einsum" type="Einsum" version="opset7">
			<data equation="abc,c->ab" />
			<input>
				<port id="0" precision="FP32">
					<dim>1</dim>
					<dim>64</dim>
					<dim>8</dim>
				</port>
				<port id="1" precision="FP32">
					<dim>8</dim>
				</port>
			</input>
			<output>
				<port id="2" precision="FP32">
					<dim>1</dim>
					<dim>64</dim>
				</port>
			</output>
		</layer>
		<layer id="25" name="model/ttl/sequential/einsum_ttl/strided_slice_2/stack" type="Const" version="opset1">
			<data element_type="i32" shape="3" offset="18856" size="12" />
			<rt_info>
				<attribute name="precise" version="0" />
			</rt_info>
			<output>
				<port id="0" precision="I32">
					<dim>3</dim>
				</port>
			</output>
		</layer>
		<layer id="26" name="model/ttl/sequential/einsum_ttl/strided_slice_2/stack_1" type="Const" version="opset1">
			<data element_type="i32" shape="3" offset="18868" size="12" />
			<rt_info>
				<attribute name="precise" version="0" />
			</rt_info>
			<output>
				<port id="0" precision="I32">
					<dim>3</dim>
				</port>
			</output>
		</layer>
		<layer id="27" name="model/ttl/sequential/einsum_ttl/strided_slice_2/stack_2" type="Const" version="opset1">
			<data element_type="i32" shape="3" offset="18828" size="12" />
			<rt_info>
				<attribute name="precise" version="0" />
			</rt_info>
			<output>
				<port id="0" precision="I32">
					<dim>3</dim>
				</port>
			</output>
		</layer>
		<layer id="28" name="model/ttl/sequential/einsum_ttl/strided_slice_2" type="StridedSlice" version="opset1">
			<data begin_mask="1, 1" end_mask="1, 0" new_axis_mask="0, 0" shrink_axis_mask="0, 0" ellipsis_mask="0, 0" />
			<input>
				<port id="0" precision="FP32">
					<dim>1</dim>
					<dim>128</dim>
					<dim>16</dim>
				</port>
				<port id="1" precision="I32">
					<dim>3</dim>
				</port>
				<port id="2" precision="I32">
					<dim>3</dim>
				</port>
				<port id="3" precision="I32">
					<dim>3</dim>
				</port>
			</input>
			<output>
				<port id="4" precision="FP32">
					<dim>1</dim>
					<dim>64</dim>
					<dim>8</dim>
				</port>
			</output>
		</layer>
		<layer id="29" name="Unsqueeze_4234_compressed" type="Const" version="opset1">
			<data element_type="f16" shape="1, 8" offset="18840" size="16" />
			<output>
				<port id="0" precision="FP16">
					<dim>1</dim>
					<dim>8</dim>
				</port>
			</output>
		</layer>
		<layer id="30" name="Unsqueeze_4234" type="Convert" version="opset1">
			<data destination_type="f32" />
			<rt_info>
				<attribute name="decompression" version="0" />
			</rt_info>
			<input>
				<port id="0" precision="FP16">
					<dim>1</dim>
					<dim>8</dim>
				</port>
			</input>
			<output>
				<port id="1" precision="FP32">
					<dim>1</dim>
					<dim>8</dim>
				</port>
			</output>
		</layer>
		<layer id="31" name="Broadcast_4241" type="Const" version="opset1">
			<data element_type="i32" shape="1" offset="18880" size="4" />
			<output>
				<port id="0" precision="I32">
					<dim>1</dim>
				</port>
			</output>
		</layer>
		<layer id="32" name="ReverseSequence_4244" type="ReverseSequence" version="opset1">
			<data batch_axis="0" seq_axis="1" />
			<input>
				<port id="0" precision="FP32">
					<dim>1</dim>
					<dim>8</dim>
				</port>
				<port id="1" precision="I32">
					<dim>1</dim>
				</port>
			</input>
			<output>
				<port id="2" precision="FP32">
					<dim>1</dim>
					<dim>8</dim>
				</port>
			</output>
		</layer>
		<layer id="33" name="Constant_4245" type="Const" version="opset1">
			<data element_type="i32" shape="1" offset="18884" size="4" />
			<output>
				<port id="0" precision="I32">
					<dim>1</dim>
				</port>
			</output>
		</layer>
		<layer id="34" name="model/ttl/sequential/einsum_ttl/ReverseV2" type="Squeeze" version="opset1">
			<input>
				<port id="0" precision="FP32">
					<dim>1</dim>
					<dim>8</dim>
				</port>
				<port id="1" precision="I32">
					<dim>1</dim>
				</port>
			</input>
			<output>
				<port id="2" precision="FP32">
					<dim>8</dim>
				</port>
			</output>
		</layer>
		<layer id="35" name="model/ttl/sequential/einsum_ttl/einsum_1/Einsum" type="Einsum" version="opset7">
			<data equation="abc,c->ab" />
			<input>
				<port id="0" precision="FP32">
					<dim>1</dim>
					<dim>64</dim>
					<dim>8</dim>
				</port>
				<port id="1" precision="FP32">
					<dim>8</dim>
				</port>
			</input>
			<output>
				<port id="2" precision="FP32">
					<dim>1</dim>
					<dim>64</dim>
				</port>
			</output>
		</layer>
		<layer id="36" name="model/ttl/sequential/einsum_ttl/add" type="Add" version="opset1">
			<data auto_broadcast="numpy" />
			<input>
				<port id="0" precision="FP32">
					<dim>1</dim>
					<dim>64</dim>
				</port>
				<port id="1" precision="FP32">
					<dim>1</dim>
					<dim>64</dim>
				</port>
			</input>
			<output>
				<port id="2" precision="FP32">
					<dim>1</dim>
					<dim>64</dim>
				</port>
			</output>
		</layer>
		<layer id="37" name="model/ttl/sequential/einsum_ttl/strided_slice_4/stack" type="Const" version="opset1">
			<data element_type="i32" shape="3" offset="18888" size="12" />
			<rt_info>
				<attribute name="precise" version="0" />
			</rt_info>
			<output>
				<port id="0" precision="I32">
					<dim>3</dim>
				</port>
			</output>
		</layer>
		<layer id="38" name="model/ttl/sequential/einsum_ttl/strided_slice_4/stack_1" type="Const" version="opset1">
			<data element_type="i32" shape="3" offset="18856" size="12" />
			<rt_info>
				<attribute name="precise" version="0" />
			</rt_info>
			<output>
				<port id="0" precision="I32">
					<dim>3</dim>
				</port>
			</output>
		</layer>
		<layer id="39" name="model/ttl/sequential/einsum_ttl/strided_slice_4/stack_2" type="Const" version="opset1">
			<data element_type="i32" shape="3" offset="18828" size="12" />
			<rt_info>
				<attribute name="precise" version="0" />
			</rt_info>
			<output>
				<port id="0" precision="I32">
					<dim>3</dim>
				</port>
			</output>
		</layer>
		<layer id="40" name="model/ttl/sequential/einsum_ttl/strided_slice_4" type="StridedSlice" version="opset1">
			<data begin_mask="1, 0, 1" end_mask="1, 1, 0" new_axis_mask="0, 0, 0" shrink_axis_mask="0, 0, 0" ellipsis_mask="0, 0, 0" />
			<input>
				<port id="0" precision="FP32">
					<dim>1</dim>
					<dim>128</dim>
					<dim>16</dim>
				</port>
				<port id="1" precision="I32">
					<dim>3</dim>
				</port>
				<port id="2" precision="I32">
					<dim>3</dim>
				</port>
				<port id="3" precision="I32">
					<dim>3</dim>
				</port>
			</input>
			<output>
				<port id="4" precision="FP32">
					<dim>1</dim>
					<dim>64</dim>
					<dim>8</dim>
				</port>
			</output>
		</layer>
		<layer id="41" name="model/ttl/sequential/einsum_ttl/strided_slice_5_compressed" type="Const" version="opset1">
			<data element_type="f16" shape="8" offset="18900" size="16" />
			<output>
				<port id="0" precision="FP16">
					<dim>8</dim>
				</port>
			</output>
		</layer>
		<layer id="42" name="model/ttl/sequential/einsum_ttl/strided_slice_5" type="Convert" version="opset1">
			<data destination_type="f32" />
			<rt_info>
				<attribute name="decompression" version="0" />
			</rt_info>
			<input>
				<port id="0" precision="FP16">
					<dim>8</dim>
				</port>
			</input>
			<output>
				<port id="1" precision="FP32">
					<dim>8</dim>
				</port>
			</output>
		</layer>
		<layer id="43" name="model/ttl/sequential/einsum_ttl/einsum_2/Einsum" type="Einsum" version="opset7">
			<data equation="abc,c->ab" />
			<input>
				<port id="0" precision="FP32">
					<dim>1</dim>
					<dim>64</dim>
					<dim>8</dim>
				</port>
				<port id="1" precision="FP32">
					<dim>8</dim>
				</port>
			</input>
			<output>
				<port id="2" precision="FP32">
					<dim>1</dim>
					<dim>64</dim>
				</port>
			</output>
		</layer>
		<layer id="44" name="model/ttl/sequential/einsum_ttl/strided_slice_6/stack" type="Const" version="opset1">
			<data element_type="i32" shape="3" offset="18816" size="12" />
			<rt_info>
				<attribute name="precise" version="0" />
			</rt_info>
			<output>
				<port id="0" precision="I32">
					<dim>3</dim>
				</port>
			</output>
		</layer>
		<layer id="45" name="model/ttl/sequential/einsum_ttl/strided_slice_6/stack_1" type="Const" version="opset1">
			<data element_type="i32" shape="3" offset="18916" size="12" />
			<rt_info>
				<attribute name="precise" version="0" />
			</rt_info>
			<output>
				<port id="0" precision="I32">
					<dim>3</dim>
				</port>
			</output>
		</layer>
		<layer id="46" name="model/ttl/sequential/einsum_ttl/strided_slice_6/stack_2" type="Const" version="opset1">
			<data element_type="i32" shape="3" offset="18828" size="12" />
			<rt_info>
				<attribute name="precise" version="0" />
			</rt_info>
			<output>
				<port id="0" precision="I32">
					<dim>3</dim>
				</port>
			</output>
		</layer>
		<layer id="47" name="model/ttl/sequential/einsum_ttl/strided_slice_6" type="StridedSlice" version="opset1">
			<data begin_mask="1, 0" end_mask="1, 1" new_axis_mask="0, 0" shrink_axis_mask="0, 0" ellipsis_mask="0, 0" />
			<input>
				<port id="0" precision="FP32">
					<dim>1</dim>
					<dim>128</dim>
					<dim>16</dim>
				</port>
				<port id="1" precision="I32">
					<dim>3</dim>
				</port>
				<port id="2" precision="I32">
					<dim>3</dim>
				</port>
				<port id="3" precision="I32">
					<dim>3</dim>
				</port>
			</input>
			<output>
				<port id="4" precision="FP32">
					<dim>1</dim>
					<dim>64</dim>
					<dim>8</dim>
				</port>
			</output>
		</layer>
		<layer id="48" name="Unsqueeze_4200_compressed" type="Const" version="opset1">
			<data element_type="f16" shape="1, 8" offset="18900" size="16" />
			<output>
				<port id="0" precision="FP16">
					<dim>1</dim>
					<dim>8</dim>
				</port>
			</output>
		</layer>
		<layer id="49" name="Unsqueeze_4200" type="Convert" version="opset1">
			<data destination_type="f32" />
			<rt_info>
				<attribute name="decompression" version="0" />
			</rt_info>
			<input>
				<port id="0" precision="FP16">
					<dim>1</dim>
					<dim>8</dim>
				</port>
			</input>
			<output>
				<port id="1" precision="FP32">
					<dim>1</dim>
					<dim>8</dim>
				</port>
			</output>
		</layer>
		<layer id="50" name="Broadcast_4207" type="Const" version="opset1">
			<data element_type="i32" shape="1" offset="18880" size="4" />
			<output>
				<port id="0" precision="I32">
					<dim>1</dim>
				</port>
			</output>
		</layer>
		<layer id="51" name="ReverseSequence_4210" type="ReverseSequence" version="opset1">
			<data batch_axis="0" seq_axis="1" />
			<input>
				<port id="0" precision="FP32">
					<dim>1</dim>
					<dim>8</dim>
				</port>
				<port id="1" precision="I32">
					<dim>1</dim>
				</port>
			</input>
			<output>
				<port id="2" precision="FP32">
					<dim>1</dim>
					<dim>8</dim>
				</port>
			</output>
		</layer>
		<layer id="52" name="Constant_4211" type="Const" version="opset1">
			<data element_type="i32" shape="1" offset="18884" size="4" />
			<output>
				<port id="0" precision="I32">
					<dim>1</dim>
				</port>
			</output>
		</layer>
		<layer id="53" name="model/ttl/sequential/einsum_ttl/ReverseV2_1" type="Squeeze" version="opset1">
			<input>
				<port id="0" precision="FP32">
					<dim>1</dim>
					<dim>8</dim>
				</port>
				<port id="1" precision="I32">
					<dim>1</dim>
				</port>
			</input>
			<output>
				<port id="2" precision="FP32">
					<dim>8</dim>
				</port>
			</output>
		</layer>
		<layer id="54" name="model/ttl/sequential/einsum_ttl/einsum_3/Einsum" type="Einsum" version="opset7">
			<data equation="abc,c->ab" />
			<input>
				<port id="0" precision="FP32">
					<dim>1</dim>
					<dim>64</dim>
					<dim>8</dim>
				</port>
				<port id="1" precision="FP32">
					<dim>8</dim>
				</port>
			</input>
			<output>
				<port id="2" precision="FP32">
					<dim>1</dim>
					<dim>64</dim>
				</port>
			</output>
		</layer>
		<layer id="55" name="model/ttl/sequential/einsum_ttl/add_1" type="Add" version="opset1">
			<data auto_broadcast="numpy" />
			<input>
				<port id="0" precision="FP32">
					<dim>1</dim>
					<dim>64</dim>
				</port>
				<port id="1" precision="FP32">
					<dim>1</dim>
					<dim>64</dim>
				</port>
			</input>
			<output>
				<port id="2" precision="FP32">
					<dim>1</dim>
					<dim>64</dim>
				</port>
			</output>
		</layer>
		<layer id="56" name="model/ttl/sequential/einsum_ttl/strided_slice_8/stack" type="Const" version="opset1">
			<data element_type="i32" shape="3" offset="18804" size="12" />
			<rt_info>
				<attribute name="precise" version="0" />
			</rt_info>
			<output>
				<port id="0" precision="I32">
					<dim>3</dim>
				</port>
			</output>
		</layer>
		<layer id="57" name="model/ttl/sequential/einsum_ttl/strided_slice_8/stack_1" type="Const" version="opset1">
			<data element_type="i32" shape="3" offset="18816" size="12" />
			<rt_info>
				<attribute name="precise" version="0" />
			</rt_info>
			<output>
				<port id="0" precision="I32">
					<dim>3</dim>
				</port>
			</output>
		</layer>
		<layer id="58" name="model/ttl/sequential/einsum_ttl/strided_slice_8/stack_2" type="Const" version="opset1">
			<data element_type="i32" shape="3" offset="18828" size="12" />
			<rt_info>
				<attribute name="precise" version="0" />
			</rt_info>
			<output>
				<port id="0" precision="I32">
					<dim>3</dim>
				</port>
			</output>
		</layer>
		<layer id="59" name="model/ttl/sequential/einsum_ttl/strided_slice_8" type="StridedSlice" version="opset1">
			<data begin_mask="1, 1, 1" end_mask="1, 0, 0" new_axis_mask="0, 0, 0" shrink_axis_mask="0, 0, 0" ellipsis_mask="0, 0, 0" />
			<input>
				<port id="0" precision="FP32">
					<dim>1</dim>
					<dim>128</dim>
					<dim>16</dim>
				</port>
				<port id="1" precision="I32">
					<dim>3</dim>
				</port>
				<port id="2" precision="I32">
					<dim>3</dim>
				</port>
				<port id="3" precision="I32">
					<dim>3</dim>
				</port>
			</input>
			<output>
				<port id="4" precision="FP32">
					<dim>1</dim>
					<dim>64</dim>
					<dim>8</dim>
				</port>
			</output>
		</layer>
		<layer id="60" name="model/ttl/sequential/einsum_ttl/strided_slice_9_compressed" type="Const" version="opset1">
			<data element_type="f16" shape="8" offset="18928" size="16" />
			<output>
				<port id="0" precision="FP16">
					<dim>8</dim>
				</port>
			</output>
		</layer>
		<layer id="61" name="model/ttl/sequential/einsum_ttl/strided_slice_9" type="Convert" version="opset1">
			<data destination_type="f32" />
			<rt_info>
				<attribute name="decompression" version="0" />
			</rt_info>
			<input>
				<port id="0" precision="FP16">
					<dim>8</dim>
				</port>
			</input>
			<output>
				<port id="1" precision="FP32">
					<dim>8</dim>
				</port>
			</output>
		</layer>
		<layer id="62" name="model/ttl/sequential/einsum_ttl/einsum_4/Einsum" type="Einsum" version="opset7">
			<data equation="abc,c->ab" />
			<input>
				<port id="0" precision="FP32">
					<dim>1</dim>
					<dim>64</dim>
					<dim>8</dim>
				</port>
				<port id="1" precision="FP32">
					<dim>8</dim>
				</port>
			</input>
			<output>
				<port id="2" precision="FP32">
					<dim>1</dim>
					<dim>64</dim>
				</port>
			</output>
		</layer>
		<layer id="63" name="model/ttl/sequential/einsum_ttl/strided_slice_10/stack" type="Const" version="opset1">
			<data element_type="i32" shape="3" offset="18856" size="12" />
			<rt_info>
				<attribute name="precise" version="0" />
			</rt_info>
			<output>
				<port id="0" precision="I32">
					<dim>3</dim>
				</port>
			</output>
		</layer>
		<layer id="64" name="model/ttl/sequential/einsum_ttl/strided_slice_10/stack_1" type="Const" version="opset1">
			<data element_type="i32" shape="3" offset="18868" size="12" />
			<rt_info>
				<attribute name="precise" version="0" />
			</rt_info>
			<output>
				<port id="0" precision="I32">
					<dim>3</dim>
				</port>
			</output>
		</layer>
		<layer id="65" name="model/ttl/sequential/einsum_ttl/strided_slice_10/stack_2" type="Const" version="opset1">
			<data element_type="i32" shape="3" offset="18828" size="12" />
			<rt_info>
				<attribute name="precise" version="0" />
			</rt_info>
			<output>
				<port id="0" precision="I32">
					<dim>3</dim>
				</port>
			</output>
		</layer>
		<layer id="66" name="model/ttl/sequential/einsum_ttl/strided_slice_10" type="StridedSlice" version="opset1">
			<data begin_mask="1, 1" end_mask="1, 0" new_axis_mask="0, 0" shrink_axis_mask="0, 0" ellipsis_mask="0, 0" />
			<input>
				<port id="0" precision="FP32">
					<dim>1</dim>
					<dim>128</dim>
					<dim>16</dim>
				</port>
				<port id="1" precision="I32">
					<dim>3</dim>
				</port>
				<port id="2" precision="I32">
					<dim>3</dim>
				</port>
				<port id="3" precision="I32">
					<dim>3</dim>
				</port>
			</input>
			<output>
				<port id="4" precision="FP32">
					<dim>1</dim>
					<dim>64</dim>
					<dim>8</dim>
				</port>
			</output>
		</layer>
		<layer id="67" name="Unsqueeze_4166_compressed" type="Const" version="opset1">
			<data element_type="f16" shape="1, 8" offset="18928" size="16" />
			<output>
				<port id="0" precision="FP16">
					<dim>1</dim>
					<dim>8</dim>
				</port>
			</output>
		</layer>
		<layer id="68" name="Unsqueeze_4166" type="Convert" version="opset1">
			<data destination_type="f32" />
			<rt_info>
				<attribute name="decompression" version="0" />
			</rt_info>
			<input>
				<port id="0" precision="FP16">
					<dim>1</dim>
					<dim>8</dim>
				</port>
			</input>
			<output>
				<port id="1" precision="FP32">
					<dim>1</dim>
					<dim>8</dim>
				</port>
			</output>
		</layer>
		<layer id="69" name="Broadcast_4173" type="Const" version="opset1">
			<data element_type="i32" shape="1" offset="18880" size="4" />
			<output>
				<port id="0" precision="I32">
					<dim>1</dim>
				</port>
			</output>
		</layer>
		<layer id="70" name="ReverseSequence_4176" type="ReverseSequence" version="opset1">
			<data batch_axis="0" seq_axis="1" />
			<input>
				<port id="0" precision="FP32">
					<dim>1</dim>
					<dim>8</dim>
				</port>
				<port id="1" precision="I32">
					<dim>1</dim>
				</port>
			</input>
			<output>
				<port id="2" precision="FP32">
					<dim>1</dim>
					<dim>8</dim>
				</port>
			</output>
		</layer>
		<layer id="71" name="Constant_4177" type="Const" version="opset1">
			<data element_type="i32" shape="1" offset="18884" size="4" />
			<output>
				<port id="0" precision="I32">
					<dim>1</dim>
				</port>
			</output>
		</layer>
		<layer id="72" name="model/ttl/sequential/einsum_ttl/ReverseV2_2" type="Squeeze" version="opset1">
			<input>
				<port id="0" precision="FP32">
					<dim>1</dim>
					<dim>8</dim>
				</port>
				<port id="1" precision="I32">
					<dim>1</dim>
				</port>
			</input>
			<output>
				<port id="2" precision="FP32">
					<dim>8</dim>
				</port>
			</output>
		</layer>
		<layer id="73" name="model/ttl/sequential/einsum_ttl/einsum_5/Einsum" type="Einsum" version="opset7">
			<data equation="abc,c->ab" />
			<input>
				<port id="0" precision="FP32">
					<dim>1</dim>
					<dim>64</dim>
					<dim>8</dim>
				</port>
				<port id="1" precision="FP32">
					<dim>8</dim>
				</port>
			</input>
			<output>
				<port id="2" precision="FP32">
					<dim>1</dim>
					<dim>64</dim>
				</port>
			</output>
		</layer>
		<layer id="74" name="model/ttl/sequential/einsum_ttl/add_2" type="Add" version="opset1">
			<data auto_broadcast="numpy" />
			<input>
				<port id="0" precision="FP32">
					<dim>1</dim>
					<dim>64</dim>
				</port>
				<port id="1" precision="FP32">
					<dim>1</dim>
					<dim>64</dim>
				</port>
			</input>
			<output>
				<port id="2" precision="FP32">
					<dim>1</dim>
					<dim>64</dim>
				</port>
			</output>
		</layer>
		<layer id="75" name="model/ttl/sequential/einsum_ttl/strided_slice_12/stack" type="Const" version="opset1">
			<data element_type="i32" shape="3" offset="18888" size="12" />
			<rt_info>
				<attribute name="precise" version="0" />
			</rt_info>
			<output>
				<port id="0" precision="I32">
					<dim>3</dim>
				</port>
			</output>
		</layer>
		<layer id="76" name="model/ttl/sequential/einsum_ttl/strided_slice_12/stack_1" type="Const" version="opset1">
			<data element_type="i32" shape="3" offset="18856" size="12" />
			<rt_info>
				<attribute name="precise" version="0" />
			</rt_info>
			<output>
				<port id="0" precision="I32">
					<dim>3</dim>
				</port>
			</output>
		</layer>
		<layer id="77" name="model/ttl/sequential/einsum_ttl/strided_slice_12/stack_2" type="Const" version="opset1">
			<data element_type="i32" shape="3" offset="18828" size="12" />
			<rt_info>
				<attribute name="precise" version="0" />
			</rt_info>
			<output>
				<port id="0" precision="I32">
					<dim>3</dim>
				</port>
			</output>
		</layer>
		<layer id="78" name="model/ttl/sequential/einsum_ttl/strided_slice_12" type="StridedSlice" version="opset1">
			<data begin_mask="1, 0, 1" end_mask="1, 1, 0" new_axis_mask="0, 0, 0" shrink_axis_mask="0, 0, 0" ellipsis_mask="0, 0, 0" />
			<input>
				<port id="0" precision="FP32">
					<dim>1</dim>
					<dim>128</dim>
					<dim>16</dim>
				</port>
				<port id="1" precision="I32">
					<dim>3</dim>
				</port>
				<port id="2" precision="I32">
					<dim>3</dim>
				</port>
				<port id="3" precision="I32">
					<dim>3</dim>
				</port>
			</input>
			<output>
				<port id="4" precision="FP32">
					<dim>1</dim>
					<dim>64</dim>
					<dim>8</dim>
				</port>
			</output>
		</layer>
		<layer id="79" name="model/ttl/sequential/einsum_ttl/strided_slice_13_compressed" type="Const" version="opset1">
			<data element_type="f16" shape="8" offset="18944" size="16" />
			<output>
				<port id="0" precision="FP16">
					<dim>8</dim>
				</port>
			</output>
		</layer>
		<layer id="80" name="model/ttl/sequential/einsum_ttl/strided_slice_13" type="Convert" version="opset1">
			<data destination_type="f32" />
			<rt_info>
				<attribute name="decompression" version="0" />
			</rt_info>
			<input>
				<port id="0" precision="FP16">
					<dim>8</dim>
				</port>
			</input>
			<output>
				<port id="1" precision="FP32">
					<dim>8</dim>
				</port>
			</output>
		</layer>
		<layer id="81" name="model/ttl/sequential/einsum_ttl/einsum_6/Einsum" type="Einsum" version="opset7">
			<data equation="abc,c->ab" />
			<input>
				<port id="0" precision="FP32">
					<dim>1</dim>
					<dim>64</dim>
					<dim>8</dim>
				</port>
				<port id="1" precision="FP32">
					<dim>8</dim>
				</port>
			</input>
			<output>
				<port id="2" precision="FP32">
					<dim>1</dim>
					<dim>64</dim>
				</port>
			</output>
		</layer>
		<layer id="82" name="model/ttl/sequential/einsum_ttl/strided_slice_14/stack" type="Const" version="opset1">
			<data element_type="i32" shape="3" offset="18816" size="12" />
			<rt_info>
				<attribute name="precise" version="0" />
			</rt_info>
			<output>
				<port id="0" precision="I32">
					<dim>3</dim>
				</port>
			</output>
		</layer>
		<layer id="83" name="model/ttl/sequential/einsum_ttl/strided_slice_14/stack_1" type="Const" version="opset1">
			<data element_type="i32" shape="3" offset="18916" size="12" />
			<rt_info>
				<attribute name="precise" version="0" />
			</rt_info>
			<output>
				<port id="0" precision="I32">
					<dim>3</dim>
				</port>
			</output>
		</layer>
		<layer id="84" name="model/ttl/sequential/einsum_ttl/strided_slice_14/stack_2" type="Const" version="opset1">
			<data element_type="i32" shape="3" offset="18828" size="12" />
			<rt_info>
				<attribute name="precise" version="0" />
			</rt_info>
			<output>
				<port id="0" precision="I32">
					<dim>3</dim>
				</port>
			</output>
		</layer>
		<layer id="85" name="model/ttl/sequential/einsum_ttl/strided_slice_14" type="StridedSlice" version="opset1">
			<data begin_mask="1, 0" end_mask="1, 1" new_axis_mask="0, 0" shrink_axis_mask="0, 0" ellipsis_mask="0, 0" />
			<input>
				<port id="0" precision="FP32">
					<dim>1</dim>
					<dim>128</dim>
					<dim>16</dim>
				</port>
				<port id="1" precision="I32">
					<dim>3</dim>
				</port>
				<port id="2" precision="I32">
					<dim>3</dim>
				</port>
				<port id="3" precision="I32">
					<dim>3</dim>
				</port>
			</input>
			<output>
				<port id="4" precision="FP32">
					<dim>1</dim>
					<dim>64</dim>
					<dim>8</dim>
				</port>
			</output>
		</layer>
		<layer id="86" name="Unsqueeze_4130_compressed" type="Const" version="opset1">
			<data element_type="f16" shape="1, 8" offset="18944" size="16" />
			<output>
				<port id="0" precision="FP16">
					<dim>1</dim>
					<dim>8</dim>
				</port>
			</output>
		</layer>
		<layer id="87" name="Unsqueeze_4130" type="Convert" version="opset1">
			<data destination_type="f32" />
			<rt_info>
				<attribute name="decompression" version="0" />
			</rt_info>
			<input>
				<port id="0" precision="FP16">
					<dim>1</dim>
					<dim>8</dim>
				</port>
			</input>
			<output>
				<port id="1" precision="FP32">
					<dim>1</dim>
					<dim>8</dim>
				</port>
			</output>
		</layer>
		<layer id="88" name="Broadcast_4137" type="Const" version="opset1">
			<data element_type="i32" shape="1" offset="18880" size="4" />
			<output>
				<port id="0" precision="I32">
					<dim>1</dim>
				</port>
			</output>
		</layer>
		<layer id="89" name="ReverseSequence_4140" type="ReverseSequence" version="opset1">
			<data batch_axis="0" seq_axis="1" />
			<input>
				<port id="0" precision="FP32">
					<dim>1</dim>
					<dim>8</dim>
				</port>
				<port id="1" precision="I32">
					<dim>1</dim>
				</port>
			</input>
			<output>
				<port id="2" precision="FP32">
					<dim>1</dim>
					<dim>8</dim>
				</port>
			</output>
		</layer>
		<layer id="90" name="Constant_4141" type="Const" version="opset1">
			<data element_type="i32" shape="1" offset="18884" size="4" />
			<output>
				<port id="0" precision="I32">
					<dim>1</dim>
				</port>
			</output>
		</layer>
		<layer id="91" name="model/ttl/sequential/einsum_ttl/ReverseV2_3" type="Squeeze" version="opset1">
			<input>
				<port id="0" precision="FP32">
					<dim>1</dim>
					<dim>8</dim>
				</port>
				<port id="1" precision="I32">
					<dim>1</dim>
				</port>
			</input>
			<output>
				<port id="2" precision="FP32">
					<dim>8</dim>
				</port>
			</output>
		</layer>
		<layer id="92" name="model/ttl/sequential/einsum_ttl/einsum_7/Einsum" type="Einsum" version="opset7">
			<data equation="abc,c->ab" />
			<input>
				<port id="0" precision="FP32">
					<dim>1</dim>
					<dim>64</dim>
					<dim>8</dim>
				</port>
				<port id="1" precision="FP32">
					<dim>8</dim>
				</port>
			</input>
			<output>
				<port id="2" precision="FP32">
					<dim>1</dim>
					<dim>64</dim>
				</port>
			</output>
		</layer>
		<layer id="93" name="model/ttl/sequential/einsum_ttl/add_3" type="Add" version="opset1">
			<data auto_broadcast="numpy" />
			<input>
				<port id="0" precision="FP32">
					<dim>1</dim>
					<dim>64</dim>
				</port>
				<port id="1" precision="FP32">
					<dim>1</dim>
					<dim>64</dim>
				</port>
			</input>
			<output>
				<port id="2" precision="FP32">
					<dim>1</dim>
					<dim>64</dim>
				</port>
			</output>
		</layer>
		<layer id="94" name="model/ttl/sequential/einsum_ttl/concat" type="Concat" version="opset1">
			<data axis="1" />
			<input>
				<port id="0" precision="FP32">
					<dim>1</dim>
					<dim>64</dim>
				</port>
				<port id="1" precision="FP32">
					<dim>1</dim>
					<dim>64</dim>
				</port>
				<port id="2" precision="FP32">
					<dim>1</dim>
					<dim>64</dim>
				</port>
				<port id="3" precision="FP32">
					<dim>1</dim>
					<dim>64</dim>
				</port>
			</input>
			<output>
				<port id="4" precision="FP32">
					<dim>1</dim>
					<dim>256</dim>
				</port>
			</output>
		</layer>
		<layer id="95" name="model/ttl/sequential/flatten/Const" type="Const" version="opset1">
			<data element_type="i32" shape="2" offset="18960" size="8" />
			<rt_info>
				<attribute name="precise" version="0" />
			</rt_info>
			<output>
				<port id="0" precision="I32">
					<dim>2</dim>
				</port>
			</output>
		</layer>
		<layer id="96" name="model/ttl/sequential/flatten/Reshape" type="Reshape" version="opset1">
			<data special_zero="false" />
			<input>
				<port id="0" precision="FP32">
					<dim>1</dim>
					<dim>256</dim>
				</port>
				<port id="1" precision="I32">
					<dim>2</dim>
				</port>
			</input>
			<output>
				<port id="2" precision="FP32">
					<dim>1</dim>
					<dim>256</dim>
				</port>
			</output>
		</layer>
		<layer id="97" name="model/ttl/sequential/tt_dense_0/t3f_matmul/Reshape/shape" type="Const" version="opset1">
			<data element_type="i32" shape="3" offset="18968" size="12" />
			<rt_info>
				<attribute name="precise" version="0" />
			</rt_info>
			<output>
				<port id="0" precision="I32">
					<dim>3</dim>
				</port>
			</output>
		</layer>
		<layer id="98" name="model/ttl/sequential/tt_dense_0/t3f_matmul/Reshape" type="Reshape" version="opset1">
			<data special_zero="false" />
			<input>
				<port id="0" precision="FP32">
					<dim>1</dim>
					<dim>256</dim>
				</port>
				<port id="1" precision="I32">
					<dim>3</dim>
				</port>
			</input>
			<output>
				<port id="2" precision="FP32">
					<dim>128</dim>
					<dim>2</dim>
					<dim>1</dim>
				</port>
			</output>
		</layer>
		<layer id="99" name="model/ttl/sequential/tt_dense_0/t3f_matmul/einsum/Einsum" type="Einsum" version="opset7">
			<data equation="aijb,rjb->ira" />
			<input>
				<port id="0" precision="FP32">
					<dim>7</dim>
					<dim>4</dim>
					<dim>2</dim>
					<dim>1</dim>
				</port>
				<port id="1" precision="FP32">
					<dim>128</dim>
					<dim>2</dim>
					<dim>1</dim>
				</port>
			</input>
			<output>
				<port id="2" precision="FP32">
					<dim>4</dim>
					<dim>128</dim>
					<dim>7</dim>
				</port>
			</output>
		</layer>
		<layer id="100" name="model/ttl/sequential/tt_dense_0/t3f_matmul/Reshape_1/shape" type="Const" version="opset1">
			<data element_type="i32" shape="3" offset="18980" size="12" />
			<rt_info>
				<attribute name="precise" version="0" />
			</rt_info>
			<output>
				<port id="0" precision="I32">
					<dim>3</dim>
				</port>
			</output>
		</layer>
		<layer id="101" name="model/ttl/sequential/tt_dense_0/t3f_matmul/Reshape_1" type="Reshape" version="opset1">
			<data special_zero="false" />
			<input>
				<port id="0" precision="FP32">
					<dim>4</dim>
					<dim>128</dim>
					<dim>7</dim>
				</port>
				<port id="1" precision="I32">
					<dim>3</dim>
				</port>
			</input>
			<output>
				<port id="2" precision="FP32">
					<dim>256</dim>
					<dim>2</dim>
					<dim>7</dim>
				</port>
			</output>
		</layer>
		<layer id="102" name="model/ttl/sequential/tt_dense_0/t3f_matmul/einsum_1/Einsum" type="Einsum" version="opset7">
			<data equation="aijb,rjb->ira" />
			<input>
				<port id="0" precision="FP32">
					<dim>16</dim>
					<dim>4</dim>
					<dim>2</dim>
					<dim>7</dim>
				</port>
				<port id="1" precision="FP32">
					<dim>256</dim>
					<dim>2</dim>
					<dim>7</dim>
				</port>
			</input>
			<output>
				<port id="2" precision="FP32">
					<dim>4</dim>
					<dim>256</dim>
					<dim>16</dim>
				</port>
			</output>
		</layer>
		<layer id="103" name="model/ttl/sequential/tt_dense_0/t3f_matmul/Reshape_2/shape" type="Const" version="opset1">
			<data element_type="i32" shape="3" offset="18992" size="12" />
			<rt_info>
				<attribute name="precise" version="0" />
			</rt_info>
			<output>
				<port id="0" precision="I32">
					<dim>3</dim>
				</port>
			</output>
		</layer>
		<layer id="104" name="model/ttl/sequential/tt_dense_0/t3f_matmul/Reshape_2" type="Reshape" version="opset1">
			<data special_zero="false" />
			<input>
				<port id="0" precision="FP32">
					<dim>4</dim>
					<dim>256</dim>
					<dim>16</dim>
				</port>
				<port id="1" precision="I32">
					<dim>3</dim>
				</port>
			</input>
			<output>
				<port id="2" precision="FP32">
					<dim>512</dim>
					<dim>2</dim>
					<dim>16</dim>
				</port>
			</output>
		</layer>
		<layer id="105" name="model/ttl/sequential/tt_dense_0/t3f_matmul/einsum_2/Einsum" type="Einsum" version="opset7">
			<data equation="aijb,rjb->ira" />
			<input>
				<port id="0" precision="FP32">
					<dim>16</dim>
					<dim>4</dim>
					<dim>2</dim>
					<dim>16</dim>
				</port>
				<port id="1" precision="FP32">
					<dim>512</dim>
					<dim>2</dim>
					<dim>16</dim>
				</port>
			</input>
			<output>
				<port id="2" precision="FP32">
					<dim>4</dim>
					<dim>512</dim>
					<dim>16</dim>
				</port>
			</output>
		</layer>
		<layer id="106" name="model/ttl/sequential/tt_dense_0/t3f_matmul/Reshape_3/shape" type="Const" version="opset1">
			<data element_type="i32" shape="3" offset="18992" size="12" />
			<rt_info>
				<attribute name="precise" version="0" />
			</rt_info>
			<output>
				<port id="0" precision="I32">
					<dim>3</dim>
				</port>
			</output>
		</layer>
		<layer id="107" name="model/ttl/sequential/tt_dense_0/t3f_matmul/Reshape_3" type="Reshape" version="opset1">
			<data special_zero="false" />
			<input>
				<port id="0" precision="FP32">
					<dim>4</dim>
					<dim>512</dim>
					<dim>16</dim>
				</port>
				<port id="1" precision="I32">
					<dim>3</dim>
				</port>
			</input>
			<output>
				<port id="2" precision="FP32">
					<dim>1024</dim>
					<dim>2</dim>
					<dim>16</dim>
				</port>
			</output>
		</layer>
		<layer id="108" name="model/ttl/sequential/tt_dense_0/t3f_matmul/einsum_3/Einsum" type="Einsum" version="opset7">
			<data equation="aijb,rjb->ira" />
			<input>
				<port id="0" precision="FP32">
					<dim>16</dim>
					<dim>4</dim>
					<dim>2</dim>
					<dim>16</dim>
				</port>
				<port id="1" precision="FP32">
					<dim>1024</dim>
					<dim>2</dim>
					<dim>16</dim>
				</port>
			</input>
			<output>
				<port id="2" precision="FP32">
					<dim>4</dim>
					<dim>1024</dim>
					<dim>16</dim>
				</port>
			</output>
		</layer>
		<layer id="109" name="model/ttl/sequential/tt_dense_0/t3f_matmul/Reshape_4/shape" type="Const" version="opset1">
			<data element_type="i32" shape="3" offset="18992" size="12" />
			<rt_info>
				<attribute name="precise" version="0" />
			</rt_info>
			<output>
				<port id="0" precision="I32">
					<dim>3</dim>
				</port>
			</output>
		</layer>
		<layer id="110" name="model/ttl/sequential/tt_dense_0/t3f_matmul/Reshape_4" type="Reshape" version="opset1">
			<data special_zero="false" />
			<input>
				<port id="0" precision="FP32">
					<dim>4</dim>
					<dim>1024</dim>
					<dim>16</dim>
				</port>
				<port id="1" precision="I32">
					<dim>3</dim>
				</port>
			</input>
			<output>
				<port id="2" precision="FP32">
					<dim>2048</dim>
					<dim>2</dim>
					<dim>16</dim>
				</port>
			</output>
		</layer>
		<layer id="111" name="model/ttl/sequential/tt_dense_0/t3f_matmul/einsum_4/Einsum" type="Einsum" version="opset7">
			<data equation="aijb,rjb->ira" />
			<input>
				<port id="0" precision="FP32">
					<dim>16</dim>
					<dim>4</dim>
					<dim>2</dim>
					<dim>16</dim>
				</port>
				<port id="1" precision="FP32">
					<dim>2048</dim>
					<dim>2</dim>
					<dim>16</dim>
				</port>
			</input>
			<output>
				<port id="2" precision="FP32">
					<dim>4</dim>
					<dim>2048</dim>
					<dim>16</dim>
				</port>
			</output>
		</layer>
		<layer id="112" name="model/ttl/sequential/tt_dense_0/t3f_matmul/Reshape_5/shape" type="Const" version="opset1">
			<data element_type="i32" shape="3" offset="18992" size="12" />
			<rt_info>
				<attribute name="precise" version="0" />
			</rt_info>
			<output>
				<port id="0" precision="I32">
					<dim>3</dim>
				</port>
			</output>
		</layer>
		<layer id="113" name="model/ttl/sequential/tt_dense_0/t3f_matmul/Reshape_5" type="Reshape" version="opset1">
			<data special_zero="false" />
			<input>
				<port id="0" precision="FP32">
					<dim>4</dim>
					<dim>2048</dim>
					<dim>16</dim>
				</port>
				<port id="1" precision="I32">
					<dim>3</dim>
				</port>
			</input>
			<output>
				<port id="2" precision="FP32">
					<dim>4096</dim>
					<dim>2</dim>
					<dim>16</dim>
				</port>
			</output>
		</layer>
		<layer id="114" name="model/ttl/sequential/tt_dense_0/t3f_matmul/einsum_5/Einsum" type="Einsum" version="opset7">
			<data equation="aijb,rjb->ira" />
			<input>
				<port id="0" precision="FP32">
					<dim>16</dim>
					<dim>4</dim>
					<dim>2</dim>
					<dim>16</dim>
				</port>
				<port id="1" precision="FP32">
					<dim>4096</dim>
					<dim>2</dim>
					<dim>16</dim>
				</port>
			</input>
			<output>
				<port id="2" precision="FP32">
					<dim>4</dim>
					<dim>4096</dim>
					<dim>16</dim>
				</port>
			</output>
		</layer>
		<layer id="115" name="model/ttl/sequential/tt_dense_0/t3f_matmul/Reshape_6/shape" type="Const" version="opset1">
			<data element_type="i32" shape="3" offset="19004" size="12" />
			<rt_info>
				<attribute name="precise" version="0" />
			</rt_info>
			<output>
				<port id="0" precision="I32">
					<dim>3</dim>
				</port>
			</output>
		</layer>
		<layer id="116" name="model/ttl/sequential/tt_dense_0/t3f_matmul/Reshape_6" type="Reshape" version="opset1">
			<data special_zero="false" />
			<input>
				<port id="0" precision="FP32">
					<dim>4</dim>
					<dim>4096</dim>
					<dim>16</dim>
				</port>
				<port id="1" precision="I32">
					<dim>3</dim>
				</port>
			</input>
			<output>
				<port id="2" precision="FP32">
					<dim>4096</dim>
					<dim>4</dim>
					<dim>16</dim>
				</port>
			</output>
		</layer>
		<layer id="117" name="model/ttl/sequential/tt_dense_0/t3f_matmul/einsum_6/Einsum" type="Einsum" version="opset7">
			<data equation="aijb,rjb->ira" />
			<input>
				<port id="0" precision="FP32">
					<dim>1</dim>
					<dim>4</dim>
					<dim>4</dim>
					<dim>16</dim>
				</port>
				<port id="1" precision="FP32">
					<dim>4096</dim>
					<dim>4</dim>
					<dim>16</dim>
				</port>
			</input>
			<output>
				<port id="2" precision="FP32">
					<dim>4</dim>
					<dim>4096</dim>
					<dim>1</dim>
				</port>
			</output>
		</layer>
		<layer id="118" name="model/ttl/sequential/reshape/Reshape/shape" type="Const" version="opset1">
			<data element_type="i32" shape="3" offset="19016" size="12" />
			<rt_info>
				<attribute name="precise" version="0" />
			</rt_info>
			<output>
				<port id="0" precision="I32">
					<dim>3</dim>
				</port>
			</output>
		</layer>
		<layer id="119" name="model/ttl/sequential/reshape/Reshape" type="Reshape" version="opset1">
			<data special_zero="false" />
			<input>
				<port id="0" precision="FP32">
					<dim>4</dim>
					<dim>4096</dim>
					<dim>1</dim>
				</port>
				<port id="1" precision="I32">
					<dim>3</dim>
				</port>
			</input>
			<output>
				<port id="2" precision="FP32">
					<dim>1</dim>
					<dim>256</dim>
					<dim>64</dim>
				</port>
			</output>
		</layer>
		<layer id="120" name="Transpose_26523_compressed" type="Const" version="opset1">
			<data element_type="f16" shape="30, 3" offset="19028" size="180" />
			<output>
				<port id="0" precision="FP16">
					<dim>30</dim>
					<dim>3</dim>
				</port>
			</output>
		</layer>
		<layer id="121" name="Transpose_26523" type="Convert" version="opset1">
			<data destination_type="f32" />
			<rt_info>
				<attribute name="decompression" version="0" />
			</rt_info>
			<input>
				<port id="0" precision="FP16">
					<dim>30</dim>
					<dim>3</dim>
				</port>
			</input>
			<output>
				<port id="1" precision="FP32">
					<dim>30</dim>
					<dim>3</dim>
				</port>
			</output>
		</layer>
		<layer id="122" name="model/softmax_embedding_layer/dense/MatMul" type="MatMul" version="opset1">
			<data transpose_a="false" transpose_b="true" />
			<input>
				<port id="0" precision="FP32">
					<dim>1</dim>
					<dim>3</dim>
				</port>
				<port id="1" precision="FP32">
					<dim>30</dim>
					<dim>3</dim>
				</port>
			</input>
			<output>
				<port id="2" precision="FP32">
					<dim>1</dim>
					<dim>30</dim>
				</port>
			</output>
		</layer>
		<layer id="123" name="Constant_27689_compressed" type="Const" version="opset1">
			<data element_type="f16" shape="1, 30" offset="19208" size="60" />
			<output>
				<port id="0" precision="FP16">
					<dim>1</dim>
					<dim>30</dim>
				</port>
			</output>
		</layer>
		<layer id="124" name="Constant_27689" type="Convert" version="opset1">
			<data destination_type="f32" />
			<rt_info>
				<attribute name="decompression" version="0" />
			</rt_info>
			<input>
				<port id="0" precision="FP16">
					<dim>1</dim>
					<dim>30</dim>
				</port>
			</input>
			<output>
				<port id="1" precision="FP32">
					<dim>1</dim>
					<dim>30</dim>
				</port>
			</output>
		</layer>
		<layer id="125" name="model/softmax_embedding_layer/dense/BiasAdd" type="Add" version="opset1">
			<data auto_broadcast="numpy" />
			<input>
				<port id="0" precision="FP32">
					<dim>1</dim>
					<dim>30</dim>
				</port>
				<port id="1" precision="FP32">
					<dim>1</dim>
					<dim>30</dim>
				</port>
			</input>
			<output>
				<port id="2" precision="FP32">
					<dim>1</dim>
					<dim>30</dim>
				</port>
			</output>
		</layer>
		<layer id="126" name="model/softmax_embedding_layer/dense/Relu" type="ReLU" version="opset1">
			<input>
				<port id="0" precision="FP32">
					<dim>1</dim>
					<dim>30</dim>
				</port>
			</input>
			<output>
				<port id="1" precision="FP32">
					<dim>1</dim>
					<dim>30</dim>
				</port>
			</output>
		</layer>
		<layer id="127" name="Transpose_26526_compressed" type="Const" version="opset1">
			<data element_type="f16" shape="30, 30" offset="19268" size="1800" />
			<output>
				<port id="0" precision="FP16">
					<dim>30</dim>
					<dim>30</dim>
				</port>
			</output>
		</layer>
		<layer id="128" name="Transpose_26526" type="Convert" version="opset1">
			<data destination_type="f32" />
			<rt_info>
				<attribute name="decompression" version="0" />
			</rt_info>
			<input>
				<port id="0" precision="FP16">
					<dim>30</dim>
					<dim>30</dim>
				</port>
			</input>
			<output>
				<port id="1" precision="FP32">
					<dim>30</dim>
					<dim>30</dim>
				</port>
			</output>
		</layer>
		<layer id="129" name="model/softmax_embedding_layer/dense_1/MatMul" type="MatMul" version="opset1">
			<data transpose_a="false" transpose_b="true" />
			<input>
				<port id="0" precision="FP32">
					<dim>1</dim>
					<dim>30</dim>
				</port>
				<port id="1" precision="FP32">
					<dim>30</dim>
					<dim>30</dim>
				</port>
			</input>
			<output>
				<port id="2" precision="FP32">
					<dim>1</dim>
					<dim>30</dim>
				</port>
			</output>
		</layer>
		<layer id="130" name="Constant_27690_compressed" type="Const" version="opset1">
			<data element_type="f16" shape="1, 30" offset="21068" size="60" />
			<output>
				<port id="0" precision="FP16">
					<dim>1</dim>
					<dim>30</dim>
				</port>
			</output>
		</layer>
		<layer id="131" name="Constant_27690" type="Convert" version="opset1">
			<data destination_type="f32" />
			<rt_info>
				<attribute name="decompression" version="0" />
			</rt_info>
			<input>
				<port id="0" precision="FP16">
					<dim>1</dim>
					<dim>30</dim>
				</port>
			</input>
			<output>
				<port id="1" precision="FP32">
					<dim>1</dim>
					<dim>30</dim>
				</port>
			</output>
		</layer>
		<layer id="132" name="model/softmax_embedding_layer/dense_1/BiasAdd" type="Add" version="opset1">
			<data auto_broadcast="numpy" />
			<input>
				<port id="0" precision="FP32">
					<dim>1</dim>
					<dim>30</dim>
				</port>
				<port id="1" precision="FP32">
					<dim>1</dim>
					<dim>30</dim>
				</port>
			</input>
			<output>
				<port id="2" precision="FP32">
					<dim>1</dim>
					<dim>30</dim>
				</port>
			</output>
		</layer>
		<layer id="133" name="model/softmax_embedding_layer/dense_1/Relu" type="ReLU" version="opset1">
			<input>
				<port id="0" precision="FP32">
					<dim>1</dim>
					<dim>30</dim>
				</port>
			</input>
			<output>
				<port id="1" precision="FP32">
					<dim>1</dim>
					<dim>30</dim>
				</port>
			</output>
		</layer>
		<layer id="134" name="Transpose_26529_compressed" type="Const" version="opset1">
			<data element_type="f16" shape="30, 30" offset="21128" size="1800" />
			<output>
				<port id="0" precision="FP16">
					<dim>30</dim>
					<dim>30</dim>
				</port>
			</output>
		</layer>
		<layer id="135" name="Transpose_26529" type="Convert" version="opset1">
			<data destination_type="f32" />
			<rt_info>
				<attribute name="decompression" version="0" />
			</rt_info>
			<input>
				<port id="0" precision="FP16">
					<dim>30</dim>
					<dim>30</dim>
				</port>
			</input>
			<output>
				<port id="1" precision="FP32">
					<dim>30</dim>
					<dim>30</dim>
				</port>
			</output>
		</layer>
		<layer id="136" name="model/softmax_embedding_layer/dense_2/MatMul" type="MatMul" version="opset1">
			<data transpose_a="false" transpose_b="true" />
			<input>
				<port id="0" precision="FP32">
					<dim>1</dim>
					<dim>30</dim>
				</port>
				<port id="1" precision="FP32">
					<dim>30</dim>
					<dim>30</dim>
				</port>
			</input>
			<output>
				<port id="2" precision="FP32">
					<dim>1</dim>
					<dim>30</dim>
				</port>
			</output>
		</layer>
		<layer id="137" name="Constant_27691_compressed" type="Const" version="opset1">
			<data element_type="f16" shape="1, 30" offset="22928" size="60" />
			<output>
				<port id="0" precision="FP16">
					<dim>1</dim>
					<dim>30</dim>
				</port>
			</output>
		</layer>
		<layer id="138" name="Constant_27691" type="Convert" version="opset1">
			<data destination_type="f32" />
			<rt_info>
				<attribute name="decompression" version="0" />
			</rt_info>
			<input>
				<port id="0" precision="FP16">
					<dim>1</dim>
					<dim>30</dim>
				</port>
			</input>
			<output>
				<port id="1" precision="FP32">
					<dim>1</dim>
					<dim>30</dim>
				</port>
			</output>
		</layer>
		<layer id="139" name="model/softmax_embedding_layer/dense_2/BiasAdd" type="Add" version="opset1">
			<data auto_broadcast="numpy" />
			<input>
				<port id="0" precision="FP32">
					<dim>1</dim>
					<dim>30</dim>
				</port>
				<port id="1" precision="FP32">
					<dim>1</dim>
					<dim>30</dim>
				</port>
			</input>
			<output>
				<port id="2" precision="FP32">
					<dim>1</dim>
					<dim>30</dim>
				</port>
			</output>
		</layer>
		<layer id="140" name="model/softmax_embedding_layer/dense_2/Relu" type="ReLU" version="opset1">
			<input>
				<port id="0" precision="FP32">
					<dim>1</dim>
					<dim>30</dim>
				</port>
			</input>
			<output>
				<port id="1" precision="FP32">
					<dim>1</dim>
					<dim>30</dim>
				</port>
			</output>
		</layer>
		<layer id="141" name="Transpose_26532_compressed" type="Const" version="opset1">
			<data element_type="f16" shape="30, 30" offset="22988" size="1800" />
			<output>
				<port id="0" precision="FP16">
					<dim>30</dim>
					<dim>30</dim>
				</port>
			</output>
		</layer>
		<layer id="142" name="Transpose_26532" type="Convert" version="opset1">
			<data destination_type="f32" />
			<rt_info>
				<attribute name="decompression" version="0" />
			</rt_info>
			<input>
				<port id="0" precision="FP16">
					<dim>30</dim>
					<dim>30</dim>
				</port>
			</input>
			<output>
				<port id="1" precision="FP32">
					<dim>30</dim>
					<dim>30</dim>
				</port>
			</output>
		</layer>
		<layer id="143" name="model/softmax_embedding_layer/dense_3/MatMul" type="MatMul" version="opset1">
			<data transpose_a="false" transpose_b="true" />
			<input>
				<port id="0" precision="FP32">
					<dim>1</dim>
					<dim>30</dim>
				</port>
				<port id="1" precision="FP32">
					<dim>30</dim>
					<dim>30</dim>
				</port>
			</input>
			<output>
				<port id="2" precision="FP32">
					<dim>1</dim>
					<dim>30</dim>
				</port>
			</output>
		</layer>
		<layer id="144" name="Constant_27692_compressed" type="Const" version="opset1">
			<data element_type="f16" shape="1, 30" offset="24788" size="60" />
			<output>
				<port id="0" precision="FP16">
					<dim>1</dim>
					<dim>30</dim>
				</port>
			</output>
		</layer>
		<layer id="145" name="Constant_27692" type="Convert" version="opset1">
			<data destination_type="f32" />
			<rt_info>
				<attribute name="decompression" version="0" />
			</rt_info>
			<input>
				<port id="0" precision="FP16">
					<dim>1</dim>
					<dim>30</dim>
				</port>
			</input>
			<output>
				<port id="1" precision="FP32">
					<dim>1</dim>
					<dim>30</dim>
				</port>
			</output>
		</layer>
		<layer id="146" name="model/softmax_embedding_layer/dense_3/BiasAdd" type="Add" version="opset1">
			<data auto_broadcast="numpy" />
			<input>
				<port id="0" precision="FP32">
					<dim>1</dim>
					<dim>30</dim>
				</port>
				<port id="1" precision="FP32">
					<dim>1</dim>
					<dim>30</dim>
				</port>
			</input>
			<output>
				<port id="2" precision="FP32">
					<dim>1</dim>
					<dim>30</dim>
				</port>
			</output>
		</layer>
		<layer id="147" name="model/softmax_embedding_layer/dense_3/Relu" type="ReLU" version="opset1">
			<input>
				<port id="0" precision="FP32">
					<dim>1</dim>
					<dim>30</dim>
				</port>
			</input>
			<output>
				<port id="1" precision="FP32">
					<dim>1</dim>
					<dim>30</dim>
				</port>
			</output>
		</layer>
		<layer id="148" name="Transpose_26535_compressed" type="Const" version="opset1">
			<data element_type="f16" shape="30, 30" offset="24848" size="1800" />
			<output>
				<port id="0" precision="FP16">
					<dim>30</dim>
					<dim>30</dim>
				</port>
			</output>
		</layer>
		<layer id="149" name="Transpose_26535" type="Convert" version="opset1">
			<data destination_type="f32" />
			<rt_info>
				<attribute name="decompression" version="0" />
			</rt_info>
			<input>
				<port id="0" precision="FP16">
					<dim>30</dim>
					<dim>30</dim>
				</port>
			</input>
			<output>
				<port id="1" precision="FP32">
					<dim>30</dim>
					<dim>30</dim>
				</port>
			</output>
		</layer>
		<layer id="150" name="model/softmax_embedding_layer/dense_4/MatMul" type="MatMul" version="opset1">
			<data transpose_a="false" transpose_b="true" />
			<input>
				<port id="0" precision="FP32">
					<dim>1</dim>
					<dim>30</dim>
				</port>
				<port id="1" precision="FP32">
					<dim>30</dim>
					<dim>30</dim>
				</port>
			</input>
			<output>
				<port id="2" precision="FP32">
					<dim>1</dim>
					<dim>30</dim>
				</port>
			</output>
		</layer>
		<layer id="151" name="Constant_27693_compressed" type="Const" version="opset1">
			<data element_type="f16" shape="1, 30" offset="26648" size="60" />
			<output>
				<port id="0" precision="FP16">
					<dim>1</dim>
					<dim>30</dim>
				</port>
			</output>
		</layer>
		<layer id="152" name="Constant_27693" type="Convert" version="opset1">
			<data destination_type="f32" />
			<rt_info>
				<attribute name="decompression" version="0" />
			</rt_info>
			<input>
				<port id="0" precision="FP16">
					<dim>1</dim>
					<dim>30</dim>
				</port>
			</input>
			<output>
				<port id="1" precision="FP32">
					<dim>1</dim>
					<dim>30</dim>
				</port>
			</output>
		</layer>
		<layer id="153" name="model/softmax_embedding_layer/dense_4/BiasAdd" type="Add" version="opset1">
			<data auto_broadcast="numpy" />
			<input>
				<port id="0" precision="FP32">
					<dim>1</dim>
					<dim>30</dim>
				</port>
				<port id="1" precision="FP32">
					<dim>1</dim>
					<dim>30</dim>
				</port>
			</input>
			<output>
				<port id="2" precision="FP32">
					<dim>1</dim>
					<dim>30</dim>
				</port>
			</output>
		</layer>
		<layer id="154" name="model/softmax_embedding_layer/dense_4/Relu" type="ReLU" version="opset1">
			<input>
				<port id="0" precision="FP32">
					<dim>1</dim>
					<dim>30</dim>
				</port>
			</input>
			<output>
				<port id="1" precision="FP32">
					<dim>1</dim>
					<dim>30</dim>
				</port>
			</output>
		</layer>
		<layer id="155" name="Transpose_26538_compressed" type="Const" version="opset1">
			<data element_type="f16" shape="30, 30" offset="26708" size="1800" />
			<output>
				<port id="0" precision="FP16">
					<dim>30</dim>
					<dim>30</dim>
				</port>
			</output>
		</layer>
		<layer id="156" name="Transpose_26538" type="Convert" version="opset1">
			<data destination_type="f32" />
			<rt_info>
				<attribute name="decompression" version="0" />
			</rt_info>
			<input>
				<port id="0" precision="FP16">
					<dim>30</dim>
					<dim>30</dim>
				</port>
			</input>
			<output>
				<port id="1" precision="FP32">
					<dim>30</dim>
					<dim>30</dim>
				</port>
			</output>
		</layer>
		<layer id="157" name="model/softmax_embedding_layer/dense_5/MatMul" type="MatMul" version="opset1">
			<data transpose_a="false" transpose_b="true" />
			<input>
				<port id="0" precision="FP32">
					<dim>1</dim>
					<dim>30</dim>
				</port>
				<port id="1" precision="FP32">
					<dim>30</dim>
					<dim>30</dim>
				</port>
			</input>
			<output>
				<port id="2" precision="FP32">
					<dim>1</dim>
					<dim>30</dim>
				</port>
			</output>
		</layer>
		<layer id="158" name="Constant_27694_compressed" type="Const" version="opset1">
			<data element_type="f16" shape="1, 30" offset="28508" size="60" />
			<output>
				<port id="0" precision="FP16">
					<dim>1</dim>
					<dim>30</dim>
				</port>
			</output>
		</layer>
		<layer id="159" name="Constant_27694" type="Convert" version="opset1">
			<data destination_type="f32" />
			<rt_info>
				<attribute name="decompression" version="0" />
			</rt_info>
			<input>
				<port id="0" precision="FP16">
					<dim>1</dim>
					<dim>30</dim>
				</port>
			</input>
			<output>
				<port id="1" precision="FP32">
					<dim>1</dim>
					<dim>30</dim>
				</port>
			</output>
		</layer>
		<layer id="160" name="model/softmax_embedding_layer/dense_5/BiasAdd" type="Add" version="opset1">
			<data auto_broadcast="numpy" />
			<input>
				<port id="0" precision="FP32">
					<dim>1</dim>
					<dim>30</dim>
				</port>
				<port id="1" precision="FP32">
					<dim>1</dim>
					<dim>30</dim>
				</port>
			</input>
			<output>
				<port id="2" precision="FP32">
					<dim>1</dim>
					<dim>30</dim>
				</port>
			</output>
		</layer>
		<layer id="161" name="model/softmax_embedding_layer/dense_5/Relu" type="ReLU" version="opset1">
			<input>
				<port id="0" precision="FP32">
					<dim>1</dim>
					<dim>30</dim>
				</port>
			</input>
			<output>
				<port id="1" precision="FP32">
					<dim>1</dim>
					<dim>30</dim>
				</port>
			</output>
		</layer>
		<layer id="162" name="Transpose_26541_compressed" type="Const" version="opset1">
			<data element_type="f16" shape="30, 30" offset="28568" size="1800" />
			<output>
				<port id="0" precision="FP16">
					<dim>30</dim>
					<dim>30</dim>
				</port>
			</output>
		</layer>
		<layer id="163" name="Transpose_26541" type="Convert" version="opset1">
			<data destination_type="f32" />
			<rt_info>
				<attribute name="decompression" version="0" />
			</rt_info>
			<input>
				<port id="0" precision="FP16">
					<dim>30</dim>
					<dim>30</dim>
				</port>
			</input>
			<output>
				<port id="1" precision="FP32">
					<dim>30</dim>
					<dim>30</dim>
				</port>
			</output>
		</layer>
		<layer id="164" name="model/softmax_embedding_layer/dense_6/MatMul" type="MatMul" version="opset1">
			<data transpose_a="false" transpose_b="true" />
			<input>
				<port id="0" precision="FP32">
					<dim>1</dim>
					<dim>30</dim>
				</port>
				<port id="1" precision="FP32">
					<dim>30</dim>
					<dim>30</dim>
				</port>
			</input>
			<output>
				<port id="2" precision="FP32">
					<dim>1</dim>
					<dim>30</dim>
				</port>
			</output>
		</layer>
		<layer id="165" name="Constant_27695_compressed" type="Const" version="opset1">
			<data element_type="f16" shape="1, 30" offset="30368" size="60" />
			<output>
				<port id="0" precision="FP16">
					<dim>1</dim>
					<dim>30</dim>
				</port>
			</output>
		</layer>
		<layer id="166" name="Constant_27695" type="Convert" version="opset1">
			<data destination_type="f32" />
			<rt_info>
				<attribute name="decompression" version="0" />
			</rt_info>
			<input>
				<port id="0" precision="FP16">
					<dim>1</dim>
					<dim>30</dim>
				</port>
			</input>
			<output>
				<port id="1" precision="FP32">
					<dim>1</dim>
					<dim>30</dim>
				</port>
			</output>
		</layer>
		<layer id="167" name="model/softmax_embedding_layer/dense_6/BiasAdd" type="Add" version="opset1">
			<data auto_broadcast="numpy" />
			<input>
				<port id="0" precision="FP32">
					<dim>1</dim>
					<dim>30</dim>
				</port>
				<port id="1" precision="FP32">
					<dim>1</dim>
					<dim>30</dim>
				</port>
			</input>
			<output>
				<port id="2" precision="FP32">
					<dim>1</dim>
					<dim>30</dim>
				</port>
			</output>
		</layer>
		<layer id="168" name="model/softmax_embedding_layer/dense_6/Relu" type="ReLU" version="opset1">
			<input>
				<port id="0" precision="FP32">
					<dim>1</dim>
					<dim>30</dim>
				</port>
			</input>
			<output>
				<port id="1" precision="FP32">
					<dim>1</dim>
					<dim>30</dim>
				</port>
			</output>
		</layer>
		<layer id="169" name="Transpose_26544_compressed" type="Const" version="opset1">
			<data element_type="f16" shape="30, 30" offset="30428" size="1800" />
			<output>
				<port id="0" precision="FP16">
					<dim>30</dim>
					<dim>30</dim>
				</port>
			</output>
		</layer>
		<layer id="170" name="Transpose_26544" type="Convert" version="opset1">
			<data destination_type="f32" />
			<rt_info>
				<attribute name="decompression" version="0" />
			</rt_info>
			<input>
				<port id="0" precision="FP16">
					<dim>30</dim>
					<dim>30</dim>
				</port>
			</input>
			<output>
				<port id="1" precision="FP32">
					<dim>30</dim>
					<dim>30</dim>
				</port>
			</output>
		</layer>
		<layer id="171" name="model/softmax_embedding_layer/dense_7/MatMul" type="MatMul" version="opset1">
			<data transpose_a="false" transpose_b="true" />
			<input>
				<port id="0" precision="FP32">
					<dim>1</dim>
					<dim>30</dim>
				</port>
				<port id="1" precision="FP32">
					<dim>30</dim>
					<dim>30</dim>
				</port>
			</input>
			<output>
				<port id="2" precision="FP32">
					<dim>1</dim>
					<dim>30</dim>
				</port>
			</output>
		</layer>
		<layer id="172" name="Constant_27696_compressed" type="Const" version="opset1">
			<data element_type="f16" shape="1, 30" offset="32228" size="60" />
			<output>
				<port id="0" precision="FP16">
					<dim>1</dim>
					<dim>30</dim>
				</port>
			</output>
		</layer>
		<layer id="173" name="Constant_27696" type="Convert" version="opset1">
			<data destination_type="f32" />
			<rt_info>
				<attribute name="decompression" version="0" />
			</rt_info>
			<input>
				<port id="0" precision="FP16">
					<dim>1</dim>
					<dim>30</dim>
				</port>
			</input>
			<output>
				<port id="1" precision="FP32">
					<dim>1</dim>
					<dim>30</dim>
				</port>
			</output>
		</layer>
		<layer id="174" name="model/softmax_embedding_layer/dense_7/BiasAdd" type="Add" version="opset1">
			<data auto_broadcast="numpy" />
			<input>
				<port id="0" precision="FP32">
					<dim>1</dim>
					<dim>30</dim>
				</port>
				<port id="1" precision="FP32">
					<dim>1</dim>
					<dim>30</dim>
				</port>
			</input>
			<output>
				<port id="2" precision="FP32">
					<dim>1</dim>
					<dim>30</dim>
				</port>
			</output>
		</layer>
		<layer id="175" name="model/softmax_embedding_layer/dense_7/Relu" type="ReLU" version="opset1">
			<input>
				<port id="0" precision="FP32">
					<dim>1</dim>
					<dim>30</dim>
				</port>
			</input>
			<output>
				<port id="1" precision="FP32">
					<dim>1</dim>
					<dim>30</dim>
				</port>
			</output>
		</layer>
		<layer id="176" name="Transpose_26547_compressed" type="Const" version="opset1">
			<data element_type="f16" shape="20, 30" offset="32288" size="1200" />
			<output>
				<port id="0" precision="FP16">
					<dim>20</dim>
					<dim>30</dim>
				</port>
			</output>
		</layer>
		<layer id="177" name="Transpose_26547" type="Convert" version="opset1">
			<data destination_type="f32" />
			<rt_info>
				<attribute name="decompression" version="0" />
			</rt_info>
			<input>
				<port id="0" precision="FP16">
					<dim>20</dim>
					<dim>30</dim>
				</port>
			</input>
			<output>
				<port id="1" precision="FP32">
					<dim>20</dim>
					<dim>30</dim>
				</port>
			</output>
		</layer>
		<layer id="178" name="model/softmax_embedding_layer/dense_8/MatMul" type="MatMul" version="opset1">
			<data transpose_a="false" transpose_b="true" />
			<input>
				<port id="0" precision="FP32">
					<dim>1</dim>
					<dim>30</dim>
				</port>
				<port id="1" precision="FP32">
					<dim>20</dim>
					<dim>30</dim>
				</port>
			</input>
			<output>
				<port id="2" precision="FP32">
					<dim>1</dim>
					<dim>20</dim>
				</port>
			</output>
		</layer>
		<layer id="179" name="Constant_27697_compressed" type="Const" version="opset1">
			<data element_type="f16" shape="1, 20" offset="33488" size="40" />
			<output>
				<port id="0" precision="FP16">
					<dim>1</dim>
					<dim>20</dim>
				</port>
			</output>
		</layer>
		<layer id="180" name="Constant_27697" type="Convert" version="opset1">
			<data destination_type="f32" />
			<rt_info>
				<attribute name="decompression" version="0" />
			</rt_info>
			<input>
				<port id="0" precision="FP16">
					<dim>1</dim>
					<dim>20</dim>
				</port>
			</input>
			<output>
				<port id="1" precision="FP32">
					<dim>1</dim>
					<dim>20</dim>
				</port>
			</output>
		</layer>
		<layer id="181" name="model/softmax_embedding_layer/dense_8/BiasAdd" type="Add" version="opset1">
			<data auto_broadcast="numpy" />
			<input>
				<port id="0" precision="FP32">
					<dim>1</dim>
					<dim>20</dim>
				</port>
				<port id="1" precision="FP32">
					<dim>1</dim>
					<dim>20</dim>
				</port>
			</input>
			<output>
				<port id="2" precision="FP32">
					<dim>1</dim>
					<dim>20</dim>
				</port>
			</output>
		</layer>
		<layer id="182" name="model/softmax_embedding_layer/Softmax" type="SoftMax" version="opset8">
			<data axis="-1" />
			<input>
				<port id="0" precision="FP32">
					<dim>1</dim>
					<dim>20</dim>
				</port>
			</input>
			<output>
				<port id="1" precision="FP32">
					<dim>1</dim>
					<dim>20</dim>
				</port>
			</output>
		</layer>
		<layer id="183" name="model/tf.__operators__.getitem/strided_slice/stack" type="Const" version="opset1">
			<data element_type="i32" shape="4" offset="33528" size="16" />
			<rt_info>
				<attribute name="precise" version="0" />
			</rt_info>
			<output>
				<port id="0" precision="I32">
					<dim>4</dim>
				</port>
			</output>
		</layer>
		<layer id="184" name="model/tf.__operators__.getitem/strided_slice/stack_1" type="Const" version="opset1">
			<data element_type="i32" shape="4" offset="33528" size="16" />
			<rt_info>
				<attribute name="precise" version="0" />
			</rt_info>
			<output>
				<port id="0" precision="I32">
					<dim>4</dim>
				</port>
			</output>
		</layer>
		<layer id="185" name="model/tf.__operators__.getitem/strided_slice/stack_2" type="Const" version="opset1">
			<data element_type="i32" shape="4" offset="33544" size="16" />
			<rt_info>
				<attribute name="precise" version="0" />
			</rt_info>
			<output>
				<port id="0" precision="I32">
					<dim>4</dim>
				</port>
			</output>
		</layer>
		<layer id="186" name="model/tf.__operators__.getitem/strided_slice" type="StridedSlice" version="opset1">
			<data begin_mask="1, 0, 0, 1" end_mask="1, 0, 0, 1" new_axis_mask="0, 1, 1, 0" shrink_axis_mask="0, 0, 0, 0" ellipsis_mask="0, 0, 0, 0" />
			<input>
				<port id="0" precision="FP32">
					<dim>1</dim>
					<dim>20</dim>
				</port>
				<port id="1" precision="I32">
					<dim>4</dim>
				</port>
				<port id="2" precision="I32">
					<dim>4</dim>
				</port>
				<port id="3" precision="I32">
					<dim>4</dim>
				</port>
			</input>
			<output>
				<port id="4" precision="FP32">
					<dim>1</dim>
					<dim>1</dim>
					<dim>1</dim>
					<dim>20</dim>
				</port>
			</output>
		</layer>
		<layer id="187" name="model/tf.__operators__.getitem_1/strided_slice/stack" type="Const" version="opset1">
			<data element_type="i32" shape="2" offset="33560" size="8" />
			<rt_info>
				<attribute name="precise" version="0" />
			</rt_info>
			<output>
				<port id="0" precision="I32">
					<dim>2</dim>
				</port>
			</output>
		</layer>
		<layer id="188" name="model/tf.__operators__.getitem_1/strided_slice/stack_1" type="Const" version="opset1">
			<data element_type="i32" shape="2" offset="33568" size="8" />
			<rt_info>
				<attribute name="precise" version="0" />
			</rt_info>
			<output>
				<port id="0" precision="I32">
					<dim>2</dim>
				</port>
			</output>
		</layer>
		<layer id="189" name="model/tf.__operators__.getitem_1/strided_slice/stack_2" type="Const" version="opset1">
			<data element_type="i32" shape="2" offset="33576" size="8" />
			<rt_info>
				<attribute name="precise" version="0" />
			</rt_info>
			<output>
				<port id="0" precision="I32">
					<dim>2</dim>
				</port>
			</output>
		</layer>
		<layer id="190" name="model/tf.__operators__.getitem_1/strided_slice" type="StridedSlice" version="opset1">
			<data begin_mask="0, 0" end_mask="0, 0" new_axis_mask="0, 0" shrink_axis_mask="0, 1" ellipsis_mask="1, 0" />
			<input>
				<port id="0" precision="FP32">
					<dim>1</dim>
					<dim>1</dim>
					<dim>1</dim>
					<dim>20</dim>
				</port>
				<port id="1" precision="I32">
					<dim>2</dim>
				</port>
				<port id="2" precision="I32">
					<dim>2</dim>
				</port>
				<port id="3" precision="I32">
					<dim>2</dim>
				</port>
			</input>
			<output>
				<port id="4" precision="FP32">
					<dim>1</dim>
					<dim>1</dim>
					<dim>1</dim>
				</port>
			</output>
		</layer>
		<layer id="191" name="model/multiply/mul" type="Multiply" version="opset1">
			<data auto_broadcast="numpy" />
			<input>
				<port id="0" precision="FP32">
					<dim>1</dim>
					<dim>256</dim>
					<dim>64</dim>
				</port>
				<port id="1" precision="FP32">
					<dim>1</dim>
					<dim>1</dim>
					<dim>1</dim>
				</port>
			</input>
			<output>
				<port id="2" precision="FP32">
					<dim>1</dim>
					<dim>256</dim>
					<dim>64</dim>
				</port>
			</output>
		</layer>
		<layer id="192" name="model/ttl_1/sequential_1/tt_dense_1/t3f_matmul/t3f_transpose/transpose_compressed" type="Const" version="opset1">
			<data element_type="f16" shape="1, 4, 4, 16" offset="33584" size="512" />
			<output>
				<port id="0" precision="FP16">
					<dim>1</dim>
					<dim>4</dim>
					<dim>4</dim>
					<dim>16</dim>
				</port>
			</output>
		</layer>
		<layer id="193" name="model/ttl_1/sequential_1/tt_dense_1/t3f_matmul/t3f_transpose/transpose" type="Convert" version="opset1">
			<data destination_type="f32" />
			<rt_info>
				<attribute name="decompression" version="0" />
			</rt_info>
			<input>
				<port id="0" precision="FP16">
					<dim>1</dim>
					<dim>4</dim>
					<dim>4</dim>
					<dim>16</dim>
				</port>
			</input>
			<output>
				<port id="1" precision="FP32">
					<dim>1</dim>
					<dim>4</dim>
					<dim>4</dim>
					<dim>16</dim>
				</port>
			</output>
		</layer>
		<layer id="194" name="model/ttl_1/sequential_1/tt_dense_1/t3f_matmul/t3f_transpose/transpose_1_compressed" type="Const" version="opset1">
			<data element_type="f16" shape="16, 4, 2, 16" offset="34096" size="4096" />
			<output>
				<port id="0" precision="FP16">
					<dim>16</dim>
					<dim>4</dim>
					<dim>2</dim>
					<dim>16</dim>
				</port>
			</output>
		</layer>
		<layer id="195" name="model/ttl_1/sequential_1/tt_dense_1/t3f_matmul/t3f_transpose/transpose_1" type="Convert" version="opset1">
			<data destination_type="f32" />
			<rt_info>
				<attribute name="decompression" version="0" />
			</rt_info>
			<input>
				<port id="0" precision="FP16">
					<dim>16</dim>
					<dim>4</dim>
					<dim>2</dim>
					<dim>16</dim>
				</port>
			</input>
			<output>
				<port id="1" precision="FP32">
					<dim>16</dim>
					<dim>4</dim>
					<dim>2</dim>
					<dim>16</dim>
				</port>
			</output>
		</layer>
		<layer id="196" name="model/ttl_1/sequential_1/tt_dense_1/t3f_matmul/t3f_transpose/transpose_2_compressed" type="Const" version="opset1">
			<data element_type="f16" shape="16, 4, 2, 16" offset="38192" size="4096" />
			<output>
				<port id="0" precision="FP16">
					<dim>16</dim>
					<dim>4</dim>
					<dim>2</dim>
					<dim>16</dim>
				</port>
			</output>
		</layer>
		<layer id="197" name="model/ttl_1/sequential_1/tt_dense_1/t3f_matmul/t3f_transpose/transpose_2" type="Convert" version="opset1">
			<data destination_type="f32" />
			<rt_info>
				<attribute name="decompression" version="0" />
			</rt_info>
			<input>
				<port id="0" precision="FP16">
					<dim>16</dim>
					<dim>4</dim>
					<dim>2</dim>
					<dim>16</dim>
				</port>
			</input>
			<output>
				<port id="1" precision="FP32">
					<dim>16</dim>
					<dim>4</dim>
					<dim>2</dim>
					<dim>16</dim>
				</port>
			</output>
		</layer>
		<layer id="198" name="model/ttl_1/sequential_1/tt_dense_1/t3f_matmul/t3f_transpose/transpose_3_compressed" type="Const" version="opset1">
			<data element_type="f16" shape="16, 4, 2, 16" offset="42288" size="4096" />
			<output>
				<port id="0" precision="FP16">
					<dim>16</dim>
					<dim>4</dim>
					<dim>2</dim>
					<dim>16</dim>
				</port>
			</output>
		</layer>
		<layer id="199" name="model/ttl_1/sequential_1/tt_dense_1/t3f_matmul/t3f_transpose/transpose_3" type="Convert" version="opset1">
			<data destination_type="f32" />
			<rt_info>
				<attribute name="decompression" version="0" />
			</rt_info>
			<input>
				<port id="0" precision="FP16">
					<dim>16</dim>
					<dim>4</dim>
					<dim>2</dim>
					<dim>16</dim>
				</port>
			</input>
			<output>
				<port id="1" precision="FP32">
					<dim>16</dim>
					<dim>4</dim>
					<dim>2</dim>
					<dim>16</dim>
				</port>
			</output>
		</layer>
		<layer id="200" name="model/ttl_1/sequential_1/tt_dense_1/t3f_matmul/t3f_transpose/transpose_4_compressed" type="Const" version="opset1">
			<data element_type="f16" shape="16, 4, 2, 16" offset="46384" size="4096" />
			<output>
				<port id="0" precision="FP16">
					<dim>16</dim>
					<dim>4</dim>
					<dim>2</dim>
					<dim>16</dim>
				</port>
			</output>
		</layer>
		<layer id="201" name="model/ttl_1/sequential_1/tt_dense_1/t3f_matmul/t3f_transpose/transpose_4" type="Convert" version="opset1">
			<data destination_type="f32" />
			<rt_info>
				<attribute name="decompression" version="0" />
			</rt_info>
			<input>
				<port id="0" precision="FP16">
					<dim>16</dim>
					<dim>4</dim>
					<dim>2</dim>
					<dim>16</dim>
				</port>
			</input>
			<output>
				<port id="1" precision="FP32">
					<dim>16</dim>
					<dim>4</dim>
					<dim>2</dim>
					<dim>16</dim>
				</port>
			</output>
		</layer>
		<layer id="202" name="model/ttl_1/sequential_1/tt_dense_1/t3f_matmul/t3f_transpose/transpose_5_compressed" type="Const" version="opset1">
			<data element_type="f16" shape="16, 4, 2, 7" offset="50480" size="1792" />
			<output>
				<port id="0" precision="FP16">
					<dim>16</dim>
					<dim>4</dim>
					<dim>2</dim>
					<dim>7</dim>
				</port>
			</output>
		</layer>
		<layer id="203" name="model/ttl_1/sequential_1/tt_dense_1/t3f_matmul/t3f_transpose/transpose_5" type="Convert" version="opset1">
			<data destination_type="f32" />
			<rt_info>
				<attribute name="decompression" version="0" />
			</rt_info>
			<input>
				<port id="0" precision="FP16">
					<dim>16</dim>
					<dim>4</dim>
					<dim>2</dim>
					<dim>7</dim>
				</port>
			</input>
			<output>
				<port id="1" precision="FP32">
					<dim>16</dim>
					<dim>4</dim>
					<dim>2</dim>
					<dim>7</dim>
				</port>
			</output>
		</layer>
		<layer id="204" name="model/ttl_1/sequential_1/tt_dense_1/t3f_matmul/t3f_transpose/transpose_6_compressed" type="Const" version="opset1">
			<data element_type="f16" shape="7, 4, 2, 1" offset="52272" size="112" />
			<output>
				<port id="0" precision="FP16">
					<dim>7</dim>
					<dim>4</dim>
					<dim>2</dim>
					<dim>1</dim>
				</port>
			</output>
		</layer>
		<layer id="205" name="model/ttl_1/sequential_1/tt_dense_1/t3f_matmul/t3f_transpose/transpose_6" type="Convert" version="opset1">
			<data destination_type="f32" />
			<rt_info>
				<attribute name="decompression" version="0" />
			</rt_info>
			<input>
				<port id="0" precision="FP16">
					<dim>7</dim>
					<dim>4</dim>
					<dim>2</dim>
					<dim>1</dim>
				</port>
			</input>
			<output>
				<port id="1" precision="FP32">
					<dim>7</dim>
					<dim>4</dim>
					<dim>2</dim>
					<dim>1</dim>
				</port>
			</output>
		</layer>
		<layer id="206" name="model/ttl_1/sequential_1/einsum_ttl_1/strided_slice/stack" type="Const" version="opset1">
			<data element_type="i32" shape="3" offset="18804" size="12" />
			<rt_info>
				<attribute name="precise" version="0" />
			</rt_info>
			<output>
				<port id="0" precision="I32">
					<dim>3</dim>
				</port>
			</output>
		</layer>
		<layer id="207" name="model/ttl_1/sequential_1/einsum_ttl_1/strided_slice/stack_1" type="Const" version="opset1">
			<data element_type="i32" shape="3" offset="18816" size="12" />
			<rt_info>
				<attribute name="precise" version="0" />
			</rt_info>
			<output>
				<port id="0" precision="I32">
					<dim>3</dim>
				</port>
			</output>
		</layer>
		<layer id="208" name="model/ttl_1/sequential_1/einsum_ttl_1/strided_slice/stack_2" type="Const" version="opset1">
			<data element_type="i32" shape="3" offset="18828" size="12" />
			<rt_info>
				<attribute name="precise" version="0" />
			</rt_info>
			<output>
				<port id="0" precision="I32">
					<dim>3</dim>
				</port>
			</output>
		</layer>
		<layer id="209" name="model/ttl_1/sequential_1/einsum_ttl_1/strided_slice" type="StridedSlice" version="opset1">
			<data begin_mask="1, 1, 1" end_mask="1, 0, 0" new_axis_mask="0, 0, 0" shrink_axis_mask="0, 0, 0" ellipsis_mask="0, 0, 0" />
			<input>
				<port id="0" precision="FP32">
					<dim>1</dim>
					<dim>128</dim>
					<dim>16</dim>
				</port>
				<port id="1" precision="I32">
					<dim>3</dim>
				</port>
				<port id="2" precision="I32">
					<dim>3</dim>
				</port>
				<port id="3" precision="I32">
					<dim>3</dim>
				</port>
			</input>
			<output>
				<port id="4" precision="FP32">
					<dim>1</dim>
					<dim>64</dim>
					<dim>8</dim>
				</port>
			</output>
		</layer>
		<layer id="210" name="model/ttl_1/sequential_1/einsum_ttl_1/strided_slice_1_compressed" type="Const" version="opset1">
			<data element_type="f16" shape="8" offset="52384" size="16" />
			<output>
				<port id="0" precision="FP16">
					<dim>8</dim>
				</port>
			</output>
		</layer>
		<layer id="211" name="model/ttl_1/sequential_1/einsum_ttl_1/strided_slice_1" type="Convert" version="opset1">
			<data destination_type="f32" />
			<rt_info>
				<attribute name="decompression" version="0" />
			</rt_info>
			<input>
				<port id="0" precision="FP16">
					<dim>8</dim>
				</port>
			</input>
			<output>
				<port id="1" precision="FP32">
					<dim>8</dim>
				</port>
			</output>
		</layer>
		<layer id="212" name="model/ttl_1/sequential_1/einsum_ttl_1/einsum/Einsum" type="Einsum" version="opset7">
			<data equation="abc,c->ab" />
			<input>
				<port id="0" precision="FP32">
					<dim>1</dim>
					<dim>64</dim>
					<dim>8</dim>
				</port>
				<port id="1" precision="FP32">
					<dim>8</dim>
				</port>
			</input>
			<output>
				<port id="2" precision="FP32">
					<dim>1</dim>
					<dim>64</dim>
				</port>
			</output>
		</layer>
		<layer id="213" name="model/ttl_1/sequential_1/einsum_ttl_1/strided_slice_2/stack" type="Const" version="opset1">
			<data element_type="i32" shape="3" offset="18856" size="12" />
			<rt_info>
				<attribute name="precise" version="0" />
			</rt_info>
			<output>
				<port id="0" precision="I32">
					<dim>3</dim>
				</port>
			</output>
		</layer>
		<layer id="214" name="model/ttl_1/sequential_1/einsum_ttl_1/strided_slice_2/stack_1" type="Const" version="opset1">
			<data element_type="i32" shape="3" offset="18868" size="12" />
			<rt_info>
				<attribute name="precise" version="0" />
			</rt_info>
			<output>
				<port id="0" precision="I32">
					<dim>3</dim>
				</port>
			</output>
		</layer>
		<layer id="215" name="model/ttl_1/sequential_1/einsum_ttl_1/strided_slice_2/stack_2" type="Const" version="opset1">
			<data element_type="i32" shape="3" offset="18828" size="12" />
			<rt_info>
				<attribute name="precise" version="0" />
			</rt_info>
			<output>
				<port id="0" precision="I32">
					<dim>3</dim>
				</port>
			</output>
		</layer>
		<layer id="216" name="model/ttl_1/sequential_1/einsum_ttl_1/strided_slice_2" type="StridedSlice" version="opset1">
			<data begin_mask="1, 1" end_mask="1, 0" new_axis_mask="0, 0" shrink_axis_mask="0, 0" ellipsis_mask="0, 0" />
			<input>
				<port id="0" precision="FP32">
					<dim>1</dim>
					<dim>128</dim>
					<dim>16</dim>
				</port>
				<port id="1" precision="I32">
					<dim>3</dim>
				</port>
				<port id="2" precision="I32">
					<dim>3</dim>
				</port>
				<port id="3" precision="I32">
					<dim>3</dim>
				</port>
			</input>
			<output>
				<port id="4" precision="FP32">
					<dim>1</dim>
					<dim>64</dim>
					<dim>8</dim>
				</port>
			</output>
		</layer>
		<layer id="217" name="Unsqueeze_4031_compressed" type="Const" version="opset1">
			<data element_type="f16" shape="1, 8" offset="52384" size="16" />
			<output>
				<port id="0" precision="FP16">
					<dim>1</dim>
					<dim>8</dim>
				</port>
			</output>
		</layer>
		<layer id="218" name="Unsqueeze_4031" type="Convert" version="opset1">
			<data destination_type="f32" />
			<rt_info>
				<attribute name="decompression" version="0" />
			</rt_info>
			<input>
				<port id="0" precision="FP16">
					<dim>1</dim>
					<dim>8</dim>
				</port>
			</input>
			<output>
				<port id="1" precision="FP32">
					<dim>1</dim>
					<dim>8</dim>
				</port>
			</output>
		</layer>
		<layer id="219" name="Broadcast_4038" type="Const" version="opset1">
			<data element_type="i32" shape="1" offset="18880" size="4" />
			<output>
				<port id="0" precision="I32">
					<dim>1</dim>
				</port>
			</output>
		</layer>
		<layer id="220" name="ReverseSequence_4041" type="ReverseSequence" version="opset1">
			<data batch_axis="0" seq_axis="1" />
			<input>
				<port id="0" precision="FP32">
					<dim>1</dim>
					<dim>8</dim>
				</port>
				<port id="1" precision="I32">
					<dim>1</dim>
				</port>
			</input>
			<output>
				<port id="2" precision="FP32">
					<dim>1</dim>
					<dim>8</dim>
				</port>
			</output>
		</layer>
		<layer id="221" name="Constant_4042" type="Const" version="opset1">
			<data element_type="i32" shape="1" offset="18884" size="4" />
			<output>
				<port id="0" precision="I32">
					<dim>1</dim>
				</port>
			</output>
		</layer>
		<layer id="222" name="model/ttl_1/sequential_1/einsum_ttl_1/ReverseV2" type="Squeeze" version="opset1">
			<input>
				<port id="0" precision="FP32">
					<dim>1</dim>
					<dim>8</dim>
				</port>
				<port id="1" precision="I32">
					<dim>1</dim>
				</port>
			</input>
			<output>
				<port id="2" precision="FP32">
					<dim>8</dim>
				</port>
			</output>
		</layer>
		<layer id="223" name="model/ttl_1/sequential_1/einsum_ttl_1/einsum_1/Einsum" type="Einsum" version="opset7">
			<data equation="abc,c->ab" />
			<input>
				<port id="0" precision="FP32">
					<dim>1</dim>
					<dim>64</dim>
					<dim>8</dim>
				</port>
				<port id="1" precision="FP32">
					<dim>8</dim>
				</port>
			</input>
			<output>
				<port id="2" precision="FP32">
					<dim>1</dim>
					<dim>64</dim>
				</port>
			</output>
		</layer>
		<layer id="224" name="model/ttl_1/sequential_1/einsum_ttl_1/add" type="Add" version="opset1">
			<data auto_broadcast="numpy" />
			<input>
				<port id="0" precision="FP32">
					<dim>1</dim>
					<dim>64</dim>
				</port>
				<port id="1" precision="FP32">
					<dim>1</dim>
					<dim>64</dim>
				</port>
			</input>
			<output>
				<port id="2" precision="FP32">
					<dim>1</dim>
					<dim>64</dim>
				</port>
			</output>
		</layer>
		<layer id="225" name="model/ttl_1/sequential_1/einsum_ttl_1/strided_slice_4/stack" type="Const" version="opset1">
			<data element_type="i32" shape="3" offset="18888" size="12" />
			<rt_info>
				<attribute name="precise" version="0" />
			</rt_info>
			<output>
				<port id="0" precision="I32">
					<dim>3</dim>
				</port>
			</output>
		</layer>
		<layer id="226" name="model/ttl_1/sequential_1/einsum_ttl_1/strided_slice_4/stack_1" type="Const" version="opset1">
			<data element_type="i32" shape="3" offset="18856" size="12" />
			<rt_info>
				<attribute name="precise" version="0" />
			</rt_info>
			<output>
				<port id="0" precision="I32">
					<dim>3</dim>
				</port>
			</output>
		</layer>
		<layer id="227" name="model/ttl_1/sequential_1/einsum_ttl_1/strided_slice_4/stack_2" type="Const" version="opset1">
			<data element_type="i32" shape="3" offset="18828" size="12" />
			<rt_info>
				<attribute name="precise" version="0" />
			</rt_info>
			<output>
				<port id="0" precision="I32">
					<dim>3</dim>
				</port>
			</output>
		</layer>
		<layer id="228" name="model/ttl_1/sequential_1/einsum_ttl_1/strided_slice_4" type="StridedSlice" version="opset1">
			<data begin_mask="1, 0, 1" end_mask="1, 1, 0" new_axis_mask="0, 0, 0" shrink_axis_mask="0, 0, 0" ellipsis_mask="0, 0, 0" />
			<input>
				<port id="0" precision="FP32">
					<dim>1</dim>
					<dim>128</dim>
					<dim>16</dim>
				</port>
				<port id="1" precision="I32">
					<dim>3</dim>
				</port>
				<port id="2" precision="I32">
					<dim>3</dim>
				</port>
				<port id="3" precision="I32">
					<dim>3</dim>
				</port>
			</input>
			<output>
				<port id="4" precision="FP32">
					<dim>1</dim>
					<dim>64</dim>
					<dim>8</dim>
				</port>
			</output>
		</layer>
		<layer id="229" name="model/ttl_1/sequential_1/einsum_ttl_1/strided_slice_5_compressed" type="Const" version="opset1">
			<data element_type="f16" shape="8" offset="52400" size="16" />
			<output>
				<port id="0" precision="FP16">
					<dim>8</dim>
				</port>
			</output>
		</layer>
		<layer id="230" name="model/ttl_1/sequential_1/einsum_ttl_1/strided_slice_5" type="Convert" version="opset1">
			<data destination_type="f32" />
			<rt_info>
				<attribute name="decompression" version="0" />
			</rt_info>
			<input>
				<port id="0" precision="FP16">
					<dim>8</dim>
				</port>
			</input>
			<output>
				<port id="1" precision="FP32">
					<dim>8</dim>
				</port>
			</output>
		</layer>
		<layer id="231" name="model/ttl_1/sequential_1/einsum_ttl_1/einsum_2/Einsum" type="Einsum" version="opset7">
			<data equation="abc,c->ab" />
			<input>
				<port id="0" precision="FP32">
					<dim>1</dim>
					<dim>64</dim>
					<dim>8</dim>
				</port>
				<port id="1" precision="FP32">
					<dim>8</dim>
				</port>
			</input>
			<output>
				<port id="2" precision="FP32">
					<dim>1</dim>
					<dim>64</dim>
				</port>
			</output>
		</layer>
		<layer id="232" name="model/ttl_1/sequential_1/einsum_ttl_1/strided_slice_6/stack" type="Const" version="opset1">
			<data element_type="i32" shape="3" offset="18816" size="12" />
			<rt_info>
				<attribute name="precise" version="0" />
			</rt_info>
			<output>
				<port id="0" precision="I32">
					<dim>3</dim>
				</port>
			</output>
		</layer>
		<layer id="233" name="model/ttl_1/sequential_1/einsum_ttl_1/strided_slice_6/stack_1" type="Const" version="opset1">
			<data element_type="i32" shape="3" offset="18916" size="12" />
			<rt_info>
				<attribute name="precise" version="0" />
			</rt_info>
			<output>
				<port id="0" precision="I32">
					<dim>3</dim>
				</port>
			</output>
		</layer>
		<layer id="234" name="model/ttl_1/sequential_1/einsum_ttl_1/strided_slice_6/stack_2" type="Const" version="opset1">
			<data element_type="i32" shape="3" offset="18828" size="12" />
			<rt_info>
				<attribute name="precise" version="0" />
			</rt_info>
			<output>
				<port id="0" precision="I32">
					<dim>3</dim>
				</port>
			</output>
		</layer>
		<layer id="235" name="model/ttl_1/sequential_1/einsum_ttl_1/strided_slice_6" type="StridedSlice" version="opset1">
			<data begin_mask="1, 0" end_mask="1, 1" new_axis_mask="0, 0" shrink_axis_mask="0, 0" ellipsis_mask="0, 0" />
			<input>
				<port id="0" precision="FP32">
					<dim>1</dim>
					<dim>128</dim>
					<dim>16</dim>
				</port>
				<port id="1" precision="I32">
					<dim>3</dim>
				</port>
				<port id="2" precision="I32">
					<dim>3</dim>
				</port>
				<port id="3" precision="I32">
					<dim>3</dim>
				</port>
			</input>
			<output>
				<port id="4" precision="FP32">
					<dim>1</dim>
					<dim>64</dim>
					<dim>8</dim>
				</port>
			</output>
		</layer>
		<layer id="236" name="Unsqueeze_3997_compressed" type="Const" version="opset1">
			<data element_type="f16" shape="1, 8" offset="52400" size="16" />
			<output>
				<port id="0" precision="FP16">
					<dim>1</dim>
					<dim>8</dim>
				</port>
			</output>
		</layer>
		<layer id="237" name="Unsqueeze_3997" type="Convert" version="opset1">
			<data destination_type="f32" />
			<rt_info>
				<attribute name="decompression" version="0" />
			</rt_info>
			<input>
				<port id="0" precision="FP16">
					<dim>1</dim>
					<dim>8</dim>
				</port>
			</input>
			<output>
				<port id="1" precision="FP32">
					<dim>1</dim>
					<dim>8</dim>
				</port>
			</output>
		</layer>
		<layer id="238" name="Broadcast_4004" type="Const" version="opset1">
			<data element_type="i32" shape="1" offset="18880" size="4" />
			<output>
				<port id="0" precision="I32">
					<dim>1</dim>
				</port>
			</output>
		</layer>
		<layer id="239" name="ReverseSequence_4007" type="ReverseSequence" version="opset1">
			<data batch_axis="0" seq_axis="1" />
			<input>
				<port id="0" precision="FP32">
					<dim>1</dim>
					<dim>8</dim>
				</port>
				<port id="1" precision="I32">
					<dim>1</dim>
				</port>
			</input>
			<output>
				<port id="2" precision="FP32">
					<dim>1</dim>
					<dim>8</dim>
				</port>
			</output>
		</layer>
		<layer id="240" name="Constant_4008" type="Const" version="opset1">
			<data element_type="i32" shape="1" offset="18884" size="4" />
			<output>
				<port id="0" precision="I32">
					<dim>1</dim>
				</port>
			</output>
		</layer>
		<layer id="241" name="model/ttl_1/sequential_1/einsum_ttl_1/ReverseV2_1" type="Squeeze" version="opset1">
			<input>
				<port id="0" precision="FP32">
					<dim>1</dim>
					<dim>8</dim>
				</port>
				<port id="1" precision="I32">
					<dim>1</dim>
				</port>
			</input>
			<output>
				<port id="2" precision="FP32">
					<dim>8</dim>
				</port>
			</output>
		</layer>
		<layer id="242" name="model/ttl_1/sequential_1/einsum_ttl_1/einsum_3/Einsum" type="Einsum" version="opset7">
			<data equation="abc,c->ab" />
			<input>
				<port id="0" precision="FP32">
					<dim>1</dim>
					<dim>64</dim>
					<dim>8</dim>
				</port>
				<port id="1" precision="FP32">
					<dim>8</dim>
				</port>
			</input>
			<output>
				<port id="2" precision="FP32">
					<dim>1</dim>
					<dim>64</dim>
				</port>
			</output>
		</layer>
		<layer id="243" name="model/ttl_1/sequential_1/einsum_ttl_1/add_1" type="Add" version="opset1">
			<data auto_broadcast="numpy" />
			<input>
				<port id="0" precision="FP32">
					<dim>1</dim>
					<dim>64</dim>
				</port>
				<port id="1" precision="FP32">
					<dim>1</dim>
					<dim>64</dim>
				</port>
			</input>
			<output>
				<port id="2" precision="FP32">
					<dim>1</dim>
					<dim>64</dim>
				</port>
			</output>
		</layer>
		<layer id="244" name="model/ttl_1/sequential_1/einsum_ttl_1/strided_slice_8/stack" type="Const" version="opset1">
			<data element_type="i32" shape="3" offset="18804" size="12" />
			<rt_info>
				<attribute name="precise" version="0" />
			</rt_info>
			<output>
				<port id="0" precision="I32">
					<dim>3</dim>
				</port>
			</output>
		</layer>
		<layer id="245" name="model/ttl_1/sequential_1/einsum_ttl_1/strided_slice_8/stack_1" type="Const" version="opset1">
			<data element_type="i32" shape="3" offset="18816" size="12" />
			<rt_info>
				<attribute name="precise" version="0" />
			</rt_info>
			<output>
				<port id="0" precision="I32">
					<dim>3</dim>
				</port>
			</output>
		</layer>
		<layer id="246" name="model/ttl_1/sequential_1/einsum_ttl_1/strided_slice_8/stack_2" type="Const" version="opset1">
			<data element_type="i32" shape="3" offset="18828" size="12" />
			<rt_info>
				<attribute name="precise" version="0" />
			</rt_info>
			<output>
				<port id="0" precision="I32">
					<dim>3</dim>
				</port>
			</output>
		</layer>
		<layer id="247" name="model/ttl_1/sequential_1/einsum_ttl_1/strided_slice_8" type="StridedSlice" version="opset1">
			<data begin_mask="1, 1, 1" end_mask="1, 0, 0" new_axis_mask="0, 0, 0" shrink_axis_mask="0, 0, 0" ellipsis_mask="0, 0, 0" />
			<input>
				<port id="0" precision="FP32">
					<dim>1</dim>
					<dim>128</dim>
					<dim>16</dim>
				</port>
				<port id="1" precision="I32">
					<dim>3</dim>
				</port>
				<port id="2" precision="I32">
					<dim>3</dim>
				</port>
				<port id="3" precision="I32">
					<dim>3</dim>
				</port>
			</input>
			<output>
				<port id="4" precision="FP32">
					<dim>1</dim>
					<dim>64</dim>
					<dim>8</dim>
				</port>
			</output>
		</layer>
		<layer id="248" name="model/ttl_1/sequential_1/einsum_ttl_1/strided_slice_9_compressed" type="Const" version="opset1">
			<data element_type="f16" shape="8" offset="52416" size="16" />
			<output>
				<port id="0" precision="FP16">
					<dim>8</dim>
				</port>
			</output>
		</layer>
		<layer id="249" name="model/ttl_1/sequential_1/einsum_ttl_1/strided_slice_9" type="Convert" version="opset1">
			<data destination_type="f32" />
			<rt_info>
				<attribute name="decompression" version="0" />
			</rt_info>
			<input>
				<port id="0" precision="FP16">
					<dim>8</dim>
				</port>
			</input>
			<output>
				<port id="1" precision="FP32">
					<dim>8</dim>
				</port>
			</output>
		</layer>
		<layer id="250" name="model/ttl_1/sequential_1/einsum_ttl_1/einsum_4/Einsum" type="Einsum" version="opset7">
			<data equation="abc,c->ab" />
			<input>
				<port id="0" precision="FP32">
					<dim>1</dim>
					<dim>64</dim>
					<dim>8</dim>
				</port>
				<port id="1" precision="FP32">
					<dim>8</dim>
				</port>
			</input>
			<output>
				<port id="2" precision="FP32">
					<dim>1</dim>
					<dim>64</dim>
				</port>
			</output>
		</layer>
		<layer id="251" name="model/ttl_1/sequential_1/einsum_ttl_1/strided_slice_10/stack" type="Const" version="opset1">
			<data element_type="i32" shape="3" offset="18856" size="12" />
			<rt_info>
				<attribute name="precise" version="0" />
			</rt_info>
			<output>
				<port id="0" precision="I32">
					<dim>3</dim>
				</port>
			</output>
		</layer>
		<layer id="252" name="model/ttl_1/sequential_1/einsum_ttl_1/strided_slice_10/stack_1" type="Const" version="opset1">
			<data element_type="i32" shape="3" offset="18868" size="12" />
			<rt_info>
				<attribute name="precise" version="0" />
			</rt_info>
			<output>
				<port id="0" precision="I32">
					<dim>3</dim>
				</port>
			</output>
		</layer>
		<layer id="253" name="model/ttl_1/sequential_1/einsum_ttl_1/strided_slice_10/stack_2" type="Const" version="opset1">
			<data element_type="i32" shape="3" offset="18828" size="12" />
			<rt_info>
				<attribute name="precise" version="0" />
			</rt_info>
			<output>
				<port id="0" precision="I32">
					<dim>3</dim>
				</port>
			</output>
		</layer>
		<layer id="254" name="model/ttl_1/sequential_1/einsum_ttl_1/strided_slice_10" type="StridedSlice" version="opset1">
			<data begin_mask="1, 1" end_mask="1, 0" new_axis_mask="0, 0" shrink_axis_mask="0, 0" ellipsis_mask="0, 0" />
			<input>
				<port id="0" precision="FP32">
					<dim>1</dim>
					<dim>128</dim>
					<dim>16</dim>
				</port>
				<port id="1" precision="I32">
					<dim>3</dim>
				</port>
				<port id="2" precision="I32">
					<dim>3</dim>
				</port>
				<port id="3" precision="I32">
					<dim>3</dim>
				</port>
			</input>
			<output>
				<port id="4" precision="FP32">
					<dim>1</dim>
					<dim>64</dim>
					<dim>8</dim>
				</port>
			</output>
		</layer>
		<layer id="255" name="Unsqueeze_3963_compressed" type="Const" version="opset1">
			<data element_type="f16" shape="1, 8" offset="52416" size="16" />
			<output>
				<port id="0" precision="FP16">
					<dim>1</dim>
					<dim>8</dim>
				</port>
			</output>
		</layer>
		<layer id="256" name="Unsqueeze_3963" type="Convert" version="opset1">
			<data destination_type="f32" />
			<rt_info>
				<attribute name="decompression" version="0" />
			</rt_info>
			<input>
				<port id="0" precision="FP16">
					<dim>1</dim>
					<dim>8</dim>
				</port>
			</input>
			<output>
				<port id="1" precision="FP32">
					<dim>1</dim>
					<dim>8</dim>
				</port>
			</output>
		</layer>
		<layer id="257" name="Broadcast_3970" type="Const" version="opset1">
			<data element_type="i32" shape="1" offset="18880" size="4" />
			<output>
				<port id="0" precision="I32">
					<dim>1</dim>
				</port>
			</output>
		</layer>
		<layer id="258" name="ReverseSequence_3973" type="ReverseSequence" version="opset1">
			<data batch_axis="0" seq_axis="1" />
			<input>
				<port id="0" precision="FP32">
					<dim>1</dim>
					<dim>8</dim>
				</port>
				<port id="1" precision="I32">
					<dim>1</dim>
				</port>
			</input>
			<output>
				<port id="2" precision="FP32">
					<dim>1</dim>
					<dim>8</dim>
				</port>
			</output>
		</layer>
		<layer id="259" name="Constant_3974" type="Const" version="opset1">
			<data element_type="i32" shape="1" offset="18884" size="4" />
			<output>
				<port id="0" precision="I32">
					<dim>1</dim>
				</port>
			</output>
		</layer>
		<layer id="260" name="model/ttl_1/sequential_1/einsum_ttl_1/ReverseV2_2" type="Squeeze" version="opset1">
			<input>
				<port id="0" precision="FP32">
					<dim>1</dim>
					<dim>8</dim>
				</port>
				<port id="1" precision="I32">
					<dim>1</dim>
				</port>
			</input>
			<output>
				<port id="2" precision="FP32">
					<dim>8</dim>
				</port>
			</output>
		</layer>
		<layer id="261" name="model/ttl_1/sequential_1/einsum_ttl_1/einsum_5/Einsum" type="Einsum" version="opset7">
			<data equation="abc,c->ab" />
			<input>
				<port id="0" precision="FP32">
					<dim>1</dim>
					<dim>64</dim>
					<dim>8</dim>
				</port>
				<port id="1" precision="FP32">
					<dim>8</dim>
				</port>
			</input>
			<output>
				<port id="2" precision="FP32">
					<dim>1</dim>
					<dim>64</dim>
				</port>
			</output>
		</layer>
		<layer id="262" name="model/ttl_1/sequential_1/einsum_ttl_1/add_2" type="Add" version="opset1">
			<data auto_broadcast="numpy" />
			<input>
				<port id="0" precision="FP32">
					<dim>1</dim>
					<dim>64</dim>
				</port>
				<port id="1" precision="FP32">
					<dim>1</dim>
					<dim>64</dim>
				</port>
			</input>
			<output>
				<port id="2" precision="FP32">
					<dim>1</dim>
					<dim>64</dim>
				</port>
			</output>
		</layer>
		<layer id="263" name="model/ttl_1/sequential_1/einsum_ttl_1/strided_slice_12/stack" type="Const" version="opset1">
			<data element_type="i32" shape="3" offset="18888" size="12" />
			<rt_info>
				<attribute name="precise" version="0" />
			</rt_info>
			<output>
				<port id="0" precision="I32">
					<dim>3</dim>
				</port>
			</output>
		</layer>
		<layer id="264" name="model/ttl_1/sequential_1/einsum_ttl_1/strided_slice_12/stack_1" type="Const" version="opset1">
			<data element_type="i32" shape="3" offset="18856" size="12" />
			<rt_info>
				<attribute name="precise" version="0" />
			</rt_info>
			<output>
				<port id="0" precision="I32">
					<dim>3</dim>
				</port>
			</output>
		</layer>
		<layer id="265" name="model/ttl_1/sequential_1/einsum_ttl_1/strided_slice_12/stack_2" type="Const" version="opset1">
			<data element_type="i32" shape="3" offset="18828" size="12" />
			<rt_info>
				<attribute name="precise" version="0" />
			</rt_info>
			<output>
				<port id="0" precision="I32">
					<dim>3</dim>
				</port>
			</output>
		</layer>
		<layer id="266" name="model/ttl_1/sequential_1/einsum_ttl_1/strided_slice_12" type="StridedSlice" version="opset1">
			<data begin_mask="1, 0, 1" end_mask="1, 1, 0" new_axis_mask="0, 0, 0" shrink_axis_mask="0, 0, 0" ellipsis_mask="0, 0, 0" />
			<input>
				<port id="0" precision="FP32">
					<dim>1</dim>
					<dim>128</dim>
					<dim>16</dim>
				</port>
				<port id="1" precision="I32">
					<dim>3</dim>
				</port>
				<port id="2" precision="I32">
					<dim>3</dim>
				</port>
				<port id="3" precision="I32">
					<dim>3</dim>
				</port>
			</input>
			<output>
				<port id="4" precision="FP32">
					<dim>1</dim>
					<dim>64</dim>
					<dim>8</dim>
				</port>
			</output>
		</layer>
		<layer id="267" name="model/ttl_1/sequential_1/einsum_ttl_1/strided_slice_13_compressed" type="Const" version="opset1">
			<data element_type="f16" shape="8" offset="52432" size="16" />
			<output>
				<port id="0" precision="FP16">
					<dim>8</dim>
				</port>
			</output>
		</layer>
		<layer id="268" name="model/ttl_1/sequential_1/einsum_ttl_1/strided_slice_13" type="Convert" version="opset1">
			<data destination_type="f32" />
			<rt_info>
				<attribute name="decompression" version="0" />
			</rt_info>
			<input>
				<port id="0" precision="FP16">
					<dim>8</dim>
				</port>
			</input>
			<output>
				<port id="1" precision="FP32">
					<dim>8</dim>
				</port>
			</output>
		</layer>
		<layer id="269" name="model/ttl_1/sequential_1/einsum_ttl_1/einsum_6/Einsum" type="Einsum" version="opset7">
			<data equation="abc,c->ab" />
			<input>
				<port id="0" precision="FP32">
					<dim>1</dim>
					<dim>64</dim>
					<dim>8</dim>
				</port>
				<port id="1" precision="FP32">
					<dim>8</dim>
				</port>
			</input>
			<output>
				<port id="2" precision="FP32">
					<dim>1</dim>
					<dim>64</dim>
				</port>
			</output>
		</layer>
		<layer id="270" name="model/ttl_1/sequential_1/einsum_ttl_1/strided_slice_14/stack" type="Const" version="opset1">
			<data element_type="i32" shape="3" offset="18816" size="12" />
			<rt_info>
				<attribute name="precise" version="0" />
			</rt_info>
			<output>
				<port id="0" precision="I32">
					<dim>3</dim>
				</port>
			</output>
		</layer>
		<layer id="271" name="model/ttl_1/sequential_1/einsum_ttl_1/strided_slice_14/stack_1" type="Const" version="opset1">
			<data element_type="i32" shape="3" offset="18916" size="12" />
			<rt_info>
				<attribute name="precise" version="0" />
			</rt_info>
			<output>
				<port id="0" precision="I32">
					<dim>3</dim>
				</port>
			</output>
		</layer>
		<layer id="272" name="model/ttl_1/sequential_1/einsum_ttl_1/strided_slice_14/stack_2" type="Const" version="opset1">
			<data element_type="i32" shape="3" offset="18828" size="12" />
			<rt_info>
				<attribute name="precise" version="0" />
			</rt_info>
			<output>
				<port id="0" precision="I32">
					<dim>3</dim>
				</port>
			</output>
		</layer>
		<layer id="273" name="model/ttl_1/sequential_1/einsum_ttl_1/strided_slice_14" type="StridedSlice" version="opset1">
			<data begin_mask="1, 0" end_mask="1, 1" new_axis_mask="0, 0" shrink_axis_mask="0, 0" ellipsis_mask="0, 0" />
			<input>
				<port id="0" precision="FP32">
					<dim>1</dim>
					<dim>128</dim>
					<dim>16</dim>
				</port>
				<port id="1" precision="I32">
					<dim>3</dim>
				</port>
				<port id="2" precision="I32">
					<dim>3</dim>
				</port>
				<port id="3" precision="I32">
					<dim>3</dim>
				</port>
			</input>
			<output>
				<port id="4" precision="FP32">
					<dim>1</dim>
					<dim>64</dim>
					<dim>8</dim>
				</port>
			</output>
		</layer>
		<layer id="274" name="Unsqueeze_3927_compressed" type="Const" version="opset1">
			<data element_type="f16" shape="1, 8" offset="52432" size="16" />
			<output>
				<port id="0" precision="FP16">
					<dim>1</dim>
					<dim>8</dim>
				</port>
			</output>
		</layer>
		<layer id="275" name="Unsqueeze_3927" type="Convert" version="opset1">
			<data destination_type="f32" />
			<rt_info>
				<attribute name="decompression" version="0" />
			</rt_info>
			<input>
				<port id="0" precision="FP16">
					<dim>1</dim>
					<dim>8</dim>
				</port>
			</input>
			<output>
				<port id="1" precision="FP32">
					<dim>1</dim>
					<dim>8</dim>
				</port>
			</output>
		</layer>
		<layer id="276" name="Broadcast_3934" type="Const" version="opset1">
			<data element_type="i32" shape="1" offset="18880" size="4" />
			<output>
				<port id="0" precision="I32">
					<dim>1</dim>
				</port>
			</output>
		</layer>
		<layer id="277" name="ReverseSequence_3937" type="ReverseSequence" version="opset1">
			<data batch_axis="0" seq_axis="1" />
			<input>
				<port id="0" precision="FP32">
					<dim>1</dim>
					<dim>8</dim>
				</port>
				<port id="1" precision="I32">
					<dim>1</dim>
				</port>
			</input>
			<output>
				<port id="2" precision="FP32">
					<dim>1</dim>
					<dim>8</dim>
				</port>
			</output>
		</layer>
		<layer id="278" name="Constant_3938" type="Const" version="opset1">
			<data element_type="i32" shape="1" offset="18884" size="4" />
			<output>
				<port id="0" precision="I32">
					<dim>1</dim>
				</port>
			</output>
		</layer>
		<layer id="279" name="model/ttl_1/sequential_1/einsum_ttl_1/ReverseV2_3" type="Squeeze" version="opset1">
			<input>
				<port id="0" precision="FP32">
					<dim>1</dim>
					<dim>8</dim>
				</port>
				<port id="1" precision="I32">
					<dim>1</dim>
				</port>
			</input>
			<output>
				<port id="2" precision="FP32">
					<dim>8</dim>
				</port>
			</output>
		</layer>
		<layer id="280" name="model/ttl_1/sequential_1/einsum_ttl_1/einsum_7/Einsum" type="Einsum" version="opset7">
			<data equation="abc,c->ab" />
			<input>
				<port id="0" precision="FP32">
					<dim>1</dim>
					<dim>64</dim>
					<dim>8</dim>
				</port>
				<port id="1" precision="FP32">
					<dim>8</dim>
				</port>
			</input>
			<output>
				<port id="2" precision="FP32">
					<dim>1</dim>
					<dim>64</dim>
				</port>
			</output>
		</layer>
		<layer id="281" name="model/ttl_1/sequential_1/einsum_ttl_1/add_3" type="Add" version="opset1">
			<data auto_broadcast="numpy" />
			<input>
				<port id="0" precision="FP32">
					<dim>1</dim>
					<dim>64</dim>
				</port>
				<port id="1" precision="FP32">
					<dim>1</dim>
					<dim>64</dim>
				</port>
			</input>
			<output>
				<port id="2" precision="FP32">
					<dim>1</dim>
					<dim>64</dim>
				</port>
			</output>
		</layer>
		<layer id="282" name="model/ttl_1/sequential_1/einsum_ttl_1/concat" type="Concat" version="opset1">
			<data axis="1" />
			<input>
				<port id="0" precision="FP32">
					<dim>1</dim>
					<dim>64</dim>
				</port>
				<port id="1" precision="FP32">
					<dim>1</dim>
					<dim>64</dim>
				</port>
				<port id="2" precision="FP32">
					<dim>1</dim>
					<dim>64</dim>
				</port>
				<port id="3" precision="FP32">
					<dim>1</dim>
					<dim>64</dim>
				</port>
			</input>
			<output>
				<port id="4" precision="FP32">
					<dim>1</dim>
					<dim>256</dim>
				</port>
			</output>
		</layer>
		<layer id="283" name="model/ttl_1/sequential_1/flatten_1/Const" type="Const" version="opset1">
			<data element_type="i32" shape="2" offset="18960" size="8" />
			<rt_info>
				<attribute name="precise" version="0" />
			</rt_info>
			<output>
				<port id="0" precision="I32">
					<dim>2</dim>
				</port>
			</output>
		</layer>
		<layer id="284" name="model/ttl_1/sequential_1/flatten_1/Reshape" type="Reshape" version="opset1">
			<data special_zero="false" />
			<input>
				<port id="0" precision="FP32">
					<dim>1</dim>
					<dim>256</dim>
				</port>
				<port id="1" precision="I32">
					<dim>2</dim>
				</port>
			</input>
			<output>
				<port id="2" precision="FP32">
					<dim>1</dim>
					<dim>256</dim>
				</port>
			</output>
		</layer>
		<layer id="285" name="model/ttl_1/sequential_1/tt_dense_1/t3f_matmul/Reshape/shape" type="Const" version="opset1">
			<data element_type="i32" shape="3" offset="18968" size="12" />
			<rt_info>
				<attribute name="precise" version="0" />
			</rt_info>
			<output>
				<port id="0" precision="I32">
					<dim>3</dim>
				</port>
			</output>
		</layer>
		<layer id="286" name="model/ttl_1/sequential_1/tt_dense_1/t3f_matmul/Reshape" type="Reshape" version="opset1">
			<data special_zero="false" />
			<input>
				<port id="0" precision="FP32">
					<dim>1</dim>
					<dim>256</dim>
				</port>
				<port id="1" precision="I32">
					<dim>3</dim>
				</port>
			</input>
			<output>
				<port id="2" precision="FP32">
					<dim>128</dim>
					<dim>2</dim>
					<dim>1</dim>
				</port>
			</output>
		</layer>
		<layer id="287" name="model/ttl_1/sequential_1/tt_dense_1/t3f_matmul/einsum/Einsum" type="Einsum" version="opset7">
			<data equation="aijb,rjb->ira" />
			<input>
				<port id="0" precision="FP32">
					<dim>7</dim>
					<dim>4</dim>
					<dim>2</dim>
					<dim>1</dim>
				</port>
				<port id="1" precision="FP32">
					<dim>128</dim>
					<dim>2</dim>
					<dim>1</dim>
				</port>
			</input>
			<output>
				<port id="2" precision="FP32">
					<dim>4</dim>
					<dim>128</dim>
					<dim>7</dim>
				</port>
			</output>
		</layer>
		<layer id="288" name="model/ttl_1/sequential_1/tt_dense_1/t3f_matmul/Reshape_1/shape" type="Const" version="opset1">
			<data element_type="i32" shape="3" offset="18980" size="12" />
			<rt_info>
				<attribute name="precise" version="0" />
			</rt_info>
			<output>
				<port id="0" precision="I32">
					<dim>3</dim>
				</port>
			</output>
		</layer>
		<layer id="289" name="model/ttl_1/sequential_1/tt_dense_1/t3f_matmul/Reshape_1" type="Reshape" version="opset1">
			<data special_zero="false" />
			<input>
				<port id="0" precision="FP32">
					<dim>4</dim>
					<dim>128</dim>
					<dim>7</dim>
				</port>
				<port id="1" precision="I32">
					<dim>3</dim>
				</port>
			</input>
			<output>
				<port id="2" precision="FP32">
					<dim>256</dim>
					<dim>2</dim>
					<dim>7</dim>
				</port>
			</output>
		</layer>
		<layer id="290" name="model/ttl_1/sequential_1/tt_dense_1/t3f_matmul/einsum_1/Einsum" type="Einsum" version="opset7">
			<data equation="aijb,rjb->ira" />
			<input>
				<port id="0" precision="FP32">
					<dim>16</dim>
					<dim>4</dim>
					<dim>2</dim>
					<dim>7</dim>
				</port>
				<port id="1" precision="FP32">
					<dim>256</dim>
					<dim>2</dim>
					<dim>7</dim>
				</port>
			</input>
			<output>
				<port id="2" precision="FP32">
					<dim>4</dim>
					<dim>256</dim>
					<dim>16</dim>
				</port>
			</output>
		</layer>
		<layer id="291" name="model/ttl_1/sequential_1/tt_dense_1/t3f_matmul/Reshape_2/shape" type="Const" version="opset1">
			<data element_type="i32" shape="3" offset="18992" size="12" />
			<rt_info>
				<attribute name="precise" version="0" />
			</rt_info>
			<output>
				<port id="0" precision="I32">
					<dim>3</dim>
				</port>
			</output>
		</layer>
		<layer id="292" name="model/ttl_1/sequential_1/tt_dense_1/t3f_matmul/Reshape_2" type="Reshape" version="opset1">
			<data special_zero="false" />
			<input>
				<port id="0" precision="FP32">
					<dim>4</dim>
					<dim>256</dim>
					<dim>16</dim>
				</port>
				<port id="1" precision="I32">
					<dim>3</dim>
				</port>
			</input>
			<output>
				<port id="2" precision="FP32">
					<dim>512</dim>
					<dim>2</dim>
					<dim>16</dim>
				</port>
			</output>
		</layer>
		<layer id="293" name="model/ttl_1/sequential_1/tt_dense_1/t3f_matmul/einsum_2/Einsum" type="Einsum" version="opset7">
			<data equation="aijb,rjb->ira" />
			<input>
				<port id="0" precision="FP32">
					<dim>16</dim>
					<dim>4</dim>
					<dim>2</dim>
					<dim>16</dim>
				</port>
				<port id="1" precision="FP32">
					<dim>512</dim>
					<dim>2</dim>
					<dim>16</dim>
				</port>
			</input>
			<output>
				<port id="2" precision="FP32">
					<dim>4</dim>
					<dim>512</dim>
					<dim>16</dim>
				</port>
			</output>
		</layer>
		<layer id="294" name="model/ttl_1/sequential_1/tt_dense_1/t3f_matmul/Reshape_3/shape" type="Const" version="opset1">
			<data element_type="i32" shape="3" offset="18992" size="12" />
			<rt_info>
				<attribute name="precise" version="0" />
			</rt_info>
			<output>
				<port id="0" precision="I32">
					<dim>3</dim>
				</port>
			</output>
		</layer>
		<layer id="295" name="model/ttl_1/sequential_1/tt_dense_1/t3f_matmul/Reshape_3" type="Reshape" version="opset1">
			<data special_zero="false" />
			<input>
				<port id="0" precision="FP32">
					<dim>4</dim>
					<dim>512</dim>
					<dim>16</dim>
				</port>
				<port id="1" precision="I32">
					<dim>3</dim>
				</port>
			</input>
			<output>
				<port id="2" precision="FP32">
					<dim>1024</dim>
					<dim>2</dim>
					<dim>16</dim>
				</port>
			</output>
		</layer>
		<layer id="296" name="model/ttl_1/sequential_1/tt_dense_1/t3f_matmul/einsum_3/Einsum" type="Einsum" version="opset7">
			<data equation="aijb,rjb->ira" />
			<input>
				<port id="0" precision="FP32">
					<dim>16</dim>
					<dim>4</dim>
					<dim>2</dim>
					<dim>16</dim>
				</port>
				<port id="1" precision="FP32">
					<dim>1024</dim>
					<dim>2</dim>
					<dim>16</dim>
				</port>
			</input>
			<output>
				<port id="2" precision="FP32">
					<dim>4</dim>
					<dim>1024</dim>
					<dim>16</dim>
				</port>
			</output>
		</layer>
		<layer id="297" name="model/ttl_1/sequential_1/tt_dense_1/t3f_matmul/Reshape_4/shape" type="Const" version="opset1">
			<data element_type="i32" shape="3" offset="18992" size="12" />
			<rt_info>
				<attribute name="precise" version="0" />
			</rt_info>
			<output>
				<port id="0" precision="I32">
					<dim>3</dim>
				</port>
			</output>
		</layer>
		<layer id="298" name="model/ttl_1/sequential_1/tt_dense_1/t3f_matmul/Reshape_4" type="Reshape" version="opset1">
			<data special_zero="false" />
			<input>
				<port id="0" precision="FP32">
					<dim>4</dim>
					<dim>1024</dim>
					<dim>16</dim>
				</port>
				<port id="1" precision="I32">
					<dim>3</dim>
				</port>
			</input>
			<output>
				<port id="2" precision="FP32">
					<dim>2048</dim>
					<dim>2</dim>
					<dim>16</dim>
				</port>
			</output>
		</layer>
		<layer id="299" name="model/ttl_1/sequential_1/tt_dense_1/t3f_matmul/einsum_4/Einsum" type="Einsum" version="opset7">
			<data equation="aijb,rjb->ira" />
			<input>
				<port id="0" precision="FP32">
					<dim>16</dim>
					<dim>4</dim>
					<dim>2</dim>
					<dim>16</dim>
				</port>
				<port id="1" precision="FP32">
					<dim>2048</dim>
					<dim>2</dim>
					<dim>16</dim>
				</port>
			</input>
			<output>
				<port id="2" precision="FP32">
					<dim>4</dim>
					<dim>2048</dim>
					<dim>16</dim>
				</port>
			</output>
		</layer>
		<layer id="300" name="model/ttl_1/sequential_1/tt_dense_1/t3f_matmul/Reshape_5/shape" type="Const" version="opset1">
			<data element_type="i32" shape="3" offset="18992" size="12" />
			<rt_info>
				<attribute name="precise" version="0" />
			</rt_info>
			<output>
				<port id="0" precision="I32">
					<dim>3</dim>
				</port>
			</output>
		</layer>
		<layer id="301" name="model/ttl_1/sequential_1/tt_dense_1/t3f_matmul/Reshape_5" type="Reshape" version="opset1">
			<data special_zero="false" />
			<input>
				<port id="0" precision="FP32">
					<dim>4</dim>
					<dim>2048</dim>
					<dim>16</dim>
				</port>
				<port id="1" precision="I32">
					<dim>3</dim>
				</port>
			</input>
			<output>
				<port id="2" precision="FP32">
					<dim>4096</dim>
					<dim>2</dim>
					<dim>16</dim>
				</port>
			</output>
		</layer>
		<layer id="302" name="model/ttl_1/sequential_1/tt_dense_1/t3f_matmul/einsum_5/Einsum" type="Einsum" version="opset7">
			<data equation="aijb,rjb->ira" />
			<input>
				<port id="0" precision="FP32">
					<dim>16</dim>
					<dim>4</dim>
					<dim>2</dim>
					<dim>16</dim>
				</port>
				<port id="1" precision="FP32">
					<dim>4096</dim>
					<dim>2</dim>
					<dim>16</dim>
				</port>
			</input>
			<output>
				<port id="2" precision="FP32">
					<dim>4</dim>
					<dim>4096</dim>
					<dim>16</dim>
				</port>
			</output>
		</layer>
		<layer id="303" name="model/ttl_1/sequential_1/tt_dense_1/t3f_matmul/Reshape_6/shape" type="Const" version="opset1">
			<data element_type="i32" shape="3" offset="19004" size="12" />
			<rt_info>
				<attribute name="precise" version="0" />
			</rt_info>
			<output>
				<port id="0" precision="I32">
					<dim>3</dim>
				</port>
			</output>
		</layer>
		<layer id="304" name="model/ttl_1/sequential_1/tt_dense_1/t3f_matmul/Reshape_6" type="Reshape" version="opset1">
			<data special_zero="false" />
			<input>
				<port id="0" precision="FP32">
					<dim>4</dim>
					<dim>4096</dim>
					<dim>16</dim>
				</port>
				<port id="1" precision="I32">
					<dim>3</dim>
				</port>
			</input>
			<output>
				<port id="2" precision="FP32">
					<dim>4096</dim>
					<dim>4</dim>
					<dim>16</dim>
				</port>
			</output>
		</layer>
		<layer id="305" name="model/ttl_1/sequential_1/tt_dense_1/t3f_matmul/einsum_6/Einsum" type="Einsum" version="opset7">
			<data equation="aijb,rjb->ira" />
			<input>
				<port id="0" precision="FP32">
					<dim>1</dim>
					<dim>4</dim>
					<dim>4</dim>
					<dim>16</dim>
				</port>
				<port id="1" precision="FP32">
					<dim>4096</dim>
					<dim>4</dim>
					<dim>16</dim>
				</port>
			</input>
			<output>
				<port id="2" precision="FP32">
					<dim>4</dim>
					<dim>4096</dim>
					<dim>1</dim>
				</port>
			</output>
		</layer>
		<layer id="306" name="model/ttl_1/sequential_1/reshape_1/Reshape/shape" type="Const" version="opset1">
			<data element_type="i32" shape="3" offset="19016" size="12" />
			<rt_info>
				<attribute name="precise" version="0" />
			</rt_info>
			<output>
				<port id="0" precision="I32">
					<dim>3</dim>
				</port>
			</output>
		</layer>
		<layer id="307" name="model/ttl_1/sequential_1/reshape_1/Reshape" type="Reshape" version="opset1">
			<data special_zero="false" />
			<input>
				<port id="0" precision="FP32">
					<dim>4</dim>
					<dim>4096</dim>
					<dim>1</dim>
				</port>
				<port id="1" precision="I32">
					<dim>3</dim>
				</port>
			</input>
			<output>
				<port id="2" precision="FP32">
					<dim>1</dim>
					<dim>256</dim>
					<dim>64</dim>
				</port>
			</output>
		</layer>
		<layer id="308" name="model/tf.__operators__.getitem_2/strided_slice/stack" type="Const" version="opset1">
			<data element_type="i32" shape="2" offset="33568" size="8" />
			<rt_info>
				<attribute name="precise" version="0" />
			</rt_info>
			<output>
				<port id="0" precision="I32">
					<dim>2</dim>
				</port>
			</output>
		</layer>
		<layer id="309" name="model/tf.__operators__.getitem_2/strided_slice/stack_1" type="Const" version="opset1">
			<data element_type="i32" shape="2" offset="52448" size="8" />
			<rt_info>
				<attribute name="precise" version="0" />
			</rt_info>
			<output>
				<port id="0" precision="I32">
					<dim>2</dim>
				</port>
			</output>
		</layer>
		<layer id="310" name="model/tf.__operators__.getitem_2/strided_slice/stack_2" type="Const" version="opset1">
			<data element_type="i32" shape="2" offset="33576" size="8" />
			<rt_info>
				<attribute name="precise" version="0" />
			</rt_info>
			<output>
				<port id="0" precision="I32">
					<dim>2</dim>
				</port>
			</output>
		</layer>
		<layer id="311" name="model/tf.__operators__.getitem_2/strided_slice" type="StridedSlice" version="opset1">
			<data begin_mask="0, 0" end_mask="0, 0" new_axis_mask="0, 0" shrink_axis_mask="0, 1" ellipsis_mask="1, 0" />
			<input>
				<port id="0" precision="FP32">
					<dim>1</dim>
					<dim>1</dim>
					<dim>1</dim>
					<dim>20</dim>
				</port>
				<port id="1" precision="I32">
					<dim>2</dim>
				</port>
				<port id="2" precision="I32">
					<dim>2</dim>
				</port>
				<port id="3" precision="I32">
					<dim>2</dim>
				</port>
			</input>
			<output>
				<port id="4" precision="FP32">
					<dim>1</dim>
					<dim>1</dim>
					<dim>1</dim>
				</port>
			</output>
		</layer>
		<layer id="312" name="model/multiply_1/mul" type="Multiply" version="opset1">
			<data auto_broadcast="numpy" />
			<input>
				<port id="0" precision="FP32">
					<dim>1</dim>
					<dim>256</dim>
					<dim>64</dim>
				</port>
				<port id="1" precision="FP32">
					<dim>1</dim>
					<dim>1</dim>
					<dim>1</dim>
				</port>
			</input>
			<output>
				<port id="2" precision="FP32">
					<dim>1</dim>
					<dim>256</dim>
					<dim>64</dim>
				</port>
			</output>
		</layer>
		<layer id="313" name="model/add/add" type="Add" version="opset1">
			<data auto_broadcast="numpy" />
			<input>
				<port id="0" precision="FP32">
					<dim>1</dim>
					<dim>256</dim>
					<dim>64</dim>
				</port>
				<port id="1" precision="FP32">
					<dim>1</dim>
					<dim>256</dim>
					<dim>64</dim>
				</port>
			</input>
			<output>
				<port id="2" precision="FP32">
					<dim>1</dim>
					<dim>256</dim>
					<dim>64</dim>
				</port>
			</output>
		</layer>
		<layer id="314" name="model/ttl_2/sequential_2/tt_dense_2/t3f_matmul/t3f_transpose/transpose_compressed" type="Const" version="opset1">
			<data element_type="f16" shape="1, 4, 4, 16" offset="52456" size="512" />
			<output>
				<port id="0" precision="FP16">
					<dim>1</dim>
					<dim>4</dim>
					<dim>4</dim>
					<dim>16</dim>
				</port>
			</output>
		</layer>
		<layer id="315" name="model/ttl_2/sequential_2/tt_dense_2/t3f_matmul/t3f_transpose/transpose" type="Convert" version="opset1">
			<data destination_type="f32" />
			<rt_info>
				<attribute name="decompression" version="0" />
			</rt_info>
			<input>
				<port id="0" precision="FP16">
					<dim>1</dim>
					<dim>4</dim>
					<dim>4</dim>
					<dim>16</dim>
				</port>
			</input>
			<output>
				<port id="1" precision="FP32">
					<dim>1</dim>
					<dim>4</dim>
					<dim>4</dim>
					<dim>16</dim>
				</port>
			</output>
		</layer>
		<layer id="316" name="model/ttl_2/sequential_2/tt_dense_2/t3f_matmul/t3f_transpose/transpose_1_compressed" type="Const" version="opset1">
			<data element_type="f16" shape="16, 4, 2, 16" offset="52968" size="4096" />
			<output>
				<port id="0" precision="FP16">
					<dim>16</dim>
					<dim>4</dim>
					<dim>2</dim>
					<dim>16</dim>
				</port>
			</output>
		</layer>
		<layer id="317" name="model/ttl_2/sequential_2/tt_dense_2/t3f_matmul/t3f_transpose/transpose_1" type="Convert" version="opset1">
			<data destination_type="f32" />
			<rt_info>
				<attribute name="decompression" version="0" />
			</rt_info>
			<input>
				<port id="0" precision="FP16">
					<dim>16</dim>
					<dim>4</dim>
					<dim>2</dim>
					<dim>16</dim>
				</port>
			</input>
			<output>
				<port id="1" precision="FP32">
					<dim>16</dim>
					<dim>4</dim>
					<dim>2</dim>
					<dim>16</dim>
				</port>
			</output>
		</layer>
		<layer id="318" name="model/ttl_2/sequential_2/tt_dense_2/t3f_matmul/t3f_transpose/transpose_2_compressed" type="Const" version="opset1">
			<data element_type="f16" shape="16, 4, 2, 16" offset="57064" size="4096" />
			<output>
				<port id="0" precision="FP16">
					<dim>16</dim>
					<dim>4</dim>
					<dim>2</dim>
					<dim>16</dim>
				</port>
			</output>
		</layer>
		<layer id="319" name="model/ttl_2/sequential_2/tt_dense_2/t3f_matmul/t3f_transpose/transpose_2" type="Convert" version="opset1">
			<data destination_type="f32" />
			<rt_info>
				<attribute name="decompression" version="0" />
			</rt_info>
			<input>
				<port id="0" precision="FP16">
					<dim>16</dim>
					<dim>4</dim>
					<dim>2</dim>
					<dim>16</dim>
				</port>
			</input>
			<output>
				<port id="1" precision="FP32">
					<dim>16</dim>
					<dim>4</dim>
					<dim>2</dim>
					<dim>16</dim>
				</port>
			</output>
		</layer>
		<layer id="320" name="model/ttl_2/sequential_2/tt_dense_2/t3f_matmul/t3f_transpose/transpose_3_compressed" type="Const" version="opset1">
			<data element_type="f16" shape="16, 4, 2, 16" offset="61160" size="4096" />
			<output>
				<port id="0" precision="FP16">
					<dim>16</dim>
					<dim>4</dim>
					<dim>2</dim>
					<dim>16</dim>
				</port>
			</output>
		</layer>
		<layer id="321" name="model/ttl_2/sequential_2/tt_dense_2/t3f_matmul/t3f_transpose/transpose_3" type="Convert" version="opset1">
			<data destination_type="f32" />
			<rt_info>
				<attribute name="decompression" version="0" />
			</rt_info>
			<input>
				<port id="0" precision="FP16">
					<dim>16</dim>
					<dim>4</dim>
					<dim>2</dim>
					<dim>16</dim>
				</port>
			</input>
			<output>
				<port id="1" precision="FP32">
					<dim>16</dim>
					<dim>4</dim>
					<dim>2</dim>
					<dim>16</dim>
				</port>
			</output>
		</layer>
		<layer id="322" name="model/ttl_2/sequential_2/tt_dense_2/t3f_matmul/t3f_transpose/transpose_4_compressed" type="Const" version="opset1">
			<data element_type="f16" shape="16, 4, 2, 16" offset="65256" size="4096" />
			<output>
				<port id="0" precision="FP16">
					<dim>16</dim>
					<dim>4</dim>
					<dim>2</dim>
					<dim>16</dim>
				</port>
			</output>
		</layer>
		<layer id="323" name="model/ttl_2/sequential_2/tt_dense_2/t3f_matmul/t3f_transpose/transpose_4" type="Convert" version="opset1">
			<data destination_type="f32" />
			<rt_info>
				<attribute name="decompression" version="0" />
			</rt_info>
			<input>
				<port id="0" precision="FP16">
					<dim>16</dim>
					<dim>4</dim>
					<dim>2</dim>
					<dim>16</dim>
				</port>
			</input>
			<output>
				<port id="1" precision="FP32">
					<dim>16</dim>
					<dim>4</dim>
					<dim>2</dim>
					<dim>16</dim>
				</port>
			</output>
		</layer>
		<layer id="324" name="model/ttl_2/sequential_2/tt_dense_2/t3f_matmul/t3f_transpose/transpose_5_compressed" type="Const" version="opset1">
			<data element_type="f16" shape="16, 4, 2, 7" offset="69352" size="1792" />
			<output>
				<port id="0" precision="FP16">
					<dim>16</dim>
					<dim>4</dim>
					<dim>2</dim>
					<dim>7</dim>
				</port>
			</output>
		</layer>
		<layer id="325" name="model/ttl_2/sequential_2/tt_dense_2/t3f_matmul/t3f_transpose/transpose_5" type="Convert" version="opset1">
			<data destination_type="f32" />
			<rt_info>
				<attribute name="decompression" version="0" />
			</rt_info>
			<input>
				<port id="0" precision="FP16">
					<dim>16</dim>
					<dim>4</dim>
					<dim>2</dim>
					<dim>7</dim>
				</port>
			</input>
			<output>
				<port id="1" precision="FP32">
					<dim>16</dim>
					<dim>4</dim>
					<dim>2</dim>
					<dim>7</dim>
				</port>
			</output>
		</layer>
		<layer id="326" name="model/ttl_2/sequential_2/tt_dense_2/t3f_matmul/t3f_transpose/transpose_6_compressed" type="Const" version="opset1">
			<data element_type="f16" shape="7, 4, 2, 1" offset="71144" size="112" />
			<output>
				<port id="0" precision="FP16">
					<dim>7</dim>
					<dim>4</dim>
					<dim>2</dim>
					<dim>1</dim>
				</port>
			</output>
		</layer>
		<layer id="327" name="model/ttl_2/sequential_2/tt_dense_2/t3f_matmul/t3f_transpose/transpose_6" type="Convert" version="opset1">
			<data destination_type="f32" />
			<rt_info>
				<attribute name="decompression" version="0" />
			</rt_info>
			<input>
				<port id="0" precision="FP16">
					<dim>7</dim>
					<dim>4</dim>
					<dim>2</dim>
					<dim>1</dim>
				</port>
			</input>
			<output>
				<port id="1" precision="FP32">
					<dim>7</dim>
					<dim>4</dim>
					<dim>2</dim>
					<dim>1</dim>
				</port>
			</output>
		</layer>
		<layer id="328" name="model/ttl_2/sequential_2/einsum_ttl_2/strided_slice/stack" type="Const" version="opset1">
			<data element_type="i32" shape="3" offset="18804" size="12" />
			<rt_info>
				<attribute name="precise" version="0" />
			</rt_info>
			<output>
				<port id="0" precision="I32">
					<dim>3</dim>
				</port>
			</output>
		</layer>
		<layer id="329" name="model/ttl_2/sequential_2/einsum_ttl_2/strided_slice/stack_1" type="Const" version="opset1">
			<data element_type="i32" shape="3" offset="18816" size="12" />
			<rt_info>
				<attribute name="precise" version="0" />
			</rt_info>
			<output>
				<port id="0" precision="I32">
					<dim>3</dim>
				</port>
			</output>
		</layer>
		<layer id="330" name="model/ttl_2/sequential_2/einsum_ttl_2/strided_slice/stack_2" type="Const" version="opset1">
			<data element_type="i32" shape="3" offset="18828" size="12" />
			<rt_info>
				<attribute name="precise" version="0" />
			</rt_info>
			<output>
				<port id="0" precision="I32">
					<dim>3</dim>
				</port>
			</output>
		</layer>
		<layer id="331" name="model/ttl_2/sequential_2/einsum_ttl_2/strided_slice" type="StridedSlice" version="opset1">
			<data begin_mask="1, 1, 1" end_mask="1, 0, 0" new_axis_mask="0, 0, 0" shrink_axis_mask="0, 0, 0" ellipsis_mask="0, 0, 0" />
			<input>
				<port id="0" precision="FP32">
					<dim>1</dim>
					<dim>128</dim>
					<dim>16</dim>
				</port>
				<port id="1" precision="I32">
					<dim>3</dim>
				</port>
				<port id="2" precision="I32">
					<dim>3</dim>
				</port>
				<port id="3" precision="I32">
					<dim>3</dim>
				</port>
			</input>
			<output>
				<port id="4" precision="FP32">
					<dim>1</dim>
					<dim>64</dim>
					<dim>8</dim>
				</port>
			</output>
		</layer>
		<layer id="332" name="model/ttl_2/sequential_2/einsum_ttl_2/strided_slice_1_compressed" type="Const" version="opset1">
			<data element_type="f16" shape="8" offset="71256" size="16" />
			<output>
				<port id="0" precision="FP16">
					<dim>8</dim>
				</port>
			</output>
		</layer>
		<layer id="333" name="model/ttl_2/sequential_2/einsum_ttl_2/strided_slice_1" type="Convert" version="opset1">
			<data destination_type="f32" />
			<rt_info>
				<attribute name="decompression" version="0" />
			</rt_info>
			<input>
				<port id="0" precision="FP16">
					<dim>8</dim>
				</port>
			</input>
			<output>
				<port id="1" precision="FP32">
					<dim>8</dim>
				</port>
			</output>
		</layer>
		<layer id="334" name="model/ttl_2/sequential_2/einsum_ttl_2/einsum/Einsum" type="Einsum" version="opset7">
			<data equation="abc,c->ab" />
			<input>
				<port id="0" precision="FP32">
					<dim>1</dim>
					<dim>64</dim>
					<dim>8</dim>
				</port>
				<port id="1" precision="FP32">
					<dim>8</dim>
				</port>
			</input>
			<output>
				<port id="2" precision="FP32">
					<dim>1</dim>
					<dim>64</dim>
				</port>
			</output>
		</layer>
		<layer id="335" name="model/ttl_2/sequential_2/einsum_ttl_2/strided_slice_2/stack" type="Const" version="opset1">
			<data element_type="i32" shape="3" offset="18856" size="12" />
			<rt_info>
				<attribute name="precise" version="0" />
			</rt_info>
			<output>
				<port id="0" precision="I32">
					<dim>3</dim>
				</port>
			</output>
		</layer>
		<layer id="336" name="model/ttl_2/sequential_2/einsum_ttl_2/strided_slice_2/stack_1" type="Const" version="opset1">
			<data element_type="i32" shape="3" offset="18868" size="12" />
			<rt_info>
				<attribute name="precise" version="0" />
			</rt_info>
			<output>
				<port id="0" precision="I32">
					<dim>3</dim>
				</port>
			</output>
		</layer>
		<layer id="337" name="model/ttl_2/sequential_2/einsum_ttl_2/strided_slice_2/stack_2" type="Const" version="opset1">
			<data element_type="i32" shape="3" offset="18828" size="12" />
			<rt_info>
				<attribute name="precise" version="0" />
			</rt_info>
			<output>
				<port id="0" precision="I32">
					<dim>3</dim>
				</port>
			</output>
		</layer>
		<layer id="338" name="model/ttl_2/sequential_2/einsum_ttl_2/strided_slice_2" type="StridedSlice" version="opset1">
			<data begin_mask="1, 1" end_mask="1, 0" new_axis_mask="0, 0" shrink_axis_mask="0, 0" ellipsis_mask="0, 0" />
			<input>
				<port id="0" precision="FP32">
					<dim>1</dim>
					<dim>128</dim>
					<dim>16</dim>
				</port>
				<port id="1" precision="I32">
					<dim>3</dim>
				</port>
				<port id="2" precision="I32">
					<dim>3</dim>
				</port>
				<port id="3" precision="I32">
					<dim>3</dim>
				</port>
			</input>
			<output>
				<port id="4" precision="FP32">
					<dim>1</dim>
					<dim>64</dim>
					<dim>8</dim>
				</port>
			</output>
		</layer>
		<layer id="339" name="Unsqueeze_3828_compressed" type="Const" version="opset1">
			<data element_type="f16" shape="1, 8" offset="71256" size="16" />
			<output>
				<port id="0" precision="FP16">
					<dim>1</dim>
					<dim>8</dim>
				</port>
			</output>
		</layer>
		<layer id="340" name="Unsqueeze_3828" type="Convert" version="opset1">
			<data destination_type="f32" />
			<rt_info>
				<attribute name="decompression" version="0" />
			</rt_info>
			<input>
				<port id="0" precision="FP16">
					<dim>1</dim>
					<dim>8</dim>
				</port>
			</input>
			<output>
				<port id="1" precision="FP32">
					<dim>1</dim>
					<dim>8</dim>
				</port>
			</output>
		</layer>
		<layer id="341" name="Broadcast_3835" type="Const" version="opset1">
			<data element_type="i32" shape="1" offset="18880" size="4" />
			<output>
				<port id="0" precision="I32">
					<dim>1</dim>
				</port>
			</output>
		</layer>
		<layer id="342" name="ReverseSequence_3838" type="ReverseSequence" version="opset1">
			<data batch_axis="0" seq_axis="1" />
			<input>
				<port id="0" precision="FP32">
					<dim>1</dim>
					<dim>8</dim>
				</port>
				<port id="1" precision="I32">
					<dim>1</dim>
				</port>
			</input>
			<output>
				<port id="2" precision="FP32">
					<dim>1</dim>
					<dim>8</dim>
				</port>
			</output>
		</layer>
		<layer id="343" name="Constant_3839" type="Const" version="opset1">
			<data element_type="i32" shape="1" offset="18884" size="4" />
			<output>
				<port id="0" precision="I32">
					<dim>1</dim>
				</port>
			</output>
		</layer>
		<layer id="344" name="model/ttl_2/sequential_2/einsum_ttl_2/ReverseV2" type="Squeeze" version="opset1">
			<input>
				<port id="0" precision="FP32">
					<dim>1</dim>
					<dim>8</dim>
				</port>
				<port id="1" precision="I32">
					<dim>1</dim>
				</port>
			</input>
			<output>
				<port id="2" precision="FP32">
					<dim>8</dim>
				</port>
			</output>
		</layer>
		<layer id="345" name="model/ttl_2/sequential_2/einsum_ttl_2/einsum_1/Einsum" type="Einsum" version="opset7">
			<data equation="abc,c->ab" />
			<input>
				<port id="0" precision="FP32">
					<dim>1</dim>
					<dim>64</dim>
					<dim>8</dim>
				</port>
				<port id="1" precision="FP32">
					<dim>8</dim>
				</port>
			</input>
			<output>
				<port id="2" precision="FP32">
					<dim>1</dim>
					<dim>64</dim>
				</port>
			</output>
		</layer>
		<layer id="346" name="model/ttl_2/sequential_2/einsum_ttl_2/add" type="Add" version="opset1">
			<data auto_broadcast="numpy" />
			<input>
				<port id="0" precision="FP32">
					<dim>1</dim>
					<dim>64</dim>
				</port>
				<port id="1" precision="FP32">
					<dim>1</dim>
					<dim>64</dim>
				</port>
			</input>
			<output>
				<port id="2" precision="FP32">
					<dim>1</dim>
					<dim>64</dim>
				</port>
			</output>
		</layer>
		<layer id="347" name="model/ttl_2/sequential_2/einsum_ttl_2/strided_slice_4/stack" type="Const" version="opset1">
			<data element_type="i32" shape="3" offset="18888" size="12" />
			<rt_info>
				<attribute name="precise" version="0" />
			</rt_info>
			<output>
				<port id="0" precision="I32">
					<dim>3</dim>
				</port>
			</output>
		</layer>
		<layer id="348" name="model/ttl_2/sequential_2/einsum_ttl_2/strided_slice_4/stack_1" type="Const" version="opset1">
			<data element_type="i32" shape="3" offset="18856" size="12" />
			<rt_info>
				<attribute name="precise" version="0" />
			</rt_info>
			<output>
				<port id="0" precision="I32">
					<dim>3</dim>
				</port>
			</output>
		</layer>
		<layer id="349" name="model/ttl_2/sequential_2/einsum_ttl_2/strided_slice_4/stack_2" type="Const" version="opset1">
			<data element_type="i32" shape="3" offset="18828" size="12" />
			<rt_info>
				<attribute name="precise" version="0" />
			</rt_info>
			<output>
				<port id="0" precision="I32">
					<dim>3</dim>
				</port>
			</output>
		</layer>
		<layer id="350" name="model/ttl_2/sequential_2/einsum_ttl_2/strided_slice_4" type="StridedSlice" version="opset1">
			<data begin_mask="1, 0, 1" end_mask="1, 1, 0" new_axis_mask="0, 0, 0" shrink_axis_mask="0, 0, 0" ellipsis_mask="0, 0, 0" />
			<input>
				<port id="0" precision="FP32">
					<dim>1</dim>
					<dim>128</dim>
					<dim>16</dim>
				</port>
				<port id="1" precision="I32">
					<dim>3</dim>
				</port>
				<port id="2" precision="I32">
					<dim>3</dim>
				</port>
				<port id="3" precision="I32">
					<dim>3</dim>
				</port>
			</input>
			<output>
				<port id="4" precision="FP32">
					<dim>1</dim>
					<dim>64</dim>
					<dim>8</dim>
				</port>
			</output>
		</layer>
		<layer id="351" name="model/ttl_2/sequential_2/einsum_ttl_2/strided_slice_5_compressed" type="Const" version="opset1">
			<data element_type="f16" shape="8" offset="71272" size="16" />
			<output>
				<port id="0" precision="FP16">
					<dim>8</dim>
				</port>
			</output>
		</layer>
		<layer id="352" name="model/ttl_2/sequential_2/einsum_ttl_2/strided_slice_5" type="Convert" version="opset1">
			<data destination_type="f32" />
			<rt_info>
				<attribute name="decompression" version="0" />
			</rt_info>
			<input>
				<port id="0" precision="FP16">
					<dim>8</dim>
				</port>
			</input>
			<output>
				<port id="1" precision="FP32">
					<dim>8</dim>
				</port>
			</output>
		</layer>
		<layer id="353" name="model/ttl_2/sequential_2/einsum_ttl_2/einsum_2/Einsum" type="Einsum" version="opset7">
			<data equation="abc,c->ab" />
			<input>
				<port id="0" precision="FP32">
					<dim>1</dim>
					<dim>64</dim>
					<dim>8</dim>
				</port>
				<port id="1" precision="FP32">
					<dim>8</dim>
				</port>
			</input>
			<output>
				<port id="2" precision="FP32">
					<dim>1</dim>
					<dim>64</dim>
				</port>
…
		<edge from-layer="1821" from-port="4" to-layer="1828" to-port="0" />
		<edge from-layer="1822" from-port="0" to-layer="1823" to-port="0" />
		<edge from-layer="1823" from-port="1" to-layer="1825" to-port="0" />
		<edge from-layer="1824" from-port="0" to-layer="1825" to-port="1" />
		<edge from-layer="1825" from-port="2" to-layer="1827" to-port="0" />
		<edge from-layer="1826" from-port="0" to-layer="1827" to-port="1" />
		<edge from-layer="1827" from-port="2" to-layer="1828" to-port="1" />
		<edge from-layer="1828" from-port="2" to-layer="1829" to-port="1" />
		<edge from-layer="1829" from-port="2" to-layer="1868" to-port="1" />
		<edge from-layer="1830" from-port="0" to-layer="1833" to-port="1" />
		<edge from-layer="1831" from-port="0" to-layer="1833" to-port="2" />
		<edge from-layer="1832" from-port="0" to-layer="1833" to-port="3" />
		<edge from-layer="1833" from-port="4" to-layer="1836" to-port="0" />
		<edge from-layer="1834" from-port="0" to-layer="1835" to-port="0" />
		<edge from-layer="1835" from-port="1" to-layer="1836" to-port="1" />
		<edge from-layer="1836" from-port="2" to-layer="1848" to-port="0" />
		<edge from-layer="1837" from-port="0" to-layer="1840" to-port="1" />
		<edge from-layer="1838" from-port="0" to-layer="1840" to-port="2" />
		<edge from-layer="1839" from-port="0" to-layer="1840" to-port="3" />
		<edge from-layer="1840" from-port="4" to-layer="1847" to-port="0" />
		<edge from-layer="1841" from-port="0" to-layer="1842" to-port="0" />
		<edge from-layer="1842" from-port="1" to-layer="1844" to-port="0" />
		<edge from-layer="1843" from-port="0" to-layer="1844" to-port="1" />
		<edge from-layer="1844" from-port="2" to-layer="1846" to-port="0" />
		<edge from-layer="1845" from-port="0" to-layer="1846" to-port="1" />
		<edge from-layer="1846" from-port="2" to-layer="1847" to-port="1" />
		<edge from-layer="1847" from-port="2" to-layer="1848" to-port="1" />
		<edge from-layer="1848" from-port="2" to-layer="1868" to-port="2" />
		<edge from-layer="1849" from-port="0" to-layer="1852" to-port="1" />
		<edge from-layer="1850" from-port="0" to-layer="1852" to-port="2" />
		<edge from-layer="1851" from-port="0" to-layer="1852" to-port="3" />
		<edge from-layer="1852" from-port="4" to-layer="1855" to-port="0" />
		<edge from-layer="1853" from-port="0" to-layer="1854" to-port="0" />
		<edge from-layer="1854" from-port="1" to-layer="1855" to-port="1" />
		<edge from-layer="1855" from-port="2" to-layer="1867" to-port="0" />
		<edge from-layer="1856" from-port="0" to-layer="1859" to-port="1" />
		<edge from-layer="1857" from-port="0" to-layer="1859" to-port="2" />
		<edge from-layer="1858" from-port="0" to-layer="1859" to-port="3" />
		<edge from-layer="1859" from-port="4" to-layer="1866" to-port="0" />
		<edge from-layer="1860" from-port="0" to-layer="1861" to-port="0" />
		<edge from-layer="1861" from-port="1" to-layer="1863" to-port="0" />
		<edge from-layer="1862" from-port="0" to-layer="1863" to-port="1" />
		<edge from-layer="1863" from-port="2" to-layer="1865" to-port="0" />
		<edge from-layer="1864" from-port="0" to-layer="1865" to-port="1" />
		<edge from-layer="1865" from-port="2" to-layer="1866" to-port="1" />
		<edge from-layer="1866" from-port="2" to-layer="1867" to-port="1" />
		<edge from-layer="1867" from-port="2" to-layer="1868" to-port="3" />
		<edge from-layer="1868" from-port="4" to-layer="1870" to-port="0" />
		<edge from-layer="1869" from-port="0" to-layer="1870" to-port="1" />
		<edge from-layer="1870" from-port="2" to-layer="1872" to-port="0" />
		<edge from-layer="1871" from-port="0" to-layer="1872" to-port="1" />
		<edge from-layer="1872" from-port="2" to-layer="1873" to-port="1" />
		<edge from-layer="1873" from-port="2" to-layer="1875" to-port="0" />
		<edge from-layer="1874" from-port="0" to-layer="1875" to-port="1" />
		<edge from-layer="1875" from-port="2" to-layer="1876" to-port="1" />
		<edge from-layer="1876" from-port="2" to-layer="1878" to-port="0" />
		<edge from-layer="1877" from-port="0" to-layer="1878" to-port="1" />
		<edge from-layer="1878" from-port="2" to-layer="1879" to-port="1" />
		<edge from-layer="1879" from-port="2" to-layer="1881" to-port="0" />
		<edge from-layer="1880" from-port="0" to-layer="1881" to-port="1" />
		<edge from-layer="1881" from-port="2" to-layer="1882" to-port="1" />
		<edge from-layer="1882" from-port="2" to-layer="1884" to-port="0" />
		<edge from-layer="1883" from-port="0" to-layer="1884" to-port="1" />
		<edge from-layer="1884" from-port="2" to-layer="1885" to-port="1" />
		<edge from-layer="1885" from-port="2" to-layer="1887" to-port="0" />
		<edge from-layer="1886" from-port="0" to-layer="1887" to-port="1" />
		<edge from-layer="1887" from-port="2" to-layer="1888" to-port="1" />
		<edge from-layer="1888" from-port="2" to-layer="1890" to-port="0" />
		<edge from-layer="1889" from-port="0" to-layer="1890" to-port="1" />
		<edge from-layer="1890" from-port="2" to-layer="1891" to-port="1" />
		<edge from-layer="1891" from-port="2" to-layer="1893" to-port="0" />
		<edge from-layer="1892" from-port="0" to-layer="1893" to-port="1" />
		<edge from-layer="1893" from-port="2" to-layer="1898" to-port="0" />
		<edge from-layer="1894" from-port="0" to-layer="1897" to-port="1" />
		<edge from-layer="1895" from-port="0" to-layer="1897" to-port="2" />
		<edge from-layer="1896" from-port="0" to-layer="1897" to-port="3" />
		<edge from-layer="1897" from-port="4" to-layer="1898" to-port="1" />
		<edge from-layer="1898" from-port="2" to-layer="1899" to-port="1" />
		<edge from-layer="1899" from-port="2" to-layer="2021" to-port="0" />
		<edge from-layer="1900" from-port="0" to-layer="1901" to-port="0" />
		<edge from-layer="1901" from-port="1" to-layer="2013" to-port="0" />
		<edge from-layer="1902" from-port="0" to-layer="1903" to-port="0" />
		<edge from-layer="1903" from-port="1" to-layer="2010" to-port="0" />
		<edge from-layer="1904" from-port="0" to-layer="1905" to-port="0" />
		<edge from-layer="1905" from-port="1" to-layer="2007" to-port="0" />
		<edge from-layer="1906" from-port="0" to-layer="1907" to-port="0" />
		<edge from-layer="1907" from-port="1" to-layer="2004" to-port="0" />
		<edge from-layer="1908" from-port="0" to-layer="1909" to-port="0" />
		<edge from-layer="1909" from-port="1" to-layer="2001" to-port="0" />
		<edge from-layer="1910" from-port="0" to-layer="1911" to-port="0" />
		<edge from-layer="1911" from-port="1" to-layer="1998" to-port="0" />
		<edge from-layer="1912" from-port="0" to-layer="1913" to-port="0" />
		<edge from-layer="1913" from-port="1" to-layer="1995" to-port="0" />
		<edge from-layer="1914" from-port="0" to-layer="1917" to-port="1" />
		<edge from-layer="1915" from-port="0" to-layer="1917" to-port="2" />
		<edge from-layer="1916" from-port="0" to-layer="1917" to-port="3" />
		<edge from-layer="1917" from-port="4" to-layer="1920" to-port="0" />
		<edge from-layer="1918" from-port="0" to-layer="1919" to-port="0" />
		<edge from-layer="1919" from-port="1" to-layer="1920" to-port="1" />
		<edge from-layer="1920" from-port="2" to-layer="1932" to-port="0" />
		<edge from-layer="1921" from-port="0" to-layer="1924" to-port="1" />
		<edge from-layer="1922" from-port="0" to-layer="1924" to-port="2" />
		<edge from-layer="1923" from-port="0" to-layer="1924" to-port="3" />
		<edge from-layer="1924" from-port="4" to-layer="1931" to-port="0" />
		<edge from-layer="1925" from-port="0" to-layer="1926" to-port="0" />
		<edge from-layer="1926" from-port="1" to-layer="1928" to-port="0" />
		<edge from-layer="1927" from-port="0" to-layer="1928" to-port="1" />
		<edge from-layer="1928" from-port="2" to-layer="1930" to-port="0" />
		<edge from-layer="1929" from-port="0" to-layer="1930" to-port="1" />
		<edge from-layer="1930" from-port="2" to-layer="1931" to-port="1" />
		<edge from-layer="1931" from-port="2" to-layer="1932" to-port="1" />
		<edge from-layer="1932" from-port="2" to-layer="1990" to-port="0" />
		<edge from-layer="1933" from-port="0" to-layer="1936" to-port="1" />
		<edge from-layer="1934" from-port="0" to-layer="1936" to-port="2" />
		<edge from-layer="1935" from-port="0" to-layer="1936" to-port="3" />
		<edge from-layer="1936" from-port="4" to-layer="1939" to-port="0" />
		<edge from-layer="1937" from-port="0" to-layer="1938" to-port="0" />
		<edge from-layer="1938" from-port="1" to-layer="1939" to-port="1" />
		<edge from-layer="1939" from-port="2" to-layer="1951" to-port="0" />
		<edge from-layer="1940" from-port="0" to-layer="1943" to-port="1" />
		<edge from-layer="1941" from-port="0" to-layer="1943" to-port="2" />
		<edge from-layer="1942" from-port="0" to-layer="1943" to-port="3" />
		<edge from-layer="1943" from-port="4" to-layer="1950" to-port="0" />
		<edge from-layer="1944" from-port="0" to-layer="1945" to-port="0" />
		<edge from-layer="1945" from-port="1" to-layer="1947" to-port="0" />
		<edge from-layer="1946" from-port="0" to-layer="1947" to-port="1" />
		<edge from-layer="1947" from-port="2" to-layer="1949" to-port="0" />
		<edge from-layer="1948" from-port="0" to-layer="1949" to-port="1" />
		<edge from-layer="1949" from-port="2" to-layer="1950" to-port="1" />
		<edge from-layer="1950" from-port="2" to-layer="1951" to-port="1" />
		<edge from-layer="1951" from-port="2" to-layer="1990" to-port="1" />
		<edge from-layer="1952" from-port="0" to-layer="1955" to-port="1" />
		<edge from-layer="1953" from-port="0" to-layer="1955" to-port="2" />
		<edge from-layer="1954" from-port="0" to-layer="1955" to-port="3" />
		<edge from-layer="1955" from-port="4" to-layer="1958" to-port="0" />
		<edge from-layer="1956" from-port="0" to-layer="1957" to-port="0" />
		<edge from-layer="1957" from-port="1" to-layer="1958" to-port="1" />
		<edge from-layer="1958" from-port="2" to-layer="1970" to-port="0" />
		<edge from-layer="1959" from-port="0" to-layer="1962" to-port="1" />
		<edge from-layer="1960" from-port="0" to-layer="1962" to-port="2" />
		<edge from-layer="1961" from-port="0" to-layer="1962" to-port="3" />
		<edge from-layer="1962" from-port="4" to-layer="1969" to-port="0" />
		<edge from-layer="1963" from-port="0" to-layer="1964" to-port="0" />
		<edge from-layer="1964" from-port="1" to-layer="1966" to-port="0" />
		<edge from-layer="1965" from-port="0" to-layer="1966" to-port="1" />
		<edge from-layer="1966" from-port="2" to-layer="1968" to-port="0" />
		<edge from-layer="1967" from-port="0" to-layer="1968" to-port="1" />
		<edge from-layer="1968" from-port="2" to-layer="1969" to-port="1" />
		<edge from-layer="1969" from-port="2" to-layer="1970" to-port="1" />
		<edge from-layer="1970" from-port="2" to-layer="1990" to-port="2" />
		<edge from-layer="1971" from-port="0" to-layer="1974" to-port="1" />
		<edge from-layer="1972" from-port="0" to-layer="1974" to-port="2" />
		<edge from-layer="1973" from-port="0" to-layer="1974" to-port="3" />
		<edge from-layer="1974" from-port="4" to-layer="1977" to-port="0" />
		<edge from-layer="1975" from-port="0" to-layer="1976" to-port="0" />
		<edge from-layer="1976" from-port="1" to-layer="1977" to-port="1" />
		<edge from-layer="1977" from-port="2" to-layer="1989" to-port="0" />
		<edge from-layer="1978" from-port="0" to-layer="1981" to-port="1" />
		<edge from-layer="1979" from-port="0" to-layer="1981" to-port="2" />
		<edge from-layer="1980" from-port="0" to-layer="1981" to-port="3" />
		<edge from-layer="1981" from-port="4" to-layer="1988" to-port="0" />
		<edge from-layer="1982" from-port="0" to-layer="1983" to-port="0" />
		<edge from-layer="1983" from-port="1" to-layer="1985" to-port="0" />
		<edge from-layer="1984" from-port="0" to-layer="1985" to-port="1" />
		<edge from-layer="1985" from-port="2" to-layer="1987" to-port="0" />
		<edge from-layer="1986" from-port="0" to-layer="1987" to-port="1" />
		<edge from-layer="1987" from-port="2" to-layer="1988" to-port="1" />
		<edge from-layer="1988" from-port="2" to-layer="1989" to-port="1" />
		<edge from-layer="1989" from-port="2" to-layer="1990" to-port="3" />
		<edge from-layer="1990" from-port="4" to-layer="1992" to-port="0" />
		<edge from-layer="1991" from-port="0" to-layer="1992" to-port="1" />
		<edge from-layer="1992" from-port="2" to-layer="1994" to-port="0" />
		<edge from-layer="1993" from-port="0" to-layer="1994" to-port="1" />
		<edge from-layer="1994" from-port="2" to-layer="1995" to-port="1" />
		<edge from-layer="1995" from-port="2" to-layer="1997" to-port="0" />
		<edge from-layer="1996" from-port="0" to-layer="1997" to-port="1" />
		<edge from-layer="1997" from-port="2" to-layer="1998" to-port="1" />
		<edge from-layer="1998" from-port="2" to-layer="2000" to-port="0" />
		<edge from-layer="1999" from-port="0" to-layer="2000" to-port="1" />
		<edge from-layer="2000" from-port="2" to-layer="2001" to-port="1" />
		<edge from-layer="2001" from-port="2" to-layer="2003" to-port="0" />
		<edge from-layer="2002" from-port="0" to-layer="2003" to-port="1" />
		<edge from-layer="2003" from-port="2" to-layer="2004" to-port="1" />
		<edge from-layer="2004" from-port="2" to-layer="2006" to-port="0" />
		<edge from-layer="2005" from-port="0" to-layer="2006" to-port="1" />
		<edge from-layer="2006" from-port="2" to-layer="2007" to-port="1" />
		<edge from-layer="2007" from-port="2" to-layer="2009" to-port="0" />
		<edge from-layer="2008" from-port="0" to-layer="2009" to-port="1" />
		<edge from-layer="2009" from-port="2" to-layer="2010" to-port="1" />
		<edge from-layer="2010" from-port="2" to-layer="2012" to-port="0" />
		<edge from-layer="2011" from-port="0" to-layer="2012" to-port="1" />
		<edge from-layer="2012" from-port="2" to-layer="2013" to-port="1" />
		<edge from-layer="2013" from-port="2" to-layer="2015" to-port="0" />
		<edge from-layer="2014" from-port="0" to-layer="2015" to-port="1" />
		<edge from-layer="2015" from-port="2" to-layer="2020" to-port="0" />
		<edge from-layer="2016" from-port="0" to-layer="2019" to-port="1" />
		<edge from-layer="2017" from-port="0" to-layer="2019" to-port="2" />
		<edge from-layer="2018" from-port="0" to-layer="2019" to-port="3" />
		<edge from-layer="2019" from-port="4" to-layer="2020" to-port="1" />
		<edge from-layer="2020" from-port="2" to-layer="2021" to-port="1" />
		<edge from-layer="2021" from-port="2" to-layer="2143" to-port="0" />
		<edge from-layer="2022" from-port="0" to-layer="2023" to-port="0" />
		<edge from-layer="2023" from-port="1" to-layer="2135" to-port="0" />
		<edge from-layer="2024" from-port="0" to-layer="2025" to-port="0" />
		<edge from-layer="2025" from-port="1" to-layer="2132" to-port="0" />
		<edge from-layer="2026" from-port="0" to-layer="2027" to-port="0" />
		<edge from-layer="2027" from-port="1" to-layer="2129" to-port="0" />
		<edge from-layer="2028" from-port="0" to-layer="2029" to-port="0" />
		<edge from-layer="2029" from-port="1" to-layer="2126" to-port="0" />
		<edge from-layer="2030" from-port="0" to-layer="2031" to-port="0" />
		<edge from-layer="2031" from-port="1" to-layer="2123" to-port="0" />
		<edge from-layer="2032" from-port="0" to-layer="2033" to-port="0" />
		<edge from-layer="2033" from-port="1" to-layer="2120" to-port="0" />
		<edge from-layer="2034" from-port="0" to-layer="2035" to-port="0" />
		<edge from-layer="2035" from-port="1" to-layer="2117" to-port="0" />
		<edge from-layer="2036" from-port="0" to-layer="2039" to-port="1" />
		<edge from-layer="2037" from-port="0" to-layer="2039" to-port="2" />
		<edge from-layer="2038" from-port="0" to-layer="2039" to-port="3" />
		<edge from-layer="2039" from-port="4" to-layer="2042" to-port="0" />
		<edge from-layer="2040" from-port="0" to-layer="2041" to-port="0" />
		<edge from-layer="2041" from-port="1" to-layer="2042" to-port="1" />
		<edge from-layer="2042" from-port="2" to-layer="2054" to-port="0" />
		<edge from-layer="2043" from-port="0" to-layer="2046" to-port="1" />
		<edge from-layer="2044" from-port="0" to-layer="2046" to-port="2" />
		<edge from-layer="2045" from-port="0" to-layer="2046" to-port="3" />
		<edge from-layer="2046" from-port="4" to-layer="2053" to-port="0" />
		<edge from-layer="2047" from-port="0" to-layer="2048" to-port="0" />
		<edge from-layer="2048" from-port="1" to-layer="2050" to-port="0" />
		<edge from-layer="2049" from-port="0" to-layer="2050" to-port="1" />
		<edge from-layer="2050" from-port="2" to-layer="2052" to-port="0" />
		<edge from-layer="2051" from-port="0" to-layer="2052" to-port="1" />
		<edge from-layer="2052" from-port="2" to-layer="2053" to-port="1" />
		<edge from-layer="2053" from-port="2" to-layer="2054" to-port="1" />
		<edge from-layer="2054" from-port="2" to-layer="2112" to-port="0" />
		<edge from-layer="2055" from-port="0" to-layer="2058" to-port="1" />
		<edge from-layer="2056" from-port="0" to-layer="2058" to-port="2" />
		<edge from-layer="2057" from-port="0" to-layer="2058" to-port="3" />
		<edge from-layer="2058" from-port="4" to-layer="2061" to-port="0" />
		<edge from-layer="2059" from-port="0" to-layer="2060" to-port="0" />
		<edge from-layer="2060" from-port="1" to-layer="2061" to-port="1" />
		<edge from-layer="2061" from-port="2" to-layer="2073" to-port="0" />
		<edge from-layer="2062" from-port="0" to-layer="2065" to-port="1" />
		<edge from-layer="2063" from-port="0" to-layer="2065" to-port="2" />
		<edge from-layer="2064" from-port="0" to-layer="2065" to-port="3" />
		<edge from-layer="2065" from-port="4" to-layer="2072" to-port="0" />
		<edge from-layer="2066" from-port="0" to-layer="2067" to-port="0" />
		<edge from-layer="2067" from-port="1" to-layer="2069" to-port="0" />
		<edge from-layer="2068" from-port="0" to-layer="2069" to-port="1" />
		<edge from-layer="2069" from-port="2" to-layer="2071" to-port="0" />
		<edge from-layer="2070" from-port="0" to-layer="2071" to-port="1" />
		<edge from-layer="2071" from-port="2" to-layer="2072" to-port="1" />
		<edge from-layer="2072" from-port="2" to-layer="2073" to-port="1" />
		<edge from-layer="2073" from-port="2" to-layer="2112" to-port="1" />
		<edge from-layer="2074" from-port="0" to-layer="2077" to-port="1" />
		<edge from-layer="2075" from-port="0" to-layer="2077" to-port="2" />
		<edge from-layer="2076" from-port="0" to-layer="2077" to-port="3" />
		<edge from-layer="2077" from-port="4" to-layer="2080" to-port="0" />
		<edge from-layer="2078" from-port="0" to-layer="2079" to-port="0" />
		<edge from-layer="2079" from-port="1" to-layer="2080" to-port="1" />
		<edge from-layer="2080" from-port="2" to-layer="2092" to-port="0" />
		<edge from-layer="2081" from-port="0" to-layer="2084" to-port="1" />
		<edge from-layer="2082" from-port="0" to-layer="2084" to-port="2" />
		<edge from-layer="2083" from-port="0" to-layer="2084" to-port="3" />
		<edge from-layer="2084" from-port="4" to-layer="2091" to-port="0" />
		<edge from-layer="2085" from-port="0" to-layer="2086" to-port="0" />
		<edge from-layer="2086" from-port="1" to-layer="2088" to-port="0" />
		<edge from-layer="2087" from-port="0" to-layer="2088" to-port="1" />
		<edge from-layer="2088" from-port="2" to-layer="2090" to-port="0" />
		<edge from-layer="2089" from-port="0" to-layer="2090" to-port="1" />
		<edge from-layer="2090" from-port="2" to-layer="2091" to-port="1" />
		<edge from-layer="2091" from-port="2" to-layer="2092" to-port="1" />
		<edge from-layer="2092" from-port="2" to-layer="2112" to-port="2" />
		<edge from-layer="2093" from-port="0" to-layer="2096" to-port="1" />
		<edge from-layer="2094" from-port="0" to-layer="2096" to-port="2" />
		<edge from-layer="2095" from-port="0" to-layer="2096" to-port="3" />
		<edge from-layer="2096" from-port="4" to-layer="2099" to-port="0" />
		<edge from-layer="2097" from-port="0" to-layer="2098" to-port="0" />
		<edge from-layer="2098" from-port="1" to-layer="2099" to-port="1" />
		<edge from-layer="2099" from-port="2" to-layer="2111" to-port="0" />
		<edge from-layer="2100" from-port="0" to-layer="2103" to-port="1" />
		<edge from-layer="2101" from-port="0" to-layer="2103" to-port="2" />
		<edge from-layer="2102" from-port="0" to-layer="2103" to-port="3" />
		<edge from-layer="2103" from-port="4" to-layer="2110" to-port="0" />
		<edge from-layer="2104" from-port="0" to-layer="2105" to-port="0" />
		<edge from-layer="2105" from-port="1" to-layer="2107" to-port="0" />
		<edge from-layer="2106" from-port="0" to-layer="2107" to-port="1" />
		<edge from-layer="2107" from-port="2" to-layer="2109" to-port="0" />
		<edge from-layer="2108" from-port="0" to-layer="2109" to-port="1" />
		<edge from-layer="2109" from-port="2" to-layer="2110" to-port="1" />
		<edge from-layer="2110" from-port="2" to-layer="2111" to-port="1" />
		<edge from-layer="2111" from-port="2" to-layer="2112" to-port="3" />
		<edge from-layer="2112" from-port="4" to-layer="2114" to-port="0" />
		<edge from-layer="2113" from-port="0" to-layer="2114" to-port="1" />
		<edge from-layer="2114" from-port="2" to-layer="2116" to-port="0" />
		<edge from-layer="2115" from-port="0" to-layer="2116" to-port="1" />
		<edge from-layer="2116" from-port="2" to-layer="2117" to-port="1" />
		<edge from-layer="2117" from-port="2" to-layer="2119" to-port="0" />
		<edge from-layer="2118" from-port="0" to-layer="2119" to-port="1" />
		<edge from-layer="2119" from-port="2" to-layer="2120" to-port="1" />
		<edge from-layer="2120" from-port="2" to-layer="2122" to-port="0" />
		<edge from-layer="2121" from-port="0" to-layer="2122" to-port="1" />
		<edge from-layer="2122" from-port="2" to-layer="2123" to-port="1" />
		<edge from-layer="2123" from-port="2" to-layer="2125" to-port="0" />
		<edge from-layer="2124" from-port="0" to-layer="2125" to-port="1" />
		<edge from-layer="2125" from-port="2" to-layer="2126" to-port="1" />
		<edge from-layer="2126" from-port="2" to-layer="2128" to-port="0" />
		<edge from-layer="2127" from-port="0" to-layer="2128" to-port="1" />
		<edge from-layer="2128" from-port="2" to-layer="2129" to-port="1" />
		<edge from-layer="2129" from-port="2" to-layer="2131" to-port="0" />
		<edge from-layer="2130" from-port="0" to-layer="2131" to-port="1" />
		<edge from-layer="2131" from-port="2" to-layer="2132" to-port="1" />
		<edge from-layer="2132" from-port="2" to-layer="2134" to-port="0" />
		<edge from-layer="2133" from-port="0" to-layer="2134" to-port="1" />
		<edge from-layer="2134" from-port="2" to-layer="2135" to-port="1" />
		<edge from-layer="2135" from-port="2" to-layer="2137" to-port="0" />
		<edge from-layer="2136" from-port="0" to-layer="2137" to-port="1" />
		<edge from-layer="2137" from-port="2" to-layer="2142" to-port="0" />
		<edge from-layer="2138" from-port="0" to-layer="2141" to-port="1" />
		<edge from-layer="2139" from-port="0" to-layer="2141" to-port="2" />
		<edge from-layer="2140" from-port="0" to-layer="2141" to-port="3" />
		<edge from-layer="2141" from-port="4" to-layer="2142" to-port="1" />
		<edge from-layer="2142" from-port="2" to-layer="2143" to-port="1" />
		<edge from-layer="2143" from-port="2" to-layer="2265" to-port="0" />
		<edge from-layer="2144" from-port="0" to-layer="2145" to-port="0" />
		<edge from-layer="2145" from-port="1" to-layer="2257" to-port="0" />
		<edge from-layer="2146" from-port="0" to-layer="2147" to-port="0" />
		<edge from-layer="2147" from-port="1" to-layer="2254" to-port="0" />
		<edge from-layer="2148" from-port="0" to-layer="2149" to-port="0" />
		<edge from-layer="2149" from-port="1" to-layer="2251" to-port="0" />
		<edge from-layer="2150" from-port="0" to-layer="2151" to-port="0" />
		<edge from-layer="2151" from-port="1" to-layer="2248" to-port="0" />
		<edge from-layer="2152" from-port="0" to-layer="2153" to-port="0" />
		<edge from-layer="2153" from-port="1" to-layer="2245" to-port="0" />
		<edge from-layer="2154" from-port="0" to-layer="2155" to-port="0" />
		<edge from-layer="2155" from-port="1" to-layer="2242" to-port="0" />
		<edge from-layer="2156" from-port="0" to-layer="2157" to-port="0" />
		<edge from-layer="2157" from-port="1" to-layer="2239" to-port="0" />
		<edge from-layer="2158" from-port="0" to-layer="2161" to-port="1" />
		<edge from-layer="2159" from-port="0" to-layer="2161" to-port="2" />
		<edge from-layer="2160" from-port="0" to-layer="2161" to-port="3" />
		<edge from-layer="2161" from-port="4" to-layer="2164" to-port="0" />
		<edge from-layer="2162" from-port="0" to-layer="2163" to-port="0" />
		<edge from-layer="2163" from-port="1" to-layer="2164" to-port="1" />
		<edge from-layer="2164" from-port="2" to-layer="2176" to-port="0" />
		<edge from-layer="2165" from-port="0" to-layer="2168" to-port="1" />
		<edge from-layer="2166" from-port="0" to-layer="2168" to-port="2" />
		<edge from-layer="2167" from-port="0" to-layer="2168" to-port="3" />
		<edge from-layer="2168" from-port="4" to-layer="2175" to-port="0" />
		<edge from-layer="2169" from-port="0" to-layer="2170" to-port="0" />
		<edge from-layer="2170" from-port="1" to-layer="2172" to-port="0" />
		<edge from-layer="2171" from-port="0" to-layer="2172" to-port="1" />
		<edge from-layer="2172" from-port="2" to-layer="2174" to-port="0" />
		<edge from-layer="2173" from-port="0" to-layer="2174" to-port="1" />
		<edge from-layer="2174" from-port="2" to-layer="2175" to-port="1" />
		<edge from-layer="2175" from-port="2" to-layer="2176" to-port="1" />
		<edge from-layer="2176" from-port="2" to-layer="2234" to-port="0" />
		<edge from-layer="2177" from-port="0" to-layer="2180" to-port="1" />
		<edge from-layer="2178" from-port="0" to-layer="2180" to-port="2" />
		<edge from-layer="2179" from-port="0" to-layer="2180" to-port="3" />
		<edge from-layer="2180" from-port="4" to-layer="2183" to-port="0" />
		<edge from-layer="2181" from-port="0" to-layer="2182" to-port="0" />
		<edge from-layer="2182" from-port="1" to-layer="2183" to-port="1" />
		<edge from-layer="2183" from-port="2" to-layer="2195" to-port="0" />
		<edge from-layer="2184" from-port="0" to-layer="2187" to-port="1" />
		<edge from-layer="2185" from-port="0" to-layer="2187" to-port="2" />
		<edge from-layer="2186" from-port="0" to-layer="2187" to-port="3" />
		<edge from-layer="2187" from-port="4" to-layer="2194" to-port="0" />
		<edge from-layer="2188" from-port="0" to-layer="2189" to-port="0" />
		<edge from-layer="2189" from-port="1" to-layer="2191" to-port="0" />
		<edge from-layer="2190" from-port="0" to-layer="2191" to-port="1" />
		<edge from-layer="2191" from-port="2" to-layer="2193" to-port="0" />
		<edge from-layer="2192" from-port="0" to-layer="2193" to-port="1" />
		<edge from-layer="2193" from-port="2" to-layer="2194" to-port="1" />
		<edge from-layer="2194" from-port="2" to-layer="2195" to-port="1" />
		<edge from-layer="2195" from-port="2" to-layer="2234" to-port="1" />
		<edge from-layer="2196" from-port="0" to-layer="2199" to-port="1" />
		<edge from-layer="2197" from-port="0" to-layer="2199" to-port="2" />
		<edge from-layer="2198" from-port="0" to-layer="2199" to-port="3" />
		<edge from-layer="2199" from-port="4" to-layer="2202" to-port="0" />
		<edge from-layer="2200" from-port="0" to-layer="2201" to-port="0" />
		<edge from-layer="2201" from-port="1" to-layer="2202" to-port="1" />
		<edge from-layer="2202" from-port="2" to-layer="2214" to-port="0" />
		<edge from-layer="2203" from-port="0" to-layer="2206" to-port="1" />
		<edge from-layer="2204" from-port="0" to-layer="2206" to-port="2" />
		<edge from-layer="2205" from-port="0" to-layer="2206" to-port="3" />
		<edge from-layer="2206" from-port="4" to-layer="2213" to-port="0" />
		<edge from-layer="2207" from-port="0" to-layer="2208" to-port="0" />
		<edge from-layer="2208" from-port="1" to-layer="2210" to-port="0" />
		<edge from-layer="2209" from-port="0" to-layer="2210" to-port="1" />
		<edge from-layer="2210" from-port="2" to-layer="2212" to-port="0" />
		<edge from-layer="2211" from-port="0" to-layer="2212" to-port="1" />
		<edge from-layer="2212" from-port="2" to-layer="2213" to-port="1" />
		<edge from-layer="2213" from-port="2" to-layer="2214" to-port="1" />
		<edge from-layer="2214" from-port="2" to-layer="2234" to-port="2" />
		<edge from-layer="2215" from-port="0" to-layer="2218" to-port="1" />
		<edge from-layer="2216" from-port="0" to-layer="2218" to-port="2" />
		<edge from-layer="2217" from-port="0" to-layer="2218" to-port="3" />
		<edge from-layer="2218" from-port="4" to-layer="2221" to-port="0" />
		<edge from-layer="2219" from-port="0" to-layer="2220" to-port="0" />
		<edge from-layer="2220" from-port="1" to-layer="2221" to-port="1" />
		<edge from-layer="2221" from-port="2" to-layer="2233" to-port="0" />
		<edge from-layer="2222" from-port="0" to-layer="2225" to-port="1" />
		<edge from-layer="2223" from-port="0" to-layer="2225" to-port="2" />
		<edge from-layer="2224" from-port="0" to-layer="2225" to-port="3" />
		<edge from-layer="2225" from-port="4" to-layer="2232" to-port="0" />
		<edge from-layer="2226" from-port="0" to-layer="2227" to-port="0" />
		<edge from-layer="2227" from-port="1" to-layer="2229" to-port="0" />
		<edge from-layer="2228" from-port="0" to-layer="2229" to-port="1" />
		<edge from-layer="2229" from-port="2" to-layer="2231" to-port="0" />
		<edge from-layer="2230" from-port="0" to-layer="2231" to-port="1" />
		<edge from-layer="2231" from-port="2" to-layer="2232" to-port="1" />
		<edge from-layer="2232" from-port="2" to-layer="2233" to-port="1" />
		<edge from-layer="2233" from-port="2" to-layer="2234" to-port="3" />
		<edge from-layer="2234" from-port="4" to-layer="2236" to-port="0" />
		<edge from-layer="2235" from-port="0" to-layer="2236" to-port="1" />
		<edge from-layer="2236" from-port="2" to-layer="2238" to-port="0" />
		<edge from-layer="2237" from-port="0" to-layer="2238" to-port="1" />
		<edge from-layer="2238" from-port="2" to-layer="2239" to-port="1" />
		<edge from-layer="2239" from-port="2" to-layer="2241" to-port="0" />
		<edge from-layer="2240" from-port="0" to-layer="2241" to-port="1" />
		<edge from-layer="2241" from-port="2" to-layer="2242" to-port="1" />
		<edge from-layer="2242" from-port="2" to-layer="2244" to-port="0" />
		<edge from-layer="2243" from-port="0" to-layer="2244" to-port="1" />
		<edge from-layer="2244" from-port="2" to-layer="2245" to-port="1" />
		<edge from-layer="2245" from-port="2" to-layer="2247" to-port="0" />
		<edge from-layer="2246" from-port="0" to-layer="2247" to-port="1" />
		<edge from-layer="2247" from-port="2" to-layer="2248" to-port="1" />
		<edge from-layer="2248" from-port="2" to-layer="2250" to-port="0" />
		<edge from-layer="2249" from-port="0" to-layer="2250" to-port="1" />
		<edge from-layer="2250" from-port="2" to-layer="2251" to-port="1" />
		<edge from-layer="2251" from-port="2" to-layer="2253" to-port="0" />
		<edge from-layer="2252" from-port="0" to-layer="2253" to-port="1" />
		<edge from-layer="2253" from-port="2" to-layer="2254" to-port="1" />
		<edge from-layer="2254" from-port="2" to-layer="2256" to-port="0" />
		<edge from-layer="2255" from-port="0" to-layer="2256" to-port="1" />
		<edge from-layer="2256" from-port="2" to-layer="2257" to-port="1" />
		<edge from-layer="2257" from-port="2" to-layer="2259" to-port="0" />
		<edge from-layer="2258" from-port="0" to-layer="2259" to-port="1" />
		<edge from-layer="2259" from-port="2" to-layer="2264" to-port="0" />
		<edge from-layer="2260" from-port="0" to-layer="2263" to-port="1" />
		<edge from-layer="2261" from-port="0" to-layer="2263" to-port="2" />
		<edge from-layer="2262" from-port="0" to-layer="2263" to-port="3" />
		<edge from-layer="2263" from-port="4" to-layer="2264" to-port="1" />
		<edge from-layer="2264" from-port="2" to-layer="2265" to-port="1" />
		<edge from-layer="2265" from-port="2" to-layer="2387" to-port="0" />
		<edge from-layer="2266" from-port="0" to-layer="2267" to-port="0" />
		<edge from-layer="2267" from-port="1" to-layer="2379" to-port="0" />
		<edge from-layer="2268" from-port="0" to-layer="2269" to-port="0" />
		<edge from-layer="2269" from-port="1" to-layer="2376" to-port="0" />
		<edge from-layer="2270" from-port="0" to-layer="2271" to-port="0" />
		<edge from-layer="2271" from-port="1" to-layer="2373" to-port="0" />
		<edge from-layer="2272" from-port="0" to-layer="2273" to-port="0" />
		<edge from-layer="2273" from-port="1" to-layer="2370" to-port="0" />
		<edge from-layer="2274" from-port="0" to-layer="2275" to-port="0" />
		<edge from-layer="2275" from-port="1" to-layer="2367" to-port="0" />
		<edge from-layer="2276" from-port="0" to-layer="2277" to-port="0" />
		<edge from-layer="2277" from-port="1" to-layer="2364" to-port="0" />
		<edge from-layer="2278" from-port="0" to-layer="2279" to-port="0" />
		<edge from-layer="2279" from-port="1" to-layer="2361" to-port="0" />
		<edge from-layer="2280" from-port="0" to-layer="2283" to-port="1" />
		<edge from-layer="2281" from-port="0" to-layer="2283" to-port="2" />
		<edge from-layer="2282" from-port="0" to-layer="2283" to-port="3" />
		<edge from-layer="2283" from-port="4" to-layer="2286" to-port="0" />
		<edge from-layer="2284" from-port="0" to-layer="2285" to-port="0" />
		<edge from-layer="2285" from-port="1" to-layer="2286" to-port="1" />
		<edge from-layer="2286" from-port="2" to-layer="2298" to-port="0" />
		<edge from-layer="2287" from-port="0" to-layer="2290" to-port="1" />
		<edge from-layer="2288" from-port="0" to-layer="2290" to-port="2" />
		<edge from-layer="2289" from-port="0" to-layer="2290" to-port="3" />
		<edge from-layer="2290" from-port="4" to-layer="2297" to-port="0" />
		<edge from-layer="2291" from-port="0" to-layer="2292" to-port="0" />
		<edge from-layer="2292" from-port="1" to-layer="2294" to-port="0" />
		<edge from-layer="2293" from-port="0" to-layer="2294" to-port="1" />
		<edge from-layer="2294" from-port="2" to-layer="2296" to-port="0" />
		<edge from-layer="2295" from-port="0" to-layer="2296" to-port="1" />
		<edge from-layer="2296" from-port="2" to-layer="2297" to-port="1" />
		<edge from-layer="2297" from-port="2" to-layer="2298" to-port="1" />
		<edge from-layer="2298" from-port="2" to-layer="2356" to-port="0" />
		<edge from-layer="2299" from-port="0" to-layer="2302" to-port="1" />
		<edge from-layer="2300" from-port="0" to-layer="2302" to-port="2" />
		<edge from-layer="2301" from-port="0" to-layer="2302" to-port="3" />
		<edge from-layer="2302" from-port="4" to-layer="2305" to-port="0" />
		<edge from-layer="2303" from-port="0" to-layer="2304" to-port="0" />
		<edge from-layer="2304" from-port="1" to-layer="2305" to-port="1" />
		<edge from-layer="2305" from-port="2" to-layer="2317" to-port="0" />
		<edge from-layer="2306" from-port="0" to-layer="2309" to-port="1" />
		<edge from-layer="2307" from-port="0" to-layer="2309" to-port="2" />
		<edge from-layer="2308" from-port="0" to-layer="2309" to-port="3" />
		<edge from-layer="2309" from-port="4" to-layer="2316" to-port="0" />
		<edge from-layer="2310" from-port="0" to-layer="2311" to-port="0" />
		<edge from-layer="2311" from-port="1" to-layer="2313" to-port="0" />
		<edge from-layer="2312" from-port="0" to-layer="2313" to-port="1" />
		<edge from-layer="2313" from-port="2" to-layer="2315" to-port="0" />
		<edge from-layer="2314" from-port="0" to-layer="2315" to-port="1" />
		<edge from-layer="2315" from-port="2" to-layer="2316" to-port="1" />
		<edge from-layer="2316" from-port="2" to-layer="2317" to-port="1" />
		<edge from-layer="2317" from-port="2" to-layer="2356" to-port="1" />
		<edge from-layer="2318" from-port="0" to-layer="2321" to-port="1" />
		<edge from-layer="2319" from-port="0" to-layer="2321" to-port="2" />
		<edge from-layer="2320" from-port="0" to-layer="2321" to-port="3" />
		<edge from-layer="2321" from-port="4" to-layer="2324" to-port="0" />
		<edge from-layer="2322" from-port="0" to-layer="2323" to-port="0" />
		<edge from-layer="2323" from-port="1" to-layer="2324" to-port="1" />
		<edge from-layer="2324" from-port="2" to-layer="2336" to-port="0" />
		<edge from-layer="2325" from-port="0" to-layer="2328" to-port="1" />
		<edge from-layer="2326" from-port="0" to-layer="2328" to-port="2" />
		<edge from-layer="2327" from-port="0" to-layer="2328" to-port="3" />
		<edge from-layer="2328" from-port="4" to-layer="2335" to-port="0" />
		<edge from-layer="2329" from-port="0" to-layer="2330" to-port="0" />
		<edge from-layer="2330" from-port="1" to-layer="2332" to-port="0" />
		<edge from-layer="2331" from-port="0" to-layer="2332" to-port="1" />
		<edge from-layer="2332" from-port="2" to-layer="2334" to-port="0" />
		<edge from-layer="2333" from-port="0" to-layer="2334" to-port="1" />
		<edge from-layer="2334" from-port="2" to-layer="2335" to-port="1" />
		<edge from-layer="2335" from-port="2" to-layer="2336" to-port="1" />
		<edge from-layer="2336" from-port="2" to-layer="2356" to-port="2" />
		<edge from-layer="2337" from-port="0" to-layer="2340" to-port="1" />
		<edge from-layer="2338" from-port="0" to-layer="2340" to-port="2" />
		<edge from-layer="2339" from-port="0" to-layer="2340" to-port="3" />
		<edge from-layer="2340" from-port="4" to-layer="2343" to-port="0" />
		<edge from-layer="2341" from-port="0" to-layer="2342" to-port="0" />
		<edge from-layer="2342" from-port="1" to-layer="2343" to-port="1" />
		<edge from-layer="2343" from-port="2" to-layer="2355" to-port="0" />
		<edge from-layer="2344" from-port="0" to-layer="2347" to-port="1" />
		<edge from-layer="2345" from-port="0" to-layer="2347" to-port="2" />
		<edge from-layer="2346" from-port="0" to-layer="2347" to-port="3" />
		<edge from-layer="2347" from-port="4" to-layer="2354" to-port="0" />
		<edge from-layer="2348" from-port="0" to-layer="2349" to-port="0" />
		<edge from-layer="2349" from-port="1" to-layer="2351" to-port="0" />
		<edge from-layer="2350" from-port="0" to-layer="2351" to-port="1" />
		<edge from-layer="2351" from-port="2" to-layer="2353" to-port="0" />
		<edge from-layer="2352" from-port="0" to-layer="2353" to-port="1" />
		<edge from-layer="2353" from-port="2" to-layer="2354" to-port="1" />
		<edge from-layer="2354" from-port="2" to-layer="2355" to-port="1" />
		<edge from-layer="2355" from-port="2" to-layer="2356" to-port="3" />
		<edge from-layer="2356" from-port="4" to-layer="2358" to-port="0" />
		<edge from-layer="2357" from-port="0" to-layer="2358" to-port="1" />
		<edge from-layer="2358" from-port="2" to-layer="2360" to-port="0" />
		<edge from-layer="2359" from-port="0" to-layer="2360" to-port="1" />
		<edge from-layer="2360" from-port="2" to-layer="2361" to-port="1" />
		<edge from-layer="2361" from-port="2" to-layer="2363" to-port="0" />
		<edge from-layer="2362" from-port="0" to-layer="2363" to-port="1" />
		<edge from-layer="2363" from-port="2" to-layer="2364" to-port="1" />
		<edge from-layer="2364" from-port="2" to-layer="2366" to-port="0" />
		<edge from-layer="2365" from-port="0" to-layer="2366" to-port="1" />
		<edge from-layer="2366" from-port="2" to-layer="2367" to-port="1" />
		<edge from-layer="2367" from-port="2" to-layer="2369" to-port="0" />
		<edge from-layer="2368" from-port="0" to-layer="2369" to-port="1" />
		<edge from-layer="2369" from-port="2" to-layer="2370" to-port="1" />
		<edge from-layer="2370" from-port="2" to-layer="2372" to-port="0" />
		<edge from-layer="2371" from-port="0" to-layer="2372" to-port="1" />
		<edge from-layer="2372" from-port="2" to-layer="2373" to-port="1" />
		<edge from-layer="2373" from-port="2" to-layer="2375" to-port="0" />
		<edge from-layer="2374" from-port="0" to-layer="2375" to-port="1" />
		<edge from-layer="2375" from-port="2" to-layer="2376" to-port="1" />
		<edge from-layer="2376" from-port="2" to-layer="2378" to-port="0" />
		<edge from-layer="2377" from-port="0" to-layer="2378" to-port="1" />
		<edge from-layer="2378" from-port="2" to-layer="2379" to-port="1" />
		<edge from-layer="2379" from-port="2" to-layer="2381" to-port="0" />
		<edge from-layer="2380" from-port="0" to-layer="2381" to-port="1" />
		<edge from-layer="2381" from-port="2" to-layer="2386" to-port="0" />
		<edge from-layer="2382" from-port="0" to-layer="2385" to-port="1" />
		<edge from-layer="2383" from-port="0" to-layer="2385" to-port="2" />
		<edge from-layer="2384" from-port="0" to-layer="2385" to-port="3" />
		<edge from-layer="2385" from-port="4" to-layer="2386" to-port="1" />
		<edge from-layer="2386" from-port="2" to-layer="2387" to-port="1" />
		<edge from-layer="2387" from-port="2" to-layer="2509" to-port="0" />
		<edge from-layer="2388" from-port="0" to-layer="2389" to-port="0" />
		<edge from-layer="2389" from-port="1" to-layer="2501" to-port="0" />
		<edge from-layer="2390" from-port="0" to-layer="2391" to-port="0" />
		<edge from-layer="2391" from-port="1" to-layer="2498" to-port="0" />
		<edge from-layer="2392" from-port="0" to-layer="2393" to-port="0" />
		<edge from-layer="2393" from-port="1" to-layer="2495" to-port="0" />
		<edge from-layer="2394" from-port="0" to-layer="2395" to-port="0" />
		<edge from-layer="2395" from-port="1" to-layer="2492" to-port="0" />
		<edge from-layer="2396" from-port="0" to-layer="2397" to-port="0" />
		<edge from-layer="2397" from-port="1" to-layer="2489" to-port="0" />
		<edge from-layer="2398" from-port="0" to-layer="2399" to-port="0" />
		<edge from-layer="2399" from-port="1" to-layer="2486" to-port="0" />
		<edge from-layer="2400" from-port="0" to-layer="2401" to-port="0" />
		<edge from-layer="2401" from-port="1" to-layer="2483" to-port="0" />
		<edge from-layer="2402" from-port="0" to-layer="2405" to-port="1" />
		<edge from-layer="2403" from-port="0" to-layer="2405" to-port="2" />
		<edge from-layer="2404" from-port="0" to-layer="2405" to-port="3" />
		<edge from-layer="2405" from-port="4" to-layer="2408" to-port="0" />
		<edge from-layer="2406" from-port="0" to-layer="2407" to-port="0" />
		<edge from-layer="2407" from-port="1" to-layer="2408" to-port="1" />
		<edge from-layer="2408" from-port="2" to-layer="2420" to-port="0" />
		<edge from-layer="2409" from-port="0" to-layer="2412" to-port="1" />
		<edge from-layer="2410" from-port="0" to-layer="2412" to-port="2" />
		<edge from-layer="2411" from-port="0" to-layer="2412" to-port="3" />
		<edge from-layer="2412" from-port="4" to-layer="2419" to-port="0" />
		<edge from-layer="2413" from-port="0" to-layer="2414" to-port="0" />
		<edge from-layer="2414" from-port="1" to-layer="2416" to-port="0" />
		<edge from-layer="2415" from-port="0" to-layer="2416" to-port="1" />
		<edge from-layer="2416" from-port="2" to-layer="2418" to-port="0" />
		<edge from-layer="2417" from-port="0" to-layer="2418" to-port="1" />
		<edge from-layer="2418" from-port="2" to-layer="2419" to-port="1" />
		<edge from-layer="2419" from-port="2" to-layer="2420" to-port="1" />
		<edge from-layer="2420" from-port="2" to-layer="2478" to-port="0" />
		<edge from-layer="2421" from-port="0" to-layer="2424" to-port="1" />
		<edge from-layer="2422" from-port="0" to-layer="2424" to-port="2" />
		<edge from-layer="2423" from-port="0" to-layer="2424" to-port="3" />
		<edge from-layer="2424" from-port="4" to-layer="2427" to-port="0" />
		<edge from-layer="2425" from-port="0" to-layer="2426" to-port="0" />
		<edge from-layer="2426" from-port="1" to-layer="2427" to-port="1" />
		<edge from-layer="2427" from-port="2" to-layer="2439" to-port="0" />
		<edge from-layer="2428" from-port="0" to-layer="2431" to-port="1" />
		<edge from-layer="2429" from-port="0" to-layer="2431" to-port="2" />
		<edge from-layer="2430" from-port="0" to-layer="2431" to-port="3" />
		<edge from-layer="2431" from-port="4" to-layer="2438" to-port="0" />
		<edge from-layer="2432" from-port="0" to-layer="2433" to-port="0" />
		<edge from-layer="2433" from-port="1" to-layer="2435" to-port="0" />
		<edge from-layer="2434" from-port="0" to-layer="2435" to-port="1" />
		<edge from-layer="2435" from-port="2" to-layer="2437" to-port="0" />
		<edge from-layer="2436" from-port="0" to-layer="2437" to-port="1" />
		<edge from-layer="2437" from-port="2" to-layer="2438" to-port="1" />
		<edge from-layer="2438" from-port="2" to-layer="2439" to-port="1" />
		<edge from-layer="2439" from-port="2" to-layer="2478" to-port="1" />
		<edge from-layer="2440" from-port="0" to-layer="2443" to-port="1" />
		<edge from-layer="2441" from-port="0" to-layer="2443" to-port="2" />
		<edge from-layer="2442" from-port="0" to-layer="2443" to-port="3" />
		<edge from-layer="2443" from-port="4" to-layer="2446" to-port="0" />
		<edge from-layer="2444" from-port="0" to-layer="2445" to-port="0" />
		<edge from-layer="2445" from-port="1" to-layer="2446" to-port="1" />
		<edge from-layer="2446" from-port="2" to-layer="2458" to-port="0" />
		<edge from-layer="2447" from-port="0" to-layer="2450" to-port="1" />
		<edge from-layer="2448" from-port="0" to-layer="2450" to-port="2" />
		<edge from-layer="2449" from-port="0" to-layer="2450" to-port="3" />
		<edge from-layer="2450" from-port="4" to-layer="2457" to-port="0" />
		<edge from-layer="2451" from-port="0" to-layer="2452" to-port="0" />
		<edge from-layer="2452" from-port="1" to-layer="2454" to-port="0" />
		<edge from-layer="2453" from-port="0" to-layer="2454" to-port="1" />
		<edge from-layer="2454" from-port="2" to-layer="2456" to-port="0" />
		<edge from-layer="2455" from-port="0" to-layer="2456" to-port="1" />
		<edge from-layer="2456" from-port="2" to-layer="2457" to-port="1" />
		<edge from-layer="2457" from-port="2" to-layer="2458" to-port="1" />
		<edge from-layer="2458" from-port="2" to-layer="2478" to-port="2" />
		<edge from-layer="2459" from-port="0" to-layer="2462" to-port="1" />
		<edge from-layer="2460" from-port="0" to-layer="2462" to-port="2" />
		<edge from-layer="2461" from-port="0" to-layer="2462" to-port="3" />
		<edge from-layer="2462" from-port="4" to-layer="2465" to-port="0" />
		<edge from-layer="2463" from-port="0" to-layer="2464" to-port="0" />
		<edge from-layer="2464" from-port="1" to-layer="2465" to-port="1" />
		<edge from-layer="2465" from-port="2" to-layer="2477" to-port="0" />
		<edge from-layer="2466" from-port="0" to-layer="2469" to-port="1" />
		<edge from-layer="2467" from-port="0" to-layer="2469" to-port="2" />
		<edge from-layer="2468" from-port="0" to-layer="2469" to-port="3" />
		<edge from-layer="2469" from-port="4" to-layer="2476" to-port="0" />
		<edge from-layer="2470" from-port="0" to-layer="2471" to-port="0" />
		<edge from-layer="2471" from-port="1" to-layer="2473" to-port="0" />
		<edge from-layer="2472" from-port="0" to-layer="2473" to-port="1" />
		<edge from-layer="2473" from-port="2" to-layer="2475" to-port="0" />
		<edge from-layer="2474" from-port="0" to-layer="2475" to-port="1" />
		<edge from-layer="2475" from-port="2" to-layer="2476" to-port="1" />
		<edge from-layer="2476" from-port="2" to-layer="2477" to-port="1" />
		<edge from-layer="2477" from-port="2" to-layer="2478" to-port="3" />
		<edge from-layer="2478" from-port="4" to-layer="2480" to-port="0" />
		<edge from-layer="2479" from-port="0" to-layer="2480" to-port="1" />
		<edge from-layer="2480" from-port="2" to-layer="2482" to-port="0" />
		<edge from-layer="2481" from-port="0" to-layer="2482" to-port="1" />
		<edge from-layer="2482" from-port="2" to-layer="2483" to-port="1" />
		<edge from-layer="2483" from-port="2" to-layer="2485" to-port="0" />
		<edge from-layer="2484" from-port="0" to-layer="2485" to-port="1" />
		<edge from-layer="2485" from-port="2" to-layer="2486" to-port="1" />
		<edge from-layer="2486" from-port="2" to-layer="2488" to-port="0" />
		<edge from-layer="2487" from-port="0" to-layer="2488" to-port="1" />
		<edge from-layer="2488" from-port="2" to-layer="2489" to-port="1" />
		<edge from-layer="2489" from-port="2" to-layer="2491" to-port="0" />
		<edge from-layer="2490" from-port="0" to-layer="2491" to-port="1" />
		<edge from-layer="2491" from-port="2" to-layer="2492" to-port="1" />
		<edge from-layer="2492" from-port="2" to-layer="2494" to-port="0" />
		<edge from-layer="2493" from-port="0" to-layer="2494" to-port="1" />
		<edge from-layer="2494" from-port="2" to-layer="2495" to-port="1" />
		<edge from-layer="2495" from-port="2" to-layer="2497" to-port="0" />
		<edge from-layer="2496" from-port="0" to-layer="2497" to-port="1" />
		<edge from-layer="2497" from-port="2" to-layer="2498" to-port="1" />
		<edge from-layer="2498" from-port="2" to-layer="2500" to-port="0" />
		<edge from-layer="2499" from-port="0" to-layer="2500" to-port="1" />
		<edge from-layer="2500" from-port="2" to-layer="2501" to-port="1" />
		<edge from-layer="2501" from-port="2" to-layer="2503" to-port="0" />
		<edge from-layer="2502" from-port="0" to-layer="2503" to-port="1" />
		<edge from-layer="2503" from-port="2" to-layer="2508" to-port="0" />
		<edge from-layer="2504" from-port="0" to-layer="2507" to-port="1" />
		<edge from-layer="2505" from-port="0" to-layer="2507" to-port="2" />
		<edge from-layer="2506" from-port="0" to-layer="2507" to-port="3" />
		<edge from-layer="2507" from-port="4" to-layer="2508" to-port="1" />
		<edge from-layer="2508" from-port="2" to-layer="2509" to-port="1" />
		<edge from-layer="2509" from-port="2" to-layer="2510" to-port="0" />
	</edges>
	<rt_info>
		<MO_version value="2023.2.0-13089-cfd42bd2cb0-HEAD" />
		<Runtime_version value="2023.2.0-13089-cfd42bd2cb0-HEAD" />
		<conversion_parameters>
			<framework value="tf" />
			<is_python_api_used value="False" />
			<output_dir value="DIR" />
			<saved_model_dir value="DIR" />
		</conversion_parameters>
		<legacy_frontend value="False" />
	</rt_info>
</net>
